FinalProject/Assets/MlAgentsModel/RollerBall.onnx (onnx, 76122 bytes, 7 tensors)

network_body._body_endoder.seq_layers.0.weight f4 [128, 8]
0	0xbe98ad52	-0.29819733
1	0xbebf75a0	-0.37394428
2	0x3d083317	0.033251848
3	0xbf2198c4	-0.63123727
4	0xbea820e4	-0.32837594
5	0x3e283037	0.16424643
6	0x3e536e9f	0.20647667
7	0x3ec43788	0.38323617
8	0xbeb75c0e	-0.3581242
9	0x3e1815d8	0.14852083
10	0xbf2db48e	-0.6785363
11	0xbdd1180e	-0.10209666
12	0xbc1b3f9d	-0.009475616
13	0x3bec53cd	0.0072121383
14	0xbe887b0c	-0.26656377
15	0xbeaa2560	-0.3323164
16	0x3ee55217	0.44789192
17	0xbebc45f9	-0.36772135
18	0xbd1ad216	-0.03779801
19	0xbede77d9	-0.43450812
20	0xbcadd0a0	-0.021217644
21	0x3e8eb903	0.27875528
22	0xbe5a7b45	-0.21336086
23	0xbefb9d58	-0.4914348
24	0xbe97676e	-0.29571098
25	0x3e74c9a8	0.23905051
26	0x3d30554f	0.043050107
27	0x3eb30310	0.34963274
28	0x3e256130	0.16150355
29	0xbcf3e303	-0.029771334
30	0xbe0ae992	-0.13565663
31	0xbebf0836	-0.37310952
32	0x3e0f3f93	0.13989095
33	0x3ec3e6f1	0.38262132
34	0xbf15251f	-0.5825977
35	0xbec1eae0	-0.37874508
36	0xbe1939d4	-0.14963466
37	0xbe4c088d	-0.19925137
38	0xbf2ba100	-0.6704254
39	0xbccf940a	-0.025339145
40	0x3b7384a7	0.0037157924
41	0x3ed61a13	0.41816768
42	0x3e5566ea	0.2084004
43	0xbd9837ed	-0.07432542
44	0x3da5b4c4	0.08091119
45	0xbefc235d	-0.4924573
46	0xbebbe494	-0.3669783
47	0xbe6e89ac	-0.23294705
48	0x3e835782	0.256527
49	0x3cbc72d0	0.023003966
50	0xbf0387ca	-0.5137907
51	0xbf079cbc	-0.5297353
52	0xbe4db530	-0.20088649
53	0x3e460a1d	0.19339795
54	0x3f4f15de	0.8089274
55	0xbe0aec16	-0.13566622
56	0x3eb3aba4	0.3509189
57	0x3d84b23d	0.06479309
58	0xbd6d9806	-0.05800631
59	0xbea7a5e2	-0.32743746
60	0xbf322a00	-0.69595337
61	0x3d97361d	0.07383368
62	0xbea903cc	-0.3301071
63	0xbd1d870f	-0.03845888
64	0xbee181d3	-0.4404436
65	0x3ece11bc	0.40247905
66	0xbcfe53d9	-0.031045841
67	0x3e64b6df	0.22335385
68	0xbe645eae	-0.22301742
69	0x3d386c25	0.04502501
70	0xbe5d3361	-0.21601631
71	0x3dc28250	0.094975114
72	0xbe82eef7	-0.2557294
73	0xbd3942dd	-0.04522978
74	0x3d8eb4c9	0.06968076
75	0xbd519212	-0.051164694
76	0x3d8eddf0	0.06975925
77	0x3f1b642e	0.6069974
78	0x3e66eacc	0.22550505
79	0xbdc4c5d0	-0.09608042
80	0xbe14e652	-0.14540985
81	0x3ee31781	0.4435387
82	0x3ec9f8ef	0.39447734
83	0x3d555d7e	0.052091114
84	0xbf4630e0	-0.7741833
85	0xbf42fa64	-0.76163316
86	0x3e40cb8d	0.18827648
87	0xbf85125d	-1.0396229
88	0x3e44c745	0.1921664
89	0x3e48fafe	0.19626996
90	0xbf16b237	-0.58865684
91	0xbf455b4c	-0.7709243
92	0x3eb0ce32	0.34532315
93	0x3e937946	0.28803462
94	0x3e320ee2	0.1738849
95	0xbe1cd387	-0.15315066
96	0x3e959b38	0.29219985
97	0xbde9f60f	-0.11423885
98	0xbf3b4fa7	-0.73168415
99	0xbeaf8780	-0.34283066
100	0xbe69751a	-0.22798577
101	0x3e57c4ba	0.21071139
102	0xbe853508	-0.26017022
103	0x3e3ea1e6	0.18616447
104	0x3eefadbc	0.46812236
105	0x3e863bb5	0.26217428
106	0x3e64033c	0.22266859
107	0xbed30db1	-0.41221383
108	0x3e4fc8f4	0.20291501
109	0xbde68e61	-0.11257625
110	0xbddd228e	-0.107976064
111	0x3dbe46ea	0.092908695
112	0xbe261a2b	-0.1622092
113	0x3e11ac8b	0.14225976
114	0x3ce75b3e	0.02824175
115	0x3ea83599	0.32853392
116	0xbd66a6c7	-0.056311395
117	0xbd825ee4	-0.06365755
118	0x3dd74e06	0.10512929
119	0x3e9d9603	0.30778512
120	0x3dba1a86	0.0908709
121	0x3e79a78d	0.24380322
122	0xbe39517b	-0.18097489
123	0x3db15aa4	0.086598665
124	0x3e5833ef	0.21113561
125	0xbe406dfb	-0.18791954
126	0x3e826baf	0.2547278
127	0xbf151bc8	-0.58245516
128	0x3e90b6ec	0.28264558
129	0xbdeb8796	-0.1150047
130	0xbe84c076	-0.25928086
131	0xbd9d38ac	-0.07676825
132	0xbea1749c	-0.31534278
133	0x3e964d27	0.29355738
134	0xbe139c62	-0.14415124
135	0x3e757014	0.23968536
136	0xbe732d87	-0.23747836
137	0x3f15db55	0.585378
138	0xbea3cee5	-0.31993786
139	0xbecf9886	-0.40546054
140	0xbea224dc	-0.31668746
141	0xbda02705	-0.078199424
142	0xbe90cc5f	-0.28280923
143	0xbec3a0cc	-0.38208616
144	0x3e8bbe0f	0.2729344
145	0xbe23ca2c	-0.15995091
146	0xbeb098d3	-0.34491596
147	0xbe2a5570	-0.16634154
148	0xbeb8ad63	-0.36069784
149	0x3e81cbae	0.25350708
150	0xbe0971e1	-0.13422348
151	0xbe8166c0	-0.25273705
152	0x3e93b5dc	0.28849685
153	0xbca729c3	-0.020405656
154	0xbe2a27c2	-0.16616729
155	0xbf53436b	-0.82524747
156	0xbe261f40	-0.16222858
157	0xbd9e6735	-0.07734529
158	0xbefbb8b3	-0.49164352
159	0xbf01e6fd	-0.50743085
160	0x3ddebd8b	0.10875996
161	0xbe30e4aa	-0.17274728
162	0xbe085b49	-0.13316073
163	0xbf152531	-0.58259875
164	0x3eb095be	0.34489244
165	0x3e9c36d6	0.30510587
166	0xbea64a5d	-0.3247861
167	0x3d790df5	0.060804326
168	0x3e027e14	0.12743407
169	0x3df8ff8b	0.12158116
170	0xbda6aa2c	-0.081379265
171	0x3ed07b71	0.40719178
172	0x3ee452d8	0.44594455
173	0x3f4a8f13	0.79124564
174	0x3ddf855e	0.1091411
175	0xbd95feb0	-0.073239684
176	0x3f32ea64	0.698889
177	0xbddf3b97	-0.10900038
178	0x3e7ea18a	0.2486631
179	0xbf3e28cc	-0.74281
180	0x3dfe0950	0.1240412
181	0x3ead818d	0.33887902
182	0x3df0d374	0.117590815
183	0x3e518503	0.20460896
184	0xbd822b96	-0.063559696
185	0x3e983fef	0.29736277
186	0x3f37f113	0.71852225
187	0x3ee135a2	0.4398623
188	0x3f2591c1	0.6467553
189	0xbe3cb7ea	-0.18429533
190	0x3e90569e	0.28191084
191	0x3ec0323d	0.3753833
192	0xbe5e3667	-0.2170044
193	0xbf2a2cfd	-0.66474897
194	0xbe79f3a1	-0.24409343
195	0x3e7179bc	0.23581594
196	0xbe6406c6	-0.22268209
197	0xbe588152	-0.21143082
198	0xbd9a2642	-0.07526828
199	0xbeef8a87	-0.46785375
200	0xbf18e17f	-0.5971908
201	0x3ea605ce	0.32426304
202	0xbed98b00	-0.4248886
203	0x3e873331	0.26406243
204	0xbee87ee4	-0.4540931
205	0xbdd80c91	-0.10549272
206	0x3f0bd91a	0.54628146
207	0xbe01923f	-0.12653445
208	0xbea3aed9	-0.31969336
209	0x3e07cfcd	0.13262863
210	0xbe055416	-0.13020357
211	0xbdbdc0e3	-0.09265306
212	0xbe91bc82	-0.28464133
213	0xbce4275c	-0.0278508
214	0xbd0c15ec	-0.034200594
215	0x3e010f8d	0.12603588
216	0xbd2692ef	-0.04066747
217	0xbda24bd7	-0.079246216
218	0x3dd053cf	0.10172235
219	0x3e3fe382	0.18739131
220	0x3e85692a	0.26056796
221	0xbd74c12f	-0.059754547
222	0xbe4962d3	-0.19666605
223	0x3eac7399	0.33681944
224	0x3e1273b6	0.14301953
225	0xbf06bee2	-0.52635014
226	0xbe3d6dd6	-0.1849893
227	0x3d4e227d	0.05032586
228	0xbe714a57	-0.23563515
229	0x3e31ca1e	0.17362258
230	0x3ec18beb	0.3780206
231	0xbf63bb73	-0.889579
232	0x3f250f60	0.64476585
233	0xbdfa68bf	-0.1222701
234	0xbe5e8a43	-0.2173243
235	0xbe6968f3	-0.22793941
236	0x3cae5959	0.021282839
237	0x3ca8752e	0.020563688
238	0x3eb13572	0.34611088
239	0xbd52dae2	-0.051478274
240	0x3eb2fc27	0.34958002
241	0xbe07f19a	-0.13275757
242	0xbe83eb0b	-0.2576526
243	0xbf1a913d	-0.60377866
244	0xbd59d1f5	-0.053178746
245	0x3e6d0db9	0.23149766
246	0xbe9f2d3a	-0.31089193
247	0xbe7c4679	-0.24636258
248	0xbec207f0	-0.3789668
249	0x3e924d0a	0.285744
250	0x3c6b9cca	0.014380643
251	0x3f0daa4c	0.5533798
252	0x3d936cc1	0.071984775
253	0xbe55937b	-0.2085704
254	0x3df4e804	0.11958316
255	0xbe93210d	-0.28736153

network_body._body_endoder.seq_layers.0.bias f4 [128]
0	0x3b894429	0.0041890335
1	0x3c860298	0.016358659
2	0x3d2ce57d	0.042211045
3	0x3cbf41a0	0.023346722
4	0x3d1d68bf	0.03842997
5	0x3d812e89	0.06307704
6	0xbc14e473	-0.00908767
7	0x3deb84e1	0.11499954
8	0x3cde989e	0.027172383
9	0x3d0c2eaa	0.03422419
10	0xbd8ce4b2	-0.06879558
11	0x3d93c9b4	0.07216206
12	0x3e132b58	0.14372003
13	0x3df5fe70	0.12011421
14	0x3c299acc	0.010351848
15	0xbd99cdb1	-0.07509936
16	0x3c172358	0.009224735
17	0x3c02bec9	0.007980057
18	0x3b92009e	0.00445564
19	0x3d209ea4	0.03921379
20	0xbd33677b	-0.04379986
21	0x3d1f9cbc	0.038967833
22	0x3d4ce720	0.050025105
23	0x3cd89851	0.026439818
24	0xbd4f646d	-0.050632883
25	0x3dd9fcb2	0.10643901
26	0xbe04d3a1	-0.12971355
27	0xbdd0432e	-0.101690635
28	0xbdf78d60	-0.12087512
29	0x3de73436	0.11289255
30	0x3dc11c7e	0.094292626
31	0x3db9c3e7	0.090705685
32	0xbd814b72	-0.06313218
33	0x3ca44ba6	0.020055603
34	0x3de25504	0.11051372
35	0x3e38e8ce	0.18057558
36	0x3d9d2b85	0.07674316
37	0x3b4859a6	0.0030571013
38	0xbd147670	-0.036245763
39	0xbd877bf8	-0.06615442
40	0xbd91a021	-0.0711062
41	0xbd89f2b6	-0.067357466
42	0xbb6570aa	-0.003500978
43	0xbd26172a	-0.040549435
44	0x3d093ec8	0.03350714
45	0x3e16e17f	0.14734457
46	0x3c2d7ee0	0.010589331
47	0xbb3fce4b	-0.0029267247
48	0x3dbb494a	0.09144838
49	0x3e064f74	0.13116246
50	0x3d182616	0.037145697
51	0x3dbd4537	0.09241717
52	0xbd6ea3e1	-0.058261756
53	0xbd9af191	-0.075656064
54	0xbd98a342	-0.07453014
55	0xbdd46e6e	-0.10372625
56	0x3d6c4db8	0.057691306
57	0x3db1e707	0.08686643
58	0xbafae7bb	-0.0019142547
59	0xbc801150	-0.015633255
60	0xbbf0b36d	-0.007345608
61	0xbda6f6db	-0.08152553
62	0xbc8307c2	-0.01599491
63	0xbe15fda4	-0.14647537
64	0xbbb17381	-0.0054153805
65	0xbd698026	-0.057006977
66	0xbe05dc43	-0.13072304
67	0xbc39a01a	-0.011329675
68	0xbd55d381	-0.05220366
69	0x3cee837f	0.029115437
70	0xbd3a20e6	-0.04544153
71	0xbd001eb6	-0.03127929
72	0xbd2762a9	-0.040865574
73	0x3c1dde4a	0.009635517
74	0xbdb25601	-0.0870781
75	0xbc640245	-0.013916557
76	0xbd09c0d6	-0.03363117
77	0xbde1d0ab	-0.110261284
78	0x3d51501d	0.051101793
79	0xbd993b43	-0.074820064
80	0x3e24ca43	0.16092782
81	0x3dff644d	0.12470303
82	0x3d3d3553	0.046193432
83	0x3d23e80a	0.04001621
84	0xbc1b7cab	-0.009490172
85	0x3d478169	0.0487074
86	0xbd1c1272	-0.03810353
87	0x3d6179f2	0.055047937
88	0x3db7b4ce	0.08970033
89	0xbceb4404	-0.028718956
90	0x3cd433e5	0.025903651
91	0x3c9b5a96	0.018964093
92	0x3c102973	0.008798945
93	0x3d83fc4b	0.064446054
94	0x3befa4cf	0.007313348
95	0x3d125c4d	0.035732556
96	0xbc917c17	-0.017759366
97	0x3db075e1	0.086162336
98	0x3d1d6e1f	0.038435098
99	0xbcb11973	-0.02161858
100	0xbd79c883	-0.06098224
101	0x3d874432	0.06604804
102	0x3bf32a65	0.0074208253
103	0x3bac76c0	0.0052631795
104	0xbc53e9a2	-0.01293412
105	0xbdc77d71	-0.09740723
106	0xbc7b6551	-0.01534398
107	0x3c0c5e7e	0.008567451
108	0x3cd8f94f	0.026486067
109	0x3d251356	0.040301643
110	0xbde92478	-0.11383909
111	0xbd9fce85	-0.07803062
112	0x3d8f315c	0.069918364
113	0xbe185b19	-0.14878501
114	0x3d800f76	0.06252949
115	0xbc40947c	-0.011754151
116	0xbd6c2363	-0.057650935
117	0xbe315324	-0.17316872
118	0x3c852426	0.016252588
119	0xbdc9fc18	-0.09862536
120	0x3db3611d	0.08758757
121	0x3cf98767	0.030460073
122	0x3c1f2548	0.009713478
123	0xba8c8122	-0.0010719637
124	0xbc8e1aa1	-0.017346682
125	0xbd19b2f9	-0.037524197
126	0xbd666e1b	-0.05625735
127	0xbd3e622c	-0.046480343

network_body._body_endoder.seq_layers.2.weight f4 [128, 128]
0	0x3dee1a56	0.11626117
1	0x3cbd95ed	0.02314278
2	0x3e21aec7	0.15789329
3	0xbe6cfaf9	-0.23142613
4	0x3dad333f	0.0845704
5	0x3d524caa	0.051342644
6	0x3e464492	0.19362095
7	0xbafaf049	-0.0019145097
8	0xbb9dbebd	-0.0048139975
9	0xbe048a13	-0.12943296
10	0x3e06f07d	0.13177676
11	0x3d745173	0.05964799
12	0xbe0a9750	-0.13534284
13	0xbda9c85d	-0.082901694
14	0xbdcdbf59	-0.10046262
15	0x3db95c4f	0.090508096
16	0x3d47c4ad	0.04877155
17	0xbe1a98d2	-0.15097359
18	0x3e0c5465	0.13704069
19	0xbc6b087e	-0.014345286
20	0x3dd727cd	0.10505638
21	0xbcb2e0e7	-0.021835757
22	0x3cf013ed	0.029306376
23	0xbe3db666	-0.1852661
24	0xbcb5c4a4	-0.022188492
25	0xbe2fabba	-0.17155352
26	0xbe3150df	-0.17316006
27	0x3b920ee1	0.00445734
28	0x3e12e313	0.14344434
29	0x3d7e5549	0.062093053
30	0x3e09f43c	0.13472074
31	0xbe09cb56	-0.13456473
32	0x3df65c2d	0.120293
33	0x3d1f8b00	0.03895092
34	0x3d8ae0f8	0.06781191
35	0x3e3bf0d7	0.18353592
36	0xbb327bcb	-0.002723443
37	0xbd6599ff	-0.056055065
38	0xbc102738	-0.008798413
39	0x3d8b4d2e	0.0680183
40	0xbd7ece2a	-0.062208332
41	0xbd90afb7	-0.07064765
42	0xbe29cdde	-0.16582438
43	0xbcc82831	-0.024433227
44	0x3e2f651d	0.17128415
45	0xbe072cac	-0.13200635
46	0x3d414ac6	0.04719045
47	0xbe224a45	-0.15848644
48	0xbda14440	-0.07874346
49	0xbd208c42	-0.03919626
50	0xbe6c91be	-0.23102471
51	0xbe009733	-0.12557678
52	0x3dacbda6	0.0843461
53	0xbda9a5a2	-0.08283545
54	0xbdb6d091	-0.089265
55	0xbe1955b3	-0.14974098
56	0x3e8274a1	0.25479606
57	0xbd9462e4	-0.072454244
58	0xbe0f355e	-0.13985202
59	0xbdd5416c	-0.10412869
60	0x3c8dd129	0.01731165
61	0x3df8c3f5	0.12146751
62	0x3e2b9449	0.16755785
63	0xbd1d913c	-0.038468584
64	0x3dd16faf	0.1022638
65	0xbc8b6745	-0.017017016
66	0xbea0a061	-0.3137236
67	0x3dfc58b4	0.12321606
68	0x3c68b6cc	0.014203738
69	0x3e02adb1	0.1276157
70	0x3b56bc83	0.003276617
71	0xbe495f5d	-0.19665284
72	0x3dfdf99c	0.12401125
73	0x3e68656d	0.22694941
74	0x3d539861	0.05165899
75	0xbda0329d	-0.07822154
76	0xbdcb2e09	-0.0992089
77	0x3c99b5ef	0.01876351
78	0x3daedf04	0.085386306
79	0xbed6e505	-0.41971603
80	0xbd5c5c81	-0.053799156
81	0x3c7fa784	0.015603904
82	0x3d2107bd	0.03931402
83	0x3e1d1310	0.15339303
84	0xbdc94ec5	-0.09829477
85	0xbe036f92	-0.1283553
86	0xbe18d0ed	-0.14923449
87	0x3e0c7e65	0.1372009
88	0x3e4aed14	0.19817
89	0x3d85d4d3	0.065347336
90	0x3b93220e	0.0044901436
91	0xbdc6e571	-0.09711731
92	0x3dd67df0	0.104732394
93	0xbd7a7e9a	-0.061155893
94	0x3cfa87a1	0.030582251
95	0x3e1e2f8f	0.1544783
96	0xbe203390	-0.1564467
97	0x3d96742e	0.07346378
98	0x3d8aac7c	0.0677118
99	0x3ce075de	0.027399953
100	0xbe70e16b	-0.2352349
101	0xbe66ec4e	-0.2255108
102	0x3d513043	0.051071417
103	0xbe49bb96	-0.19700465
104	0x3d029ead	0.031889606
105	0xbda13389	-0.07871158
106	0xbdee58c6	-0.11638026
107	0x3dd7d1df	0.105380766
108	0xbdb02453	-0.08600678
109	0x3d258460	0.040409446
110	0xbe0ad701	-0.1355858
111	0xbdb4910b	-0.08816727
112	0xbd962467	-0.07331162
113	0x3cd37956	0.025814693
114	0xbd56d775	-0.05245157
115	0x3cf8f3db	0.030389717
116	0x3e00eadd	0.12589593
117	0x3dafbd02	0.08580972
118	0xbe0da234	-0.13831407
119	0xbda08adf	-0.078389876
120	0x3d992ca4	0.07479218
121	0xbda02240	-0.07819033
122	0xbe1e6694	-0.15468818
123	0x3d393a10	0.04522139
124	0xbd4bca6b	-0.049753588
125	0xbd7f6e4c	-0.062361047
126	0x3db306ac	0.08741507
127	0x3dc24dfe	0.09487532
128	0xbdbd6657	-0.092480354
129	0x3da97960	0.082751036
130	0x3d0cec4a	0.03440503
131	0xbd0670fe	-0.0328226
132	0x3d859805	0.06523136
133	0xbe5cc185	-0.21558197
134	0xbdd65258	-0.104649246
135	0x3e2214d7	0.15828262
136	0x3e424a00	0.18973541
137	0x3de79605	0.11307911
138	0xbc453c2e	-0.012038274
139	0xba3d02a5	-0.0007210172
140	0xbd6d6d40	-0.057965517
141	0xbe162702	-0.14663318
142	0x3e1711bb	0.14752857
143	0xbd4eaa02	-0.0504551
144	0x3e9066a2	0.28203303
145	0x3d620dfb	0.055189114
146	0x3de01059	0.10940618
147	0xbdc97a52	-0.09837784
148	0xbccf3838	-0.025295362
149	0x3d1690a4	0.036759034
150	0xbe4dcfdd	-0.20098825
151	0x3e049c7b	0.12950318
152	0xbbfa772c	-0.007643601
153	0x3c2b908d	0.010471475
154	0x3e2868a6	0.1644617
155	0x3d73ffc0	0.059570074
156	0xbda8dca5	-0.082452096
157	0xbe9588ae	-0.2920584
158	0x3d26c57d	0.040715683
159	0x3d3f33f7	0.046680417
160	0x3d41d620	0.047323346
161	0xbe35b38c	-0.17744273
162	0x3ce2eae4	0.027699895
163	0xbdf4379c	-0.11924669
164	0x3d3bb9a0	0.045831323
165	0xbdea911a	-0.11453457
166	0xbdd6549a	-0.10465355
167	0x3e33717f	0.17523764
168	0xbda3dc7a	-0.08001037
169	0xbe8b2c82	-0.27182394
170	0xbd0d9c40	-0.03457284
171	0x3da47f0c	0.08032045
172	0xbd148c2f	-0.036266502
173	0x3caff3ec	0.021478616
174	0xbc35063f	-0.0110488525
175	0x3dd47536	0.10373919
176	0xbc8777f7	-0.016536696
177	0xbbafa55f	-0.00536029
178	0xbc0b69de	-0.008509127
179	0x3c5baedb	0.013408388
180	0xbe4b42b0	-0.19849658
181	0xbc19942a	-0.009373704
182	0xbe00eb4e	-0.12589762
183	0xbc3ccb4e	-0.011523081
184	0xbe156fbe	-0.14593408
185	0xbbd1235d	-0.0063823895
186	0x3d1be217	0.038057413
187	0xbe18758c	-0.1488859
188	0xbddd62f8	-0.108098924
189	0x3d054787	0.032538917
190	0x3e1414c3	0.14461045
191	0xbd8a5109	-0.067537375
192	0x3d6fa0dd	0.05850302
193	0xbd6eea7a	-0.058329083
194	0x3e720b2a	0.23637071
195	0xbc34b3b2	-0.011029171
196	0x3cdeb5b0	0.027186245
197	0x3e30869a	0.17238846
198	0xbd590eb6	-0.052992545
199	0xbddb279d	-0.10700915
200	0xbdd28a95	-0.10280339
201	0xbe1bc641	-0.15212347
202	0xbdffd8d6	-0.1249253
203	0xbd5adb02	-0.05343152
204	0x3d80403c	0.06262252
205	0x3e2410f4	0.16022092
206	0x3d341a2c	0.043970272
207	0xbd867a34	-0.06566277
208	0xbd888f6a	-0.06667979
209	0xbd0c307e	-0.034225933
210	0x3de2667c	0.110547036
211	0x3c6793ac	0.014134329
212	0xbd955a68	-0.07292634
213	0xbdffca28	-0.1248973
214	0xbdee20b6	-0.11627333
215	0xbbface0d	-0.0076539577
216	0xbe5cbdba	-0.2155675
217	0x3d488058	0.048950523
218	0xbcd2ba0a	-0.025723476
219	0xbe14ae38	-0.14519584
220	0x3cb328b0	0.021869987
221	0xbd1d06e5	-0.038336653
222	0x3cf52a38	0.029927358
223	0xbe1f1410	-0.15534997
224	0x3e1d1d6b	0.15343253
225	0xbe02859c	-0.1274628
226	0xbbd21cf6	-0.006412144
227	0x3ca6a9a8	0.02034457
228	0x3da69ab5	0.08134977
229	0xbd4caa46	-0.049967073
230	0xbd116f74	-0.03550668
231	0xbdbeba7a	-0.09312911
232	0x3d890c3d	0.066917874
233	0xbd69d7dd	-0.05709063
234	0x3d04a9f2	0.032388635
235	0x3d68012e	0.05664175
236	0xbd339c43	-0.043850195
237	0xbccdbb0c	-0.025113605
238	0xbdc46777	-0.09590047
239	0x3e275287	0.16340075
240	0x3d548179	0.051881287
241	0xbe2feeea	-0.17180982
242	0x3d802105	0.06256298
243	0xbd0767dd	-0.033058036
244	0xbd20702e	-0.039169483
245	0xbd820093	-0.06347766
246	0x3e13b90d	0.1442606
247	0x3bec3768	0.0072087534
248	0xbd8bb717	-0.06822031
249	0xbd89d333	-0.06729736
250	0x3c1d0740	0.009584248
251	0xbce714b2	-0.02820811
252	0x3df27aa1	0.11839796
253	0xbd1f9713	-0.038962435
254	0xbd319b62	-0.043361075
255	0x3dceabf9	0.10091395

network_body._body_endoder.seq_layers.2.bias f4 [128]
0	0x3d612d7c	0.054975018
1	0x3b7082b2	0.0036698994
2	0x3d63e1fb	0.055635434
3	0x3c8078cb	0.015682599
4	0x3d23c9ee	0.039987497
5	0xbd5a1119	-0.05323896
6	0x3ddf96f4	0.10917464
7	0xbd052514	-0.032506064
8	0x3d6b7732	0.05748672
9	0x3b494c09	0.0030715487
10	0xbc99e2d3	-0.018784916
11	0x3cf68566	0.030092906
12	0x3b2e99f0	0.0026642047
13	0x3c8a7f7d	0.016906494
14	0x3dbec389	0.09314639
15	0xbcb7e41b	-0.022447636
16	0x3db0bf31	0.08630217
17	0xbd72a94a	-0.059243478
18	0x3d33e817	0.04392251
19	0xbd45aea1	-0.048262242
20	0xbcfb61c6	-0.03068627
21	0x3d967314	0.07346168
22	0x3c958d96	0.01825599
23	0x3d883c42	0.06652118
24	0xbd8ec594	-0.06971279
25	0x3cdafefd	0.026732916
26	0xbddbe1d8	-0.10736436
27	0x3dde90de	0.10867475
28	0xbcd5cff0	-0.026100129
29	0xbc2289dd	-0.0099205645
30	0x3db48ab2	0.088155165
31	0x3db9ca84	0.0907183
32	0x3d8cdb50	0.06877768
33	0xbc902e95	-0.017600337
34	0xbd0ad86f	-0.033897813
35	0xbce5d154	-0.028053917
36	0xbd1aef27	-0.03782573
37	0x3d6cb461	0.05778921
38	0x3d35a29b	0.044344526
39	0x3d49be8a	0.049253978
40	0x3c85287b	0.016254654
41	0x3dd474e0	0.10373855
42	0x3d257dac	0.040403053
43	0x3ce6d1c8	0.028176203
44	0x3d5497d2	0.0519026
45	0x3d82c5b1	0.06385363
46	0x3d99cbf4	0.07509604
47	0xbd6d5c6b	-0.057949465
48	0x3daf29fb	0.08552929
49	0xbd630a6e	-0.05542987
50	0x3e0afa6e	0.13572094
51	0x3d8ca499	0.06867332
52	0x3d67e5ed	0.05661576
53	0x3d82c8ee	0.063859805
54	0x3db07975	0.08616916
55	0xbc159057	-0.009128652
56	0x3c153269	0.009106257
57	0x3d69e7bb	0.05710576
58	0x3d2aac4c	0.04166822
59	0xbddb1a7d	-0.106984116
60	0x3d6fcdfe	0.05854606
61	0xbcd65db3	-0.026167726
62	0x3c92fbb8	0.017942294
63	0xbd468645	-0.048467893
64	0xbd7bec7a	-0.06150482
65	0x3d8e989d	0.069627024
66	0x3ae434d6	0.0017410766
67	0x3d8f2d93	0.069911145
68	0xbc1a4f03	-0.009418252
69	0x3b9af24d	0.0047285915
70	0x3c44ef23	0.012019905
71	0x3d46e759	0.048560474
72	0x3c675551	0.014119462
73	0x3d18ebe1	0.037334327
74	0x3d49adda	0.049238063
75	0x3d96a709	0.07356078
76	0xbd5e2665	-0.054235835
77	0xbcb02994	-0.021504201
78	0x3d193cba	0.03741143
79	0x3c471b63	0.012152526
80	0xbc294b15	-0.010332842
81	0x3d5ac6b5	0.053412158
82	0xbd024fcb	-0.031814378
83	0xbda958a9	-0.08268864
84	0x3d96d42e	0.07364689
85	0x3d809400	0.06278229
86	0x3d0f716f	0.035020288
87	0xbccf942f	-0.025339214
88	0x3d824516	0.06360833
89	0x3d4f2208	0.050569564
90	0xbb3e4c56	-0.00290372
91	0x3d1361ff	0.03598213
92	0x3d936f33	0.07198944
93	0xbc0ba70d	-0.008523715
94	0x3d145a70	0.03621906
95	0x3d8ccd06	0.068750426
96	0x3da98cb0	0.08278787
97	0xbbc9ce7e	-0.006158649
98	0xbc804dea	-0.015662152
99	0x3d6d32e9	0.05790988
100	0x3bdd77a9	0.0067586494
101	0xbbe7cc7c	-0.007073937
102	0x3c42bb6f	0.011885508
103	0x3dc38150	0.09546149
104	0xbd98642f	-0.074409835
105	0xbc74da98	-0.014944695
106	0x3d869e0c	0.06573114
107	0x3da86db1	0.08224047
108	0x3de33a5b	0.11095115
109	0x3ab9206b	0.0014124041
110	0x3daf1920	0.08549714
111	0x3c573556	0.013135275
112	0x3d882231	0.066471465
113	0xbdc2ff5a	-0.09521361
114	0x3da123d0	0.07868159
115	0xbd5ab280	-0.053392887
116	0x3d1536e3	0.036429297
117	0xbdb7ab56	-0.089682266
118	0x3bf0204d	0.0073280693
119	0x3bb9d92e	0.005671642
120	0x3d692b6d	0.05692618
121	0x3dbf23ee	0.09333025
122	0xbd7f2cab	-0.062298458
123	0xbd1074a3	-0.035267483
124	0xbd3a81c0	-0.045533895
125	0xbd4d9510	-0.050190985
126	0x3d03a1eb	0.03213684
127	0x3d5b2a83	0.05350734

action_model._continuous_distribution.log_sigma f4 [1, 2]
0	0xbedcff42	-0.43163496
1	0xbf0b5e21	-0.54440504

action_model._continuous_distribution.mu.weight f4 [2, 128]
0	0x3dd452fe	0.10367392
1	0xbd32645d	-0.043552745
2	0xbd045c01	-0.032314304
3	0xbdc77be2	-0.09740426
4	0x3d0a2150	0.033723176
5	0x3c67dc0d	0.014151585
6	0x3c029385	0.007969742
7	0xbd061bbc	-0.032741293
8	0xbde7bb65	-0.113150395
9	0xbda47683	-0.08030417
10	0x3c7f59ef	0.015585407
11	0xbd8f96c3	-0.070111774
12	0xbd558c23	-0.052135598
13	0x3dae28a8	0.08503848
14	0x3da0d983	0.07853987
15	0xbbbe1b37	-0.005801584
16	0x3e17ac4c	0.1481182
17	0xbc80ae9d	-0.015708262
18	0x3da1fbb7	0.07909339
19	0xbd67a2fc	-0.05655192
20	0x3cdfd410	0.027322799
21	0x3d78c713	0.060736727
22	0xbd5213b7	-0.051288333
23	0x3da91d75	0.082575716
24	0x3ca02a4a	0.019551415
25	0xbd774c00	-0.060375214
26	0x3d3ba728	0.04581371
27	0xbe0b0e01	-0.13579561
28	0x3d2ecf8e	0.04267841
29	0xbbdb8010	-0.006698616
30	0xbb4d60a0	-0.003133811
31	0x3d1bf5dc	0.038076267
32	0x3d00f4c2	0.03148342
33	0xbd3b5364	-0.045733824
34	0xbc4a3690	-0.01234211
35	0xbda27876	-0.07933132
36	0x3d2e6e59	0.042585704
37	0x3ddfe884	0.10933021
38	0x3ddad651	0.10685409
39	0xbdcb575d	-0.099287726
40	0x3d5a1dad	0.053250957
41	0xbc60d4e2	-0.01372263
42	0xbda815e8	-0.08207303
43	0xbd42c4f9	-0.04755113
44	0x3c9f171c	0.0194202
45	0x3db37c5f	0.08763956
46	0xbcbe34d8	-0.023218557
47	0xbd29d3b7	-0.041461673
48	0x3d969a0a	0.07353599
49	0xbd9ba651	-0.07600082
50	0xbe00544d	-0.12532158
51	0xbde9c0cf	-0.114137284
52	0x3d903803	0.070419334
53	0x3c856093	0.016281402
54	0xbd90a34f	-0.07062399
55	0xbcbcfd3c	-0.02306997
56	0x3de3f443	0.111305736
57	0x3debf61f	0.11521553
58	0x3d24e98b	0.040261786
59	0x3c946a1e	0.018117007
60	0x3ccc12ed	0.024911368
61	0x3ccd12d5	0.025033394
62	0xbc82fba7	-0.015989138
63	0xbce0267d	-0.027362103
64	0x3c0170fb	0.007900472
65	0xbda5a5c0	-0.08088255
66	0xbd037876	-0.032097302
67	0xbdae3678	-0.08506483
68	0x3dbafaf2	0.09129895
69	0xbb75ee84	-0.00375262
70	0x3cbb1694	0.022837915
71	0xbdc3bcaf	-0.09557473
72	0x3c864465	0.016390035
73	0x3d82e8a9	0.06392033
74	0x3ddf7845	0.109116115
75	0xbdfce537	-0.12348407
76	0x3caaa152	0.020828877
77	0x3d315ba1	0.043300275
78	0xbda68ff4	-0.08132926
79	0x3d10be5c	0.03533779
80	0xbd1d8261	-0.038454417
81	0x3db75ad1	0.08952869
82	0xbcc91a45	-0.02454866
83	0xbca543b8	-0.020173892
84	0xbe034104	-0.1281777
85	0x3cf39e1f	0.029738484
86	0xbdcf1f85	-0.10113434
87	0xbb74c484	-0.0037348578
88	0xbd32de70	-0.043669164
89	0x3d00a8c1	0.031410936
90	0xbde204a3	-0.11036041
91	0xbded53ee	-0.11588274
92	0x3d138086	0.03601124
93	0xbd1e995d	-0.038720477
94	0xbe05cfd0	-0.13067555
95	0x3dd94410	0.10608685
96	0x3e01570b	0.1263086
97	0x3d8fd176	0.070223734
98	0x3cb17dd5	0.021666447
99	0x3e11b7d8	0.14230287
100	0x3c994fdd	0.01871484
101	0x3cbc5022	0.022987429
102	0x3d1415cd	0.036153603
103	0xbddf01c7	-0.10889011
104	0xbcb589d8	-0.022160456
105	0xbd9339b8	-0.07188743
106	0xbdc2b453	-0.0950705
107	0x3dde0dcb	0.108424746
108	0x3e11475d	0.14187379
109	0x3d222ef4	0.03959556
110	0x3d19f4fa	0.037587143
111	0xbd3651c5	-0.044511575
112	0x3dfea15c	0.124331206
113	0xbd8d458c	-0.06898031
114	0xbdfbb5e5	-0.12290553
115	0xbdb16e7d	-0.08663652
116	0x3d81bece	0.06335221
117	0x3d432ccd	0.047650147
118	0xbe03bcb9	-0.1286496
119	0x3dcb3b3b	0.09923407
120	0x3d022161	0.031770114
121	0x3d045d03	0.032315265
122	0x3b82af33	0.0039881705
123	0xbd648a69	-0.05579606
124	0x3d317faf	0.04333466
125	0x3a3ca8f9	0.000719681
126	0x3c952d15	0.018209973
127	0x3d974d33	0.073877715
128	0x3d0f9715	0.035056192
129	0xbd0dd4a3	-0.034626614
130	0xbe06004a	-0.13086048
131	0xbd2112a5	-0.03932442
132	0x3d44320d	0.047899295
133	0x3d61575e	0.05501496
134	0xbe1515fd	-0.14559169
135	0xbca9fcbd	-0.020750398
136	0x3a1b45c1	0.0005923175
137	0xbcff4f7b	-0.031165829
138	0x3d95da35	0.0731701
139	0xbdc981a0	-0.09839177
140	0x3c40274f	0.011728122
141	0xbd7e8e45	-0.062147398
142	0xbdfc90f1	-0.12332333
143	0x3dc8071a	0.097669795
144	0xbce635d9	-0.028101848
145	0xbca46761	-0.020068826
146	0xbdc931d6	-0.098239586
147	0xbd43cf4c	-0.047805116
148	0xbd6b29e2	-0.05741299
149	0x3dcb319b	0.09921571
150	0xbc769268	-0.015049554
151	0xbdc8517a	-0.097811654
152	0xbd31f21a	-0.043443777
153	0xbd1bbdad	-0.038022686
154	0xbde329c4	-0.110919505
155	0xbcab4c6c	-0.020910464
156	0x3c319889	0.01083959
157	0xbb1084b6	-0.0022051758
158	0x3d950aa7	0.072774224
159	0x3dba2a10	0.09090054
160	0x3dd9cb6b	0.10634502
161	0x3c4057e9	0.011739709
162	0x3c5610f2	0.0130655635
163	0xbd04b7ab	-0.032401722
164	0x3cd60ace	0.026128199
165	0x3dab52fe	0.08365439
166	0xbd5c2dc3	-0.05375458
167	0xbda59247	-0.08084541
168	0x3d283ee7	0.041075613
169	0x3db70c56	0.089379
170	0x3beb04a3	0.0071721836
171	0x3c847763	0.01617021
172	0xbd3b41ee	-0.045717172
173	0xb9ba6a02	-0.00035555667
174	0x3d7714de	0.060322635
175	0xbc0e06f7	-0.008668653
176	0xbda2503f	-0.07925462
177	0xbd1dc22b	-0.03851525
178	0x3c9c3206	0.019066822
179	0xbcbcce10	-0.023047477
180	0xbd9abb23	-0.07555225
181	0x3ddcdf8e	0.10784827
182	0x3d113f7f	0.035460945
183	0x3ddb7251	0.107151635
184	0xbd80ae4a	-0.06283243
185	0xbd7cf386	-0.06175568
186	0xbd81e7ab	-0.06343015
187	0xbc06a2e2	-0.008217545
188	0xbe00d2fc	-0.12580484
189	0xbc16b620	-0.009198695
190	0xbd8157b1	-0.06315554
191	0x3cf05617	0.029337926
192	0xbda54ae4	-0.08070925
193	0xbb3d45a7	-0.0028880627
194	0xbca42388	-0.020036474
195	0x3cb54f6c	0.022132598
196	0xbd88c983	-0.0667906
197	0x3d48f7dd	0.049064506
198	0x3d8070c8	0.06271511
199	0xbd17d1ea	-0.037065424
200	0xbd2a1629	-0.04152504
201	0x3cc085c7	0.02350129
202	0xbdac0dbb	-0.084010564
203	0xbb58faa0	-0.0033108369
204	0x3d813025	0.06308011
205	0xbcb8b94f	-0.0225493
206	0xbc85f1df	-0.016350685
207	0xbd9ece09	-0.07754142
208	0xbce5e340	-0.028062463
209	0xbc94021a	-0.018067408
210	0x3c8f185d	0.017467672
211	0xbc925dd2	-0.017867003
212	0xbce1963d	-0.02753746
213	0x3dd21554	0.10257974
214	0xbc13d838	-0.009023719
215	0x3d40ed5e	0.04710137
216	0xbe06b1d9	-0.13153781
217	0x3deddb60	0.11614108
218	0x3d22167b	0.03957222
219	0xbc474bb1	-0.012164042
220	0x3dc6316a	0.09677394
221	0x3dcaa964	0.0989559
222	0xbba142de	-0.0049213013
223	0xbcd2fc0c	-0.025754951
224	0x39db9c7a	0.0004188752
225	0xbca9d9b5	-0.020733694
226	0x3da6c08e	0.08142196
227	0xbcb68441	-0.02227986
228	0x3da1abac	0.07894072
229	0x3d4852ae	0.048906974
230	0x3d61019a	0.054933168
231	0xbceb51a0	-0.028725445
232	0xbd015b48	-0.031581193
233	0xbccb3bcc	-0.024808787
234	0x3d216469	0.0394024
235	0xbd84c480	-0.06482792
236	0x3d094afc	0.033518776
237	0x3dacacb7	0.0843138
238	0x3e063a4c	0.13108176
239	0x3dde00ce	0.10839997
240	0xbd7f0dfc	-0.062269196
241	0xbd8b5266	-0.06802826
242	0x3d1d132b	0.038348358
243	0x3d14cd25	0.036328454
244	0x3d27a79b	0.040931325
245	0xbb0e4b0a	-0.0021712207
246	0x3d147512	0.03624446
247	0x3d080348	0.033206254
248	0x3d7b1820	0.061302304
249	0x3e143a95	0.14475472
250	0x3d000fc0	0.03126502
251	0xbcabc67a	-0.020968664
252	0x3d918465	0.071053304
253	0x3cb77dcb	0.02239885
254	0x3d8f3ead	0.06994376
255	0x3d415f4a	0.047210015

action_model._continuous_distribution.mu.bias f4 [2]
0	0x3d568d64	0.052380934
1	0x38db000e	0.00010442744
