FinalProject/results/Zombie/Zombie/checkpoint.pt (torch, 447522 bytes, 36 tensors)

network_body._body_endoder.seq_layers.0.weight f4 [128, 8]
0	0xbeb5dff0	-0.35522413
1	0xbf2af535	-0.66780406
2	0xbdf9fa18	-0.12205905
3	0x3f0a4803	0.5401613
4	0xbb8f70d7	-0.004377465
5	0x3c10e9f9	0.008844846
6	0xbef3ba45	-0.4760305
7	0xbea2010c	-0.31641424
8	0x3e5f78fe	0.21823499
9	0x3e875400	0.26431274
10	0x3ec2ac89	0.3802226
11	0x3e7f3a51	0.2492459
12	0x3ef28d6b	0.47373518
13	0x3ef5a006	0.4797365
14	0x3ea87e48	0.32908845
15	0xbed86d78	-0.42271018
16	0xbe88b47b	-0.26700196
17	0x3a62853b	0.00086410687
18	0x3e85daec	0.26143587
19	0xbeff0b49	-0.49813297
20	0xbe71ae19	-0.23601569
21	0x3edb7d7b	0.42869172
22	0xbb83ca55	-0.0040219226
23	0x3d8dc1d1	0.06921733
24	0x3f01a02b	0.5063502
25	0x3c3afbe5	0.011412595
26	0x3ebfe2a7	0.3747761
27	0xbedfbc4f	-0.43698356
28	0xbf372ee7	-0.7155594
29	0x3e8831b9	0.26600435
30	0x3e706081	0.23474313
31	0xbd01cab3	-0.03168745
32	0xbe5fb406	-0.21846017
33	0xbeb1cafc	-0.34725177
34	0x3ef39905	0.47577682
35	0x3ef526b9	0.47881106
36	0xbf0b2bfc	-0.5436399
37	0xbe7f7767	-0.24947892
38	0x3ee22b8e	0.44173855
39	0xbef539ae	-0.4789557
40	0xbe870aeb	-0.26375517
41	0x3f7bb6ba	0.98325694
42	0x3cc7c8e5	0.024387786
43	0x3ccda66a	0.025103766
44	0xbee86310	-0.4538808
45	0xbdd66611	-0.10468686
46	0xbe96f3d2	-0.29482895
47	0x3d9d06b1	0.07667292
48	0x3e6796ca	0.22616115
49	0xbc9eb46e	-0.019373145
50	0xbf5240ef	-0.8213033
51	0x3eddf738	0.43352675
52	0xbe827ade	-0.25484365
53	0xbec0e1c1	-0.37672237
54	0xbd0d7185	-0.03453209
55	0xbe5f95d2	-0.21834496
56	0xbd4e0a11	-0.05030257
57	0xbe774f1f	-0.24151276
58	0x3e45a9a6	0.19302997
59	0xbf075aa8	-0.52872705
60	0x3e99ae31	0.3001571
61	0x3d9d6fa8	0.07687312
62	0x3cb5fc61	0.02221507
63	0x3e63f0d7	0.22259842
64	0x3eb5f38a	0.35537368
65	0xbe73757c	-0.23775285
66	0x3e80ca38	0.2515428
67	0x3c65dae9	0.014029243
68	0xbe283a1b	-0.16428415
69	0x3e980d68	0.29697728
70	0x3e8af1bc	0.27137554
71	0x3e32b8f7	0.17453371
72	0xbbb8975f	-0.005633279
73	0xbf351a4c	-0.7074325
74	0x3f5e7b93	0.8690731
75	0x3bb6c10f	0.0055772136
76	0x3cb84eb4	0.022498466
77	0xbf13bc50	-0.5770922
78	0xbe133f50	-0.1437962
79	0xbdafcf5a	-0.08584471
80	0x3dfb20b2	0.122620955
81	0x3e1bdc91	0.15220858
82	0xbdf465aa	-0.119334534
83	0xbddc80cf	-0.10766756
84	0xbd405797	-0.046958532
85	0xbf0fe9b8	-0.56216
86	0x3e7326da	0.2374529
87	0xbe046620	-0.12929583
88	0xbef5ea1d	-0.48030177
89	0xbf67e982	-0.9059068
90	0x3c2f9018	0.010715507
91	0xbcf50ea5	-0.02991421
92	0xbf47d8c7	-0.7806515
93	0xbce76c97	-0.028250022
94	0xbdf0533e	-0.11734627
95	0x3ae70900	0.0017626584
96	0x3e96655a	0.293742
97	0x3ede1275	0.43373457
98	0x3e8a9da3	0.27073392
99	0x3e34ac9c	0.1764397
100	0xbd849f54	-0.06475702
101	0x3eca5464	0.3951751
102	0x3e3fa887	0.18716632
103	0x3e36f589	0.17867102
104	0xbf00637c	-0.501518
105	0x3e8bff24	0.27343094
106	0xbcc4a845	-0.024006018
107	0x3f2c1c62	0.6723081
108	0xbe8ad14f	-0.27112815
109	0xbe12c64a	-0.14333454
110	0xbe823666	-0.25432128
111	0xbd0a91f9	-0.033830617
112	0xbdefc463	-0.1170738
113	0x3e944585	0.2895929
114	0x3f2d8cc4	0.67792916
115	0x3f8b24da	1.0870621
116	0xbbba45b3	-0.0056845783
117	0xbd45815e	-0.048219077
118	0x3e40b117	0.18817554
119	0xbd3983f4	-0.045291856
120	0x3ef1e1c1	0.4724255
121	0x3e9e5366	0.30923003
122	0xbe897103	-0.26844034
123	0x3e9394b5	0.28824392
124	0xbf115fd5	-0.56786853
125	0x3e4c4c67	0.1995102
126	0x3ce28727	0.027652336
127	0x3ee02561	0.43778518
128	0xbf2a5bc6	-0.66546285
129	0x3eff49f0	0.49861097
130	0xbec183b1	-0.37795785
131	0xbeb09448	-0.3448813
132	0x3e1aa93c	0.1510362
133	0x3e898046	0.26855677
134	0x3de7f523	0.11326053
135	0x3ead982b	0.33905157
136	0x3f0f7abb	0.56046647
137	0x3e55fd28	0.20897353
138	0x3e022e87	0.12713061
139	0xbf3c04ee	-0.7344502
140	0xbe8cee6a	-0.27525645
141	0x3d06d0ca	0.03291396
142	0xbf14cdb1	-0.5812636
143	0xbe05c634	-0.1306389
144	0xbe9b354e	-0.30314106
145	0xbe5031fa	-0.20331565
146	0x3e61fe4b	0.22069661
147	0xbf3bd1cc	-0.73367
148	0xbe7ea9cb	-0.24869458
149	0xbf07305b	-0.5280816
150	0x3edaf105	0.42762008
151	0xbed182b1	-0.40920022
152	0x3e1ee3d4	0.15516597
153	0xbe750a13	-0.23929624
154	0x3eaaac00	0.3333435
155	0x3e7b5356	0.24543509
156	0x3e813ce8	0.2524178
157	0x3eb064b5	0.34451833
158	0xbefdcfca	-0.49572593
159	0xbd872bc5	-0.06600145
160	0xbea52186	-0.3225214
161	0x3cedb40b	0.029016515
162	0xbe7f90ba	-0.24957553
163	0xbcae64a3	-0.021288222
164	0x3e88176a	0.26580364
165	0xbdfc2641	-0.12311984
166	0xbe730cd7	-0.23735367
167	0x3e1d6759	0.15371455
168	0x3f606e37	0.87668175
169	0x3ec8d06e	0.3922152
170	0xbe867b6f	-0.26266047
171	0x3e7642cd	0.2404892
172	0xbdb107cd	-0.08644066
173	0xbe05dd69	-0.13072743
174	0xbe5bd568	-0.21468127
175	0x3ed1a8bb	0.40949044
176	0xbea6ade7	-0.32554552
177	0xbd6dfdc4	-0.058103338
178	0x3ebba2cd	0.36647645
179	0x3bb40297	0.005493473
180	0xbe28d5e5	-0.16487844
181	0x3e438e4c	0.1909725
182	0xbe791a1f	-0.2432637
183	0x3e7389e0	0.23783064
184	0xbef70c12	-0.48251396
185	0x3d443175	0.04789873
186	0x3e43d501	0.19124223
187	0xbe3218b4	-0.17392236
188	0x3e797ef9	0.24364842
189	0xbd2be8d3	-0.041970085
190	0xbee0c3b2	-0.43899304
191	0x3db00d49	0.08596284
192	0x3f1ba38d	0.60796434
193	0xbddb934d	-0.10721455
194	0x3eb519fc	0.35371387
195	0xbe10840d	-0.14112873
196	0x3e4174e9	0.18892254
197	0x3d47069f	0.0485903
198	0xbe48b0bc	-0.19598669
199	0xbe00059b	-0.12502138
200	0x3e07ed10	0.13274026
201	0x3c000af3	0.0078151105
202	0xbf1f42a2	-0.6221105
203	0x3d65dcd6	0.05611881
204	0x3e0e642f	0.13905405
205	0x3e5e7111	0.21722819
206	0x3e715a0f	0.23569511
207	0x3d1f6e34	0.038923457
208	0xbe607b09	-0.21921934
209	0x3ee0865d	0.4385251
210	0xbe276c01	-0.16349794
211	0xbe39368b	-0.18087213
212	0x3e1ac847	0.15115462
213	0x3e379cf1	0.17930962
214	0xbdf9a819	-0.12190265
215	0xbed8ea45	-0.42366233
216	0xbe39d91b	-0.18149225
217	0x3e636708	0.22207272
218	0x3ec9e3de	0.3943166
219	0xbeca585e	-0.39520544
220	0xbf283564	-0.6570647
221	0xbee4bc62	-0.44674975
222	0x3edc6aae	0.4305014
223	0xbf494e75	-0.7863534
224	0x3f20ed70	0.628623
225	0x3f6bdb1f	0.9213123
226	0xbeae4b52	-0.3404184
227	0x3e5e1d39	0.21690835
228	0x3e2b25f0	0.16713691
229	0xbe3589ba	-0.1772832
230	0xbe801901	-0.25019076
231	0xbedffd88	-0.43748116
232	0xbe5bd7d5	-0.21469052
233	0x3e12ef07	0.14348994
234	0xbea71c2f	-0.3263869
235	0x3d9269e6	0.07149105
236	0xbe06c160	-0.13159704
237	0xbea016bc	-0.31267345
238	0xbe7ce090	-0.24695039
239	0x3e9589c1	0.2920666
240	0x3e0dbddd	0.13841958
241	0xbdd42dcf	-0.103603
242	0x3eb3eaef	0.35140178
243	0xbecf3d93	-0.40476665
244	0x3bddf545	0.006773623
245	0xbe6f8dbd	-0.23393913
246	0xbf744ed4	-0.9543278
247	0xbf06be0a	-0.52633727
248	0xbd3e4b99	-0.046458814
249	0x3f2005ba	0.6250874
250	0xbead0eaa	-0.3380025
251	0xbe098988	-0.1343137
252	0xbf09f6d0	-0.5389223
253	0x3e061b19	0.13096274
254	0xbd095b8a	-0.033534564
255	0xbd363840	-0.044487238

network_body._body_endoder.seq_layers.0.bias f4 [128]
0	0xbd1eb3aa	-0.03874556
1	0xbca47320	-0.020074427
2	0x39dcf451	0.000421437
3	0xbb14d5a7	-0.0022710355
4	0x3c1d1daa	0.009589592
5	0x3d239926	0.039940976
6	0xbc939e5b	-0.018019846
7	0xbca6e2ce	-0.02037182
8	0xbd2787ba	-0.040900923
9	0xb977ca8b	-0.00023631209
10	0x3cd48dc4	0.025946505
11	0xbc3eb8c7	-0.011640734
12	0xbd7900a8	-0.06079164
13	0x3c798520	0.015229493
14	0xbc34c7c8	-0.01103396
15	0xbc815535	-0.0157877
16	0xbc04aa81	-0.008097292
17	0x3cf8b3bd	0.030359143
18	0xbc926be8	-0.01787372
19	0xbd09cb57	-0.033641186
20	0x3c9f74e1	0.019464912
21	0x3c901ae2	0.017590944
22	0xbda2ab64	-0.079428464
23	0xbd845d2b	-0.06463083
24	0x3b08d0b6	0.0020876355
25	0x3c90f51a	0.017694999
26	0xbc4b78c7	-0.012418932
27	0x3d7dbed4	0.061949566
28	0x3d19e3a9	0.03757063
29	0x3c0f8fb1	0.008762286
30	0xbc95bbf6	-0.018278103
31	0x3bd6b119	0.0065518734
32	0xbbc8ea01	-0.006131411
33	0x3b2271a2	0.0024786969
34	0x3b2e39cd	0.0026584745
35	0x3c5f47eb	0.013627986
36	0xbbe6a062	-0.007038162
37	0x3cdb5c09	0.026777284
38	0xbb26b402	-0.0025436883
39	0x3b696e59	0.003561875
40	0x3d04e6f0	0.0324468
41	0x3b8e19d5	0.0043365755
42	0x3d4ca4c0	0.049961805
43	0x3cce84c3	0.02520979
44	0x3c9eabd8	0.01936905
45	0x3c80d425	0.015726158
46	0x3d3f9e8b	0.046782058
47	0x3cdaafa1	0.026695075
48	0x3d7da6e7	0.06192675
49	0x3c1472f1	0.009060607
50	0xbbc920d5	-0.006137947
51	0xbae221e7	-0.0017252535
52	0xbc6fa3c2	-0.014626445
53	0xbd30a05d	-0.043121684
54	0xbcbb5fbe	-0.022872802
55	0xbcc7277b	-0.024310818
56	0xbdb913d9	-0.09036989
57	0xbb78a310	-0.003793899
58	0xbbdc6fba	-0.006727186
59	0x3cb32760	0.021869361
60	0xbd0f0537	-0.034917083
61	0xbd025d4a	-0.03182725
62	0xbb074cc0	-0.0020645112
63	0xbbbd2fb5	-0.0057735094
64	0xbc0db4bf	-0.00864905
65	0x3bd5600d	0.0065116943
66	0xbc89e5c3	-0.016833192
67	0xbba03c11	-0.004889973
68	0xbb1d51e1	-0.0024005102
69	0x3c10cd04	0.008837942
70	0x3c106792	0.008813756
71	0xbcde2005	-0.027114877
72	0x3cadeb73	0.021230435
73	0x3c83d55f	0.016092954
74	0xbc879708	-0.01655151
75	0xbac9a5ad	-0.0015384458
76	0xbcb4ed38	-0.022085771
77	0x3c524c2f	0.012835546
78	0xbbcf24fd	-0.006321548
79	0xbbc9883a	-0.0061502727
80	0x3d098de4	0.033582583
81	0x3d03b893	0.032158446
82	0x3ba983f9	0.005173203
83	0xbb2de8e8	-0.0026536528
84	0x3cad88e0	0.021183431
85	0xbcb03782	-0.021510843
86	0xbcf85340	-0.030313134
87	0x3b268571	0.0025409127
88	0xbc85a7c8	-0.016315356
89	0x3b509c7e	0.0031831558
90	0x3b90323e	0.0044005206
91	0xb9552709	-0.00020327805
92	0x3b507ca7	0.003181258
93	0x3c606ca8	0.013697781
94	0xbc222325	-0.009896074
95	0x3c0dce43	0.008655134
96	0xbbf17d91	-0.007369705
97	0xbd16191c	-0.03664504
98	0xbd005cad	-0.031338383
99	0x3ca7323e	0.0204097
100	0xbcba66a1	-0.022754015
101	0xbd49b336	-0.049243174
102	0xbd548dd2	-0.051893063
103	0xbd44a3a8	-0.048007637
104	0x3ce80813	0.028324163
105	0xbc21a481	-0.009865881
106	0xbd0a0971	-0.03370041
107	0xbd51a95a	-0.051186897
108	0x3b4c704d	0.0031194866
109	0xbbf4debb	-0.0074728406
110	0x3c432ea7	0.011912978
111	0x3cd2e9eb	0.025746306
112	0x3d65df4c	0.056121156
113	0x3bb091e9	0.0053884876
114	0xbcac49dd	-0.021031315
115	0xbcef8f0e	-0.029243018
116	0xbd6b7b69	-0.05749074
117	0xbccabecf	-0.024749188
118	0x3cf75e26	0.03019626
119	0xbd1c8510	-0.038212836
120	0xbd03b756	-0.032157265
121	0xbcdc0271	-0.026856633
122	0xbd35d43a	-0.04439185
123	0x3cea88b2	0.028629635
124	0x3cead339	0.028665172
125	0xbccf13c6	-0.025277983
126	0x3c246b29	0.010035315
127	0x3c8546c8	0.016269103

network_body._body_endoder.seq_layers.2.weight f4 [128, 128]
0	0x3cb34dbb	0.02188765
1	0x3df554af	0.11979043
2	0xbd8be652	-0.068310395
3	0xbce5634c	-0.02800145
4	0x3d4fb30b	0.050707858
5	0xbd747005	-0.059677143
6	0x3e20d130	0.15704799
7	0x3d1e448f	0.0386396
8	0x3ca9bc80	0.020719767
9	0x3c6f69ed	0.014612657
10	0xbe18534f	-0.1487553
11	0x3d3ba7d5	0.045814354
12	0xbe5b1f97	-0.2139877
13	0xbba16e24	-0.00492646
14	0x3e40d288	0.18830311
15	0xbe09eed9	-0.1347002
16	0xbd688c40	-0.056774378
17	0x3dab01f9	0.08349986
18	0x3dc3b677	0.09556287
19	0x3b8004e6	0.003906834
20	0xbcd1318f	-0.025536327
21	0xbdac2354	-0.08405176
22	0x3d172458	0.036899894
23	0xbd8fe35f	-0.070257895
24	0xbd66531e	-0.05623161
25	0xbe08b2bb	-0.1334943
26	0xbd9cc0b3	-0.07653942
27	0x3db06b19	0.08614177
28	0x3c8ce3d0	0.017198473
29	0xbd3e1e7d	-0.046415795
30	0x3d2d1107	0.042252567
31	0xbdfd59a5	-0.12370614
32	0x3d891da9	0.0669511
33	0xbdb7ee5c	-0.0898101
34	0xbc708803	-0.014680865
35	0x3d3d1eac	0.04617183
36	0xbdad16da	-0.08451624
37	0x3cf211e5	0.029549548
38	0x3d962fe7	0.073333554
39	0xbcee28a9	-0.029072123
40	0x3d89bb37	0.067251615
41	0x3c98451f	0.018587647
42	0xbb92130e	-0.004457838
43	0x3d40846c	0.047001287
44	0xbd9de6b0	-0.07710016
45	0x3cc5207d	0.024063343
46	0x3e09450a	0.13405243
47	0x3e4bf947	0.1991931
48	0xbb22cadb	-0.002484015
49	0x3cf16f5f	0.029472051
50	0x3e3ceba8	0.1844927
51	0xbc4173bb	-0.011807377
52	0x3cadbd73	0.0212085
53	0xbb286fe5	-0.002570146
54	0x3db93774	0.0904378
55	0x3d873896	0.0660259
56	0xbdc0f6bb	-0.0942206
57	0x3dcb5349	0.09927995
58	0xbd27533f	-0.040850874
59	0x3d33474c	0.043769166
60	0x3d91b4f8	0.07114595
61	0xbbefab67	-0.007314134
62	0x3b6c749f	0.0036080254
63	0x3d8f37fd	0.06993101
64	0xbda7a0c5	-0.08184961
65	0x3dc105d2	0.09424938
66	0x3d8a6368	0.067572415
67	0x3c5bc36a	0.01341329
68	0xbd858013	-0.06518569
69	0x3d87465d	0.066052176
70	0xbc48f876	-0.012266269
71	0x3c8efb01	0.017453672
72	0xbdae4689	-0.08509547
73	0xbca1916d	-0.019722665
74	0x3c57acd0	0.01316376
75	0x3dcc17b8	0.099654615
76	0xbd925452	-0.07144989
77	0x3cb70f13	0.022346055
78	0x3e0f0c73	0.13969593
79	0x3d46eaf9	0.04856393
80	0xbccffe06	-0.025389683
81	0xbbb77d70	-0.00559967
82	0xbcb6b8b1	-0.022304865
83	0x39c99b2e	0.00038453325
84	0xbe1b19d5	-0.15146573
85	0x3dd88a43	0.10573246
86	0x3e37d584	0.17952543
87	0xbdcb4bd9	-0.09926576
88	0xbd71cb25	-0.059031624
89	0xbd7abb0f	-0.06121355
90	0xbd3c532b	-0.045977753
91	0x3c396afe	0.011317013
92	0x3dc87cc3	0.097894214
93	0x3c82d5fb	0.015971174
94	0xbe3be23e	-0.18348023
95	0x3e83e373	0.25759467
96	0xb8af573c	-8.360899e-05
97	0xbc76a082	-0.0150529165
98	0xbd7b574b	-0.061362546
99	0x3c8ddc40	0.017316937
100	0xbe34d07f	-0.1765766
101	0x3ce667e5	0.028125713
102	0xbdb1d520	-0.086832285
103	0xbd230b5c	-0.039805755
104	0x3d02c6db	0.031927925
105	0x3d0eb74a	0.034842767
106	0x3de2c526	0.11072759
107	0x3b73e945	0.0037217897
108	0xbdbb9a5a	-0.091602996
109	0xbd25173b	-0.040305357
110	0x3daa1f22	0.08306719
111	0xbd735a25	-0.05941214
112	0x3e20027e	0.1562595
113	0xbd87331e	-0.06601547
114	0xbcce3ab7	-0.025174482
115	0xbdb8f8f3	-0.09031858
116	0xbd0bf97b	-0.03417347
117	0x3c4303c7	0.011902756
118	0xbd8a5f93	-0.067565106
119	0x3c79f4f3	0.015256154
120	0xbdbaf893	-0.09129443
121	0xbe00827c	-0.12549776
122	0x3c6a0eaa	0.014285723
123	0x3d3acb59	0.045604084
124	0x3dacfb3e	0.08446358
125	0x3d7e48b9	0.062081072
126	0x3d1c0e3a	0.038099505
127	0xbbe0dd4f	-0.0068623195
128	0xbda54e3a	-0.08071561
129	0xbc8a7232	-0.016900156
130	0xbc339454	-0.010960657
131	0xbd8497f5	-0.06474296
132	0x3c3ea963	0.011637065
133	0x3ddf2ee9	0.10897619
134	0xbe092f22	-0.13396886
135	0x3b642692	0.0034813029
136	0x3d70ea01	0.058816914
137	0xbe49e271	-0.19715287
138	0xbab4466d	-0.0013753899
139	0x3d419372	0.047259755
140	0xbbd90b24	-0.0066236425
141	0xbd9ca503	-0.07648661
142	0x3d9972e3	0.07492616
143	0x3ce18336	0.027528387
144	0xbdbef4db	-0.09324046
145	0xbdf89ce6	-0.12139301
146	0xbda56432	-0.08075751
147	0xbdb47c87	-0.08812814
148	0xbdf730c1	-0.12069846
149	0xbd5425fa	-0.05179403
150	0x3c960bd2	0.018316183
151	0x3d3916c9	0.045187745
152	0xbe3d7aa3	-0.18503813
153	0x3ca3a394	0.019975461
154	0xbca88489	-0.02057101
155	0x3da56f4e	0.0807787
156	0xbd49aef0	-0.0492391
157	0xbd9547d6	-0.07289092
158	0x3c171a1a	0.009222532
159	0xbdc10258	-0.09424275
160	0xbc930be8	-0.017950013
161	0xbe08e16b	-0.1336724
162	0x3d49d699	0.049276922
163	0xbd5f7f4b	-0.054564755
164	0x3e346d2b	0.1761977
165	0xbd783876	-0.06060072
166	0x3d898cdf	0.06716322
167	0x3bf963f9	0.0076107946
168	0x3acc1701	0.001557082
169	0x3e1bf706	0.1523095
170	0xbe714097	-0.23559795
171	0x3d86e68c	0.06586942
172	0x3dc4dde9	0.096126385
173	0x3e1c21cb	0.15247266
174	0xbdafeb1b	-0.08589765
175	0x3d61cfe4	0.0551299
176	0xbd8739ef	-0.06602847
177	0xbdad5842	-0.084640995
178	0x3e1c009f	0.15234612
179	0xbb6d7c9b	-0.00362376
180	0xbe38b70c	-0.18038577
181	0xbd8a32bc	-0.06747958
182	0x3e2003ed	0.15626498
183	0x3d8837cd	0.06651268
184	0xbd29d4fa	-0.041462876
185	0xbd2c2edf	-0.042036887
186	0x3db6ddf3	0.08929052
187	0xbceb3b02	-0.02871466
188	0xbe2264b6	-0.1585873
189	0x3d5f5357	0.05452284
190	0x3d9c072a	0.07618554
191	0xbdaa880a	-0.08326729
192	0xbe06f897	-0.13180767
193	0xbe0cdca7	-0.13756047
194	0x3c3681c2	0.011139335
195	0xbe2981e8	-0.16553462
196	0x3d00d242	0.031450517
197	0x3e0051aa	0.12531152
198	0x3d6b2414	0.057407454
199	0xbdd9e06e	-0.1063851
200	0x3dfa9db1	0.122371085
201	0xbde7207d	-0.112854935
202	0xbd0644ee	-0.03278058
203	0xbdc09a7c	-0.094044656
204	0xbbbc1487	-0.0057397517
205	0x3e0b21e4	0.13587147
206	0x3d708fee	0.058731012
207	0xbddc36ab	-0.107526146
208	0x3e1686fa	0.14699927
209	0xbd00d803	-0.031456005
210	0xbdb8e9e2	-0.090289846
211	0xbd081471	-0.03322262
212	0x3e828a32	0.2549606
213	0x3d9e1f3f	0.077208035
214	0x3e05443b	0.13014309
215	0x3c556a7c	0.013025876
216	0xbdd61b7b	-0.1045446
217	0x3e03610c	0.12829989
218	0xbd762f94	-0.060103968
219	0xbd15b8c0	-0.036553144
220	0x3d13f672	0.0361237
221	0xbd113941	-0.035454992
222	0xbd48212f	-0.04885977
223	0x3c5c2892	0.013437407
224	0x3d0f770b	0.035025638
225	0xbe345e41	-0.1761408
226	0xbc24ec1d	-0.010066059
227	0xbdbf4001	-0.0933838
228	0xbcb89f1d	-0.022536809
229	0xbe20e42f	-0.15712045
230	0x3da86200	0.08221817
231	0x3e0a4012	0.13501003
232	0x3c915fcc	0.017745875
233	0xbdc5d4c5	-0.09659723
234	0x3c1d75c4	0.009610597
235	0x3e0376b9	0.12838258
236	0x3d8921c2	0.06695892
237	0x3dd2d90d	0.102953054
238	0x3db5bddc	0.088741034
239	0xbc9e5abf	-0.01933038
240	0xbdf5b514	-0.119974285
241	0xbd4fb7a9	-0.05071226
242	0xbe3f3079	-0.18670835
243	0xbe6d67c5	-0.23184116
244	0x3d8c79e1	0.06859184
245	0xbb4c31a2	-0.0031157513
246	0x3bd896f7	0.0066097933
247	0x3d339a1c	0.043848142
248	0xbdbbdccd	-0.09172974
249	0x3e2ea257	0.17054115
250	0xbc9fa251	-0.019486578
251	0xbdba50d1	-0.09097446
252	0xbd5fe46d	-0.054661203
253	0x3d6085b4	0.05481501
254	0xbc95e77c	-0.018298857
255	0xbd6f9429	-0.058490906

network_body._body_endoder.seq_layers.2.bias f4 [128]
0	0xbca7a894	-0.020466127
1	0xbb9b7cf0	-0.0047451183
2	0xbca0f330	-0.01964721
3	0x3c3f8462	0.011689277
4	0x3cfd80ae	0.030945148
5	0x3bdd2a8c	0.0067494567
6	0xbc806d37	-0.015677078
7	0xbbf47726	-0.0074604927
8	0xbc8af70f	-0.01696351
9	0xbce4d9c8	-0.027935877
10	0xbc1d0b18	-0.0095851645
11	0xbc4a4f62	-0.012348028
12	0x3d0159ff	0.031579968
13	0xbd352fef	-0.044235166
14	0x3cd44e66	0.02591629
15	0xbb422711	-0.0029625336
16	0xbd8196f6	-0.06327622
17	0x3cc69f94	0.024246015
18	0x3c60b3bf	0.01371473
19	0x3ca8685a	0.020557571
20	0xbd15c0c0	-0.036560774
21	0xbc922d91	-0.017843993
22	0x3be392f8	0.0069450103
23	0xbccdf1c6	-0.0251397
24	0xbc223849	-0.009901115
25	0xbc9c5c61	-0.019087018
26	0x3c8cb6ca	0.017177004
27	0x3daad598	0.08341521
28	0x3d41d652	0.047323532
29	0xbcaf9ef4	-0.0214381
30	0xbc6d33a8	-0.014477648
31	0xbc7a2429	-0.01526741
32	0xbd2bc37e	-0.041934483
33	0xbb22adec	-0.0024822904
34	0xbc952495	-0.01820592
35	0xbce68603	-0.028140074
36	0x3cb6a60d	0.022295976
37	0xbc793d05	-0.015212302
38	0x3b9df84e	0.00482086
39	0x3ca0dd9a	0.019636918
40	0x3a7f9ff0	0.00097513106
41	0x3cb26768	0.021777824
42	0xbcafeeb8	-0.021476135
43	0x3b96a0e4	0.0045968164
44	0xbcb19295	-0.021676341
45	0xbb23ca2c	-0.002499233
46	0xbc021140	-0.007938683
47	0xbd15e43d	-0.036594618
48	0xbd16bcef	-0.036801275
49	0xbc96c1fd	-0.018403048
50	0x3b0300da	0.0019989521
51	0xbc6d8cba	-0.014498884
52	0x3c42efc5	0.011897986
53	0xbcce45d6	-0.025179785
54	0x3c692289	0.014229425
55	0xbcd047a7	-0.025424791
56	0xbc95b0d7	-0.0182728
57	0xbc798d90	-0.015231505
58	0xbd0c6bea	-0.034282602
59	0xbc767958	-0.015043579
60	0xbc112dae	-0.008860989
61	0x3c8c9774	0.017162062
62	0x3c05741d	0.008145359
63	0x3d0d73bd	0.034534205
64	0xbc9a4e22	-0.018836085
65	0xbc84a169	-0.016190248
66	0x3d702d34	0.05863686
67	0xbc9a2c48	-0.018819943
68	0x3c4969ae	0.012293262
69	0x3c035ddc	0.008017983
70	0x3c1af287	0.009457237
71	0x3b83e48d	0.004025048
72	0x3cc110f3	0.023567652
73	0x3c2413bc	0.010014471
74	0x3d225202	0.03962899
75	0xbc7aaf16	-0.015300533
76	0x3b756bf6	0.0037448383
77	0xbc1ba460	-0.009499639
78	0x3b9cfc85	0.004790845
79	0x3c70ce52	0.014697628
80	0x3c8fc80d	0.017551446
81	0x3b00992e	0.0019622552
82	0x3ca36942	0.019947652
83	0x3d8c4a03	0.06850054
84	0x3c1f8cb7	0.009738139
85	0x3c9f1079	0.019417034
86	0xbd8657ec	-0.065597385
87	0x3c1ffd6e	0.009765012
88	0x3ba90793	0.0051583736
89	0xbc87c29c	-0.01657229
90	0xbcd29cee	-0.025709596
91	0xbb50f7e4	-0.0031886036
92	0x3ad8246d	0.0016490348
93	0xbcc7d854	-0.024395145
94	0x3c1d25d8	0.009591542
95	0xbcc9cf51	-0.024634989
96	0xbd05d996	-0.03267821
97	0xbd621058	-0.055191368
98	0xbb5dde5a	-0.0033854456
99	0xba2151b2	-0.0006153836
100	0x3c88739d	0.016656691
101	0xbc5ef544	-0.013608281
102	0xbbb432e3	-0.00549923
103	0x3ca3af96	0.019981187
104	0xbc9efa67	-0.01940651
105	0x3bdcdd37	0.006740238
106	0xbd3e989f	-0.04653227
107	0x3cde3f37	0.027129753
108	0xbc8cebec	-0.01720234
109	0xbd01809a	-0.031616785
110	0x3d20fc7f	0.0393033
111	0x3cab51e4	0.020913072
112	0x3bf24b9b	0.007394267
113	0xbc6b0589	-0.014344581
114	0x3c045cf6	0.008078804
115	0xbcbf6250	-0.023362309
116	0xbc305ba9	-0.010764041
117	0xbcc5d19f	-0.024147807
118	0x3cdfba19	0.027310418
119	0xbc26f2bc	-0.010189708
120	0x3c099d95	0.008399387
121	0x3d09ead3	0.03367121
122	0xbcd43140	-0.02590239
123	0x3ce0796b	0.027401647
124	0x3da301a4	0.07959297
125	0x3c43352f	0.011914535
126	0xbc09a0c2	-0.008400144
127	0x3ca4aff0	0.020103425

action_model._continuous_distribution.log_sigma f4 [1, 2]
0	0xbd6c638f	-0.057712134
1	0xbcb2d866	-0.021831702

action_model._continuous_distribution.mu.weight f4 [2, 128]
0	0xbb38eaa7	-0.0028216036
1	0xbcbaa108	-0.022781864
2	0xbc490cc0	-0.012271106
3	0x3c015cf8	0.007895701
4	0xbd6e3a8b	-0.0581613
5	0xbc97eb7e	-0.018544909
6	0x3bfa7fd0	0.007644631
7	0xbb8137d1	-0.0039434214
8	0xbbfa52c5	-0.0076392614
9	0xbbc51a1f	-0.006015077
10	0xbc0d7bdc	-0.008635487
11	0xbaed7a9c	-0.0018118205
12	0xbc79f1e1	-0.015255422
13	0x3be4af15	0.006978879
14	0x3c9aad6e	0.018881526
15	0xbc649ef6	-0.013953915
16	0xba8dfcd2	-0.0010832793
17	0x3cfc334a	0.030786175
18	0x3b2e5b6c	0.0026604785
19	0xbb9a3425	-0.004705923
20	0x3a05af96	0.00050997117
21	0xbc664706	-0.014055019
22	0x3d0dd190	0.034623682
23	0x3c91a527	0.017778946
24	0xbc856417	-0.016283078
25	0xbaf24585	-0.0018483853
26	0x3c777870	0.015104398
27	0xbd094465	-0.03351249
28	0xbdd1a5d6	-0.10236709
29	0x3808b5e1	3.2594315e-05
30	0xbc17e9af	-0.009272023
31	0xbca0eafb	-0.019643297
32	0xbb4917da	-0.0030684383
33	0xbcad5608	-0.021159187
34	0xbbb9e7d1	-0.0056733866
35	0xbca18dd0	-0.019720942
36	0x3cb8d2d5	0.02256147
37	0xbc30ee3f	-0.01079899
38	0xbc0e4b8c	-0.008685004
39	0xbc334e22	-0.010943921
40	0x3bb9a5a6	0.005665499
41	0xbce9d729	-0.02854498
42	0xba8274ad	-0.0009952985
43	0x3d841d78	0.06450933
44	0xba5a4c30	-0.0008327393
45	0x3cb84878	0.022495493
46	0xbcc7913d	-0.024361247
47	0xbcbe9027	-0.023262097
48	0x3b73bd23	0.0037191592
49	0xbc906d4e	-0.017630246
50	0xbc226a8f	-0.009913101
51	0x3c9e8ba8	0.019353703
52	0x3d0fda5a	0.035120346
53	0xbc0ccc2d	-0.008593601
54	0xbb29a0f7	-0.0025883296
55	0xbc2994c4	-0.01035041
56	0x3cab2af7	0.02089451
57	0xbcc40c84	-0.02393175
58	0x3bc2e589	0.005947773
59	0xbbd99915	-0.0066405633
60	0xbcfdae15	-0.030966798
61	0x3cbe2042	0.023208741
62	0x3c405f35	0.011741449
63	0xbd9e1c5a	-0.077202514
64	0xbcd75c18	-0.02628903
65	0xbcddb78c	-0.027065061
66	0x3ad82006	0.0016489036
67	0x3c0ba6f4	0.008523691
68	0x3ceaea6a	0.02867623
69	0x3cddd53d	0.027079219
70	0x3c874d63	0.016516393
71	0x3c480fc9	0.012210795
72	0x3cf1beb8	0.029509887
73	0xbcdd3473	-0.027002549
74	0x3d56a612	0.05240447
75	0xbc51e53c	-0.012811001
76	0xbba8a8ae	-0.0051470613
77	0xbbeb16ee	-0.0071743643
78	0x3c940218	0.018067405
79	0x3c8feb7f	0.017568348
80	0x3bdbb9ee	0.006705514
81	0x3c55def2	0.013053643
82	0x3cc502ec	0.024049245
83	0x3cd8be56	0.026457947
84	0x3bc2f188	0.005949203
85	0xbd9751d7	-0.073886566
86	0x3c688a0a	0.014193067
87	0x395a816c	0.00020838314
88	0xbcf025b8	-0.02931486
89	0x3c1eb5b0	0.009686872
90	0xb9e8eef8	-0.00044428534
91	0x3c715bdf	0.014731376
92	0xbc819805	-0.015819559
93	0xbb037601	-0.002005935
94	0x3b9af10b	0.0047284416
95	0xbb3dd236	-0.0028964407
96	0x3b691489	0.0035565218
97	0x3b843fad	0.004035911
98	0xbc727c9c	-0.014800217
99	0x3cd05259	0.025429891
100	0xbc4db00e	-0.012554182
101	0xbbb80925	-0.0056163245
102	0xbcf72e7d	-0.030173535
103	0x3ce8453c	0.028353326
104	0x3cb55963	0.02213735
105	0xbcb46fd9	-0.02202599
106	0xba2b9079	-0.00065446604
107	0xbcf474bd	-0.029840821
108	0xbcc6fc38	-0.02429019
109	0xba9bde69	-0.0011891845
110	0x3d111657	0.035421696
111	0x3c954f7c	0.018226378
112	0xbd935a57	-0.07194965
113	0xbc828fd6	-0.015937727
114	0x3c816d01	0.015799047
115	0xbc206178	-0.009788863
116	0x3d03538f	0.03206211
117	0xb9164fd3	-0.00014334852
118	0x3d069f57	0.032866802
119	0xbc4fe91d	-0.012689856
120	0xbcc80cff	-0.02442026
121	0x3c0dd8f3	0.008657682
122	0xbb2be4cb	-0.00262289
123	0x3a93048e	0.0011216567
124	0xbccad2b2	-0.02475867
125	0xbab0d613	-0.0013491533
126	0x3a8431b3	0.0010085612
127	0xbb01b109	-0.001978936
128	0x3bdc3a60	0.006720826
129	0x399789d4	0.00028903654
130	0x3ca7c4f7	0.020479662
131	0x3d0aadf6	0.03385731
132	0xbc1b4a79	-0.009478205
133	0x3cfe169d	0.031016642
134	0xbb9fd2bd	-0.004877417
135	0xba2fcf06	-0.0006706569
136	0xbc2625fc	-0.010140892
137	0xbbee62fd	-0.007274984
138	0x3c6e12f5	0.014530887
139	0x3c9938cf	0.018703846
140	0xbba8244b	-0.0051312796
141	0x3c730bdc	0.01483437
142	0xbcdc23a8	-0.026872471
143	0x3cc05024	0.023475714
144	0x3cd99396	0.026559632
145	0xbcaaeb08	-0.020864025
146	0xbc993304	-0.018701084
147	0xbc7220ab	-0.014778296
148	0x3b8f34f3	0.0043703257
149	0x3c2460ad	0.010032815
150	0x3b4305ec	0.0029758168
151	0xbc866069	-0.016403394
152	0xba77e2e9	-0.00094561145
153	0xbc307a13	-0.010771292
154	0xbc9e76d4	-0.019343771
155	0xbd94fbb8	-0.07274574
156	0xbd61ec03	-0.05515672
157	0x3a8eaf81	0.0010886044
158	0x3c5e7611	0.013577954
159	0xbc82c113	-0.015961206
160	0x3c9957c7	0.018718613
161	0xbc9aea69	-0.018910604
162	0x3b640bcd	0.0034797073
163	0xbc3acd9a	-0.011401558
164	0xbce22659	-0.027606176
165	0x3bcc1676	0.0062282635
166	0xbb9d291e	-0.0047961613
167	0xbb16adf1	-0.002299186
168	0x3d141838	0.03615591
169	0xbc7ecff8	-0.015552513
170	0xbbbad958	-0.005702179
171	0x3d0fb1fb	0.035081845
172	0x3b1095a5	0.0022061851
173	0x3c7b6075	0.015342821
174	0x3d564869	0.05231515
175	0x3b72424e	0.003696579
176	0x3cae5576	0.021280985
177	0xbb379c75	-0.002801684
178	0x3ba438c5	0.0050116503
179	0x3caf42e7	0.021394206
180	0x3bb0ec4b	0.005399262
181	0x3c01c488	0.007920392
182	0x3c752eea	0.014964798
183	0x3bfc16d6	0.007693152
184	0x3cb76531	0.022387119
185	0xbb2a663a	-0.0026000873
186	0x3b98c483	0.004662098
187	0xbc99d3fe	-0.018777844
188	0xbc29e62e	-0.0103698205
189	0x3c362d30	0.011119172
190	0x3d3accac	0.045605347
191	0xbcefcd2d	-0.02927264
192	0xb9b19062	-0.00033867644
193	0x3cc690d9	0.02423899
194	0xbd920697	-0.07130163
195	0x3d11d0bd	0.03559946
196	0xbd10000f	-0.035156306
197	0xbb63a92a	-0.003473828
198	0xbd0568dc	-0.032570705
199	0x3bc76f30	0.0060862526
200	0xbcbfba97	-0.023404403
201	0x3c89daf1	0.016828032
202	0xbbc6bf3f	-0.006065279
203	0xba684249	-0.0008859975
204	0x3b157c4d	0.0022809685
205	0x3c82877d	0.015933746
206	0x3a7dc360	0.0009680297
207	0xbbf39b25	-0.007434266
208	0xbcdd61b8	-0.027024135
209	0x3c3a7f9e	0.011382965
210	0x3d1415a2	0.036153443
211	0xbd87774a	-0.066145495
212	0xbce6cfd0	-0.028175265
213	0xbc6bb9f8	-0.0143876
214	0x3b974402	0.0046162615
215	0x3d00d713	0.03145511
216	0x3c5bb7cd	0.013410521
217	0x3c35ba29	0.011091747
218	0x3b1ba160	0.002374731
219	0xbd2394b6	-0.039936744
220	0x3cca8b83	0.024724727
221	0x3b26471f	0.0025371981
222	0x3d17363a	0.03691695
223	0xbbe97b7d	-0.0071253167
224	0xbb93f563	-0.0045153364
225	0x3c14d5fb	0.00908422
226	0x3cbfe9ef	0.023426978
227	0xbc1bf69e	-0.009519247
228	0x3d11d80c	0.03560643
229	0xbc969dfa	-0.018385876
230	0x3d0a3c6f	0.03374904
231	0x3b9c872b	0.0047768555
232	0x3bad742a	0.005293389
233	0x3d2be746	0.041968606
234	0xbb43b311	-0.002986137
235	0xbd06e994	-0.0329376
236	0xbc7491b3	-0.0149273155
237	0x3c16d981	0.00920713
238	0xbb891608	-0.0041835345
239	0xbc3900a4	-0.011291657
240	0xbc1ce5bd	-0.009576258
241	0xbc3a1e2e	-0.011359734
242	0x3ccc172d	0.024913395
243	0xbc42077a	-0.011842603
244	0x3cae54fb	0.021280756
245	0x3d0eb5d8	0.03484139
246	0xbbeb3fc3	-0.007179232
247	0x3c552f00	0.013011694
248	0xbc2c29f9	-0.010508054
249	0xbcc3185c	-0.023815326
250	0x39b8175d	0.00035112622
251	0xbcd4f5a1	-0.025996031
252	0xbda645f6	-0.08118813
253	0xbc94946d	-0.018137181
254	0x3d8d264a	0.06892069
255	0xbd0501a6	-0.032472275

action_model._continuous_distribution.mu.bias f4 [2]
0	0x3c929ff0	0.01789853
1	0xbca72e09	-0.020407693

exp_avg f4 [128, 8]
0	0xbb6ac74a	-0.0035824352
1	0x3a071a25	0.0005153737
2	0xba3cb5a6	-0.00071986986
3	0xb945a65e	-0.0001884936
4	0x3a372ef8	0.0006987895
5	0xbb3f1e3f	-0.0029162315
6	0xba9d6ba9	-0.0012010235
7	0xba0ec1cd	-0.00054457487
8	0x385bac27	5.2374e-05
9	0xb7b9a8f5	-2.2132395e-05
10	0x38376e70	4.3733453e-05
11	0xb9800da5	-0.00024424228
12	0xb7fbbec5	-3.0010366e-05
13	0xb95f6d29	-0.00021307603
14	0x39329c2b	0.0001703358
15	0x38b10dc2	8.44258e-05
16	0x3b070b1b	0.0020605985
17	0xb999a8c2	-0.00029308168
18	0x39d5850f	0.00040725662
19	0x3b1371d6	0.0022498271
20	0xb9d05852	-0.00039738655
21	0x3b62444a	0.0034525567
22	0xb9f31087	-0.00046360886
23	0xb9ab6efb	-0.00032698349
24	0x3a094201	0.00052359706
25	0xb8a2d85d	-7.765063e-05
26	0x38dd9772	0.0001056631
27	0x39a6a1ca	0.0003178253
28	0xb8dccc41	-0.00010528463
29	0x3a2f15c2	0.00066789624
30	0x384081f9	4.5897414e-05
31	0x371fd358	9.526346e-06
32	0xbb1f9e5a	-0.002435586
33	0x39b568dd	0.0003460114
34	0xb9f6c302	-0.00047066069
35	0xbaff41ea	-0.00194746
36	0x39f5f8a0	0.00046915282
37	0xbb6297a3	-0.0034575246
38	0x397538c3	0.00023386166
39	0xb8f54f9c	-0.00011697339
40	0x3c4717bc	0.012151655
41	0xbae42266	-0.0017405271
42	0x3b1e6b6d	0.0024172917
43	0x3bb3ddac	0.005489072
44	0xbb1aa991	-0.0023599605
45	0x3c6a554a	0.014302561
46	0x3b0c6af7	0.002142606
47	0x3a57770c	0.00082193385
48	0xbadd5b10	-0.0016888101
49	0x397d1c38	0.00024138473
50	0xb9aeeb59	-0.00033363214
51	0xbafe9be6	-0.0019425123
52	0x39ab989f	0.00032729373
53	0xbb3d1ce4	-0.0028856331
54	0x398f6451	0.00027349827
55	0x38b8d1b0	8.812861e-05
56	0xba3bb0aa	-0.0007159809
57	0x38d70115	0.000102522004
58	0xb91837f6	-0.00014516697
59	0x3acc4570	0.0015584659
60	0x3911c28b	0.0001390075
61	0x39f82911	0.00047332843
62	0xbab33e9c	-0.0013675275
63	0xba40988f	-0.0007346952
64	0xb8b64213	-8.6907436e-05
65	0x37867a37	1.6030956e-05
66	0xb790357d	-1.7191045e-05
67	0xb91eab7a	-0.00015131934
68	0x37b65559	2.1735834e-05
69	0xb93e4cf2	-0.00018148476
70	0x38186831	3.633666e-05
71	0xb5494c15	-7.498905e-07
72	0xbc26968d	-0.01016773
73	0x3abec248	0.001455375
74	0xbb042e82	-0.0020169322
75	0xbb242e1d	-0.00250519
76	0x3b0152ea	0.0019733259
77	0xbc2be38d	-0.010491264
78	0xbb4a8dfd	-0.0030907386
79	0xbabffff5	-0.0014648425
80	0xba97539c	-0.0011545303
81	0x3929bc5a	0.00016187262
82	0xb9694808	-0.00022247445
83	0xba1dff28	-0.0006027096
84	0x3966245c	0.00021948054
85	0xbab778d8	-0.0013997806
86	0xb96895f4	-0.00022181106
87	0xb9a2d11f	-0.00031054855
88	0xbbc7dd83	-0.0060994043
89	0x3a656097	0.000875005
90	0xba9f645c	-0.0012160647
91	0xbbd0ee70	-0.00637608
92	0x3a9b814a	0.0011864093
93	0xbc237320	-0.009976178
94	0x3a4df8c2	0.0007857197
95	0x3a3e741f	0.0007265228
96	0x38e93d9f	0.000111217836
97	0xb7adaa2d	-2.0702451e-05
98	0x37aec621	2.0834677e-05
99	0xb8b90af6	-8.823529e-05
100	0xb7eb77e8	-2.8070019e-05
101	0x37a3b902	1.9517265e-05
102	0x38b613c5	8.682119e-05
103	0x382f5ae6	4.1807907e-05
104	0x3bd4b8db	0.006491763
105	0xba753e6c	-0.000935531
106	0x3aab959e	0.0013090854
107	0xba809201	-0.0009809138
108	0xbaa642f0	-0.0012684744
109	0x3b8e27d7	0.0043382454
110	0x3b58d86b	0.003308798
111	0x3aee6d41	0.0018190519
112	0xbb67861c	-0.0035327738
113	0x3a05e8b7	0.00051082246
114	0xba40680e	-0.0007339724
115	0x395dd66d	0.00021156082
116	0x3a3590d0	0.0006926181
117	0xbb222a39	-0.0024744405
118	0xba8b625a	-0.001063417
119	0xb91fd7d2	-0.00015243821
120	0xb989d6ea	-0.000262908
121	0x383a2e0e	4.4388747e-05
122	0xb7ef1544	-2.8500923e-05
123	0xb8e93e77	-0.00011121941
124	0x387c6cc2	6.018277e-05
125	0xb9c00143	-0.00036622034
126	0xb7ff8e59	-3.0464655e-05
127	0x36b91390	5.515707e-06
128	0x3bbe419a	0.00580616
129	0xba589c5b	-0.0008263045
130	0x3a960a38	0.0011447137
131	0x3b005da9	0.0019587076
132	0xba92d99d	-0.001120377
133	0x3bce7f49	0.0063017947
134	0x3abc9c22	0.0014389793
135	0x3a01a90a	0.0004946148
136	0x3b7e5be8	0.0038812105
137	0xba10b5b3	-0.00055202394
138	0x3a47c511	0.0007620613
139	0x3b5908de	0.0033116858
140	0xba44362b	-0.00074848783
141	0x3bcb2965	0.006200003
142	0x36cd58c3	6.1198093e-06
143	0xba2b9ef1	-0.00065468164
144	0xbb8b3d0c	-0.0042492207
145	0x3a1b264a	0.0005918486
146	0xba53c288	-0.00080779986
147	0x3b4837b9	0.0030550791
148	0x3a525d8c	0.0008024804
149	0xba838ce3	-0.0010036494
150	0xbb68b717	-0.003550952
151	0xbb14ffd9	-0.0022735505
152	0xb9de1192	-0.0004235623
153	0x38844196	6.306467e-05
154	0xb85f4fa9	-5.3241532e-05
155	0xb9b860ea	-0.0003516742
156	0x38b352d3	8.550812e-05
157	0xba329cf7	-0.0006813551
158	0x380cbf99	3.355704e-05
159	0xb636cc83	-2.7239155e-06
160	0x3c234e34	0.009967376
161	0xbabacd92	-0.0014251939
162	0x3b01a161	0.0019780027
163	0x3b448d05	0.002999128
164	0xbafd48c0	-0.0019324049
165	0x3c2f3c26	0.010695493
166	0x3b2f1a8e	0.0026718709
167	0x3a804a5f	0.0009787789
168	0xb8425efe	-4.6341673e-05
169	0x37089f0c	8.143263e-06
170	0xb81d6e50	-3.7534453e-05
171	0xb8d98bbd	-0.000103733946
172	0x3739359c	1.1039341e-05
173	0xb8f7475e	-0.00011791171
174	0x380be9a7	3.335779e-05
175	0x35b9a925	1.3832802e-06
176	0xbacfb12a	-0.0015845646
177	0x3970eaaf	0.0002297561
178	0xb9acff25	-0.00032996494
179	0x3a7e2db5	0.0009696142
180	0x39a353f9	0.00031152347
181	0xba11f992	-0.00055685
182	0xba8e1417	-0.0010839727
183	0xb9d4ead4	-0.00040610752
184	0xbadba34a	-0.0016757038
185	0x397e9afb	0.00024281062
186	0xb9b1ade1	-0.0003388962
187	0x3aa22ed8	0.001237358
188	0x39ac9b9d	0.00032922337
189	0xb9bd838c	-0.000361469
190	0xbaa84811	-0.001283886
191	0xba303c24	-0.0006722829
192	0xba195a27	-0.00058499206
193	0x38a8adec	8.04326e-05
194	0xb8e7850c	-0.0001103972
195	0xba09bff4	-0.00052547385
196	0x38e4b505	0.00010905605
197	0xba6a4d50	-0.0008937912
198	0x37803364	1.528272e-05
199	0x37ac75d2	2.0558862e-05
200	0x39cf6af6	0.0003956181
201	0xb847a67d	-4.760035e-05
202	0x386de15d	5.671509e-05
203	0xb8e68f88	-0.000109939894
204	0xb8875a01	-6.454066e-05
205	0x396bd7b0	0.00022491696
206	0x398c065c	0.0002670762
207	0x39028fa4	0.00012451276
208	0x3bb23a7b	0.0054391003
209	0xba4dd113	-0.0007851284
210	0x3a8f5058	0.0010933978
211	0x3ad4d79f	0.0016238576
212	0xba8b8833	-0.0010645449
213	0x3bbae44c	0.0057034846
214	0x3aaef468	0.0013347985
215	0x3a554af9	0.0008136477
216	0xbbfa9689	-0.0076473397
217	0x3a8db554	0.0010811486
218	0xbac32b86	-0.001489029
219	0xba6182e8	-0.00086025754
220	0x3ac02400	0.0014659166
221	0xbbe28951	-0.006913342
222	0xbb3da187	-0.002893539
223	0xbb03d19b	-0.0020113948
224	0x3997dc2f	0.00028965014
225	0xb84d8bcb	-4.9006e-05
226	0x388f757f	6.840657e-05
227	0xb9105bbf	-0.00013767088
228	0xb88b58d6	-6.6445835e-05
229	0x37bf5db0	2.2812601e-05
230	0x398758f3	0.0002581548
231	0x39374cb6	0.00017480817
232	0x3bba560e	0.005686528
233	0xba554a4e	-0.00081363774
234	0x3a942cb3	0.0011304825
235	0x3b8bb727	0.004263777
236	0xba90995f	-0.0011032036
237	0x3c017663	0.007901761
238	0xb889156e	-6.536661e-05
239	0xb91bdcf5	-0.00014864265
240	0xb9df47a4	-0.0004258725
241	0x386c1bd1	5.629269e-05
242	0xb899a2cd	-7.3259325e-05
243	0x3b4d75eb	0.0031350802
244	0x38a01142	7.632609e-05
245	0x3b1a5050	0.0023546405
246	0xbaf1e449	-0.0018454875
247	0xbaa9473b	-0.0012914905
248	0x3af4ac9d	0.0018667165
249	0xb98bd803	-0.00026673087
250	0x39c175df	0.0003689965
251	0x3a33d716	0.00068603584
252	0xb9bd9ce2	-0.00036165776
253	0x3b08c299	0.0020867942
254	0x39d78106	0.00041104126
255	0x394ec459	0.00019718836

exp_avg_sq f4 [128, 8]
0	0x37bc8897	2.2474951e-05
1	0x3548731b	7.4673306e-07
2	0x37747bca	1.4572355e-05
3	0x39ec0c24	0.00045022473
4	0x35b799b0	1.3679291e-06
5	0x38450889	4.697641e-05
6	0x375ea359	1.32702635e-05
7	0x36855e67	3.9746988e-06
8	0x37b549bd	2.1611218e-05
9	0x35905626	1.0753909e-06
10	0x377db951	1.51231225e-05
11	0x39bdd16f	0.0003620493
12	0x3608ac94	2.0366033e-06
13	0x395caa8b	0.00021044367
14	0x376182c1	1.3441489e-05
15	0x37044e98	7.886112e-06
16	0x37da0537	2.5990053e-05
17	0x354808f6	7.4518846e-07
18	0x36e0f1fb	6.7038904e-06
19	0x38488919	4.7811398e-05
20	0x35b7d039	1.3695163e-06
21	0x3887dab5	6.478039e-05
22	0x36da480d	6.505294e-06
23	0x36bdfb83	5.6619187e-06
24	0x368fe638	4.288533e-06
25	0x34418c24	1.8025509e-07
26	0x369b4f0d	4.6285627e-06
27	0x3823b392	3.9029466e-05
28	0x34b01668	3.2798857e-07
29	0x380cefab	3.360181e-05
30	0x36a6baf4	4.9689497e-06
31	0x36472290	2.9673429e-06
32	0x37b4cc0c	2.1552689e-05
33	0x352ab8ad	6.3598674e-07
34	0x371ddc80	9.409268e-06
35	0x39169e41	0.00014364069
36	0x359c3add	1.1640037e-06
37	0x37c0af23	2.2969738e-05
38	0x36d8a171	6.456096e-06
39	0x367556a8	3.6558286e-06
40	0x385476f0	5.0655508e-05
41	0x35c8a1eb	1.4948286e-06
42	0x376691f3	1.374305e-05
43	0x3925ccbb	0.00015811894
44	0x363830fb	2.7446647e-06
45	0x390535d4	0.00012703921
46	0x3781c42a	1.5469344e-05
47	0x36e0b759	6.6970647e-06
48	0x3866cb46	5.5025586e-05
49	0x36388d17	2.7500262e-06
50	0x3854dda1	5.0751147e-05
51	0x3a92e631	0.0011207518
52	0x36ad487e	5.164241e-06
53	0x38dda17b	0.00010568179
54	0x37f93543	2.9707915e-05
55	0x37091d4e	8.172659e-06
56	0x38528892	5.0195093e-05
57	0x35c9a3c3	1.5023328e-06
58	0x378743c5	1.6124812e-05
59	0x38ad5b3a	8.266275e-05
60	0x363a3456	2.7746623e-06
61	0x3926e0c2	0.00015914722
62	0x37556eac	1.2721557e-05
63	0x3707ae7a	8.0872505e-06
64	0x371b853b	9.26974e-06
65	0x34d297d0	3.9226006e-07
66	0x36eb66b2	7.015501e-06
67	0x395975a3	0.00020738556
68	0x3541e343	7.222881e-07
69	0x38933ef2	7.021231e-05
70	0x36f4d096	7.2960493e-06
71	0x36602142	3.339796e-06
72	0x39218329	0.00015403017
73	0x369b5309	4.6290265e-06
74	0x38832aaf	6.254517e-05
75	0x3a2421fd	0.0006261168
76	0x370e8b09	8.496231e-06
77	0x397734a8	0.00023575372
78	0x38296e84	4.0395666e-05
79	0x37bec487	2.274128e-05
80	0x3779f9cb	1.4899716e-05
81	0x35290fcf	6.298041e-07
82	0x37551e16	1.2702794e-05
83	0x387cfb7b	6.031569e-05
84	0x359edf4e	1.1836908e-06
85	0x382d5395	4.1324256e-05
86	0x36fa2a40	7.455499e-06
87	0x367cf8c0	3.7695718e-06
88	0x38ccdb45	9.76832e-05
89	0x361a702d	2.3013083e-06
90	0x37a560f4	1.971468e-05
91	0x390a20e9	0.00013172966
92	0x368def21	4.2299657e-06
93	0x39426717	0.00018539686
94	0x37c55b0b	2.3526625e-05
95	0x3757b08d	1.2856105e-05
96	0x36bf6bd6	5.7047973e-06
97	0x3484c446	2.4729724e-07
98	0x3672ffa9	3.6209624e-06
99	0x3926de9c	0.00015913922
100	0x34f943f9	4.642932e-07
101	0x38000c6e	3.0529154e-05
102	0x36831da1	3.9075535e-06
103	0x3614dad9	2.2181105e-06
104	0x38ad9375	8.276749e-05
105	0x3618e477	2.278275e-06
106	0x379c94e3	1.866598e-05
107	0x393c7ddd	0.00017975965
108	0x368c73ea	4.1858193e-06
109	0x38f746f5	0.000117910946
110	0x37a67041	1.9841014e-05
111	0x37415ecd	1.1525769e-05
112	0x38ec0219	0.00011253748
113	0x368737ba	4.029801e-06
114	0x3895fc48	7.151865e-05
115	0x3a5ac85a	0.0008345895
116	0x36f84cd2	7.399919e-06
117	0x3917a7db	0.00014463013
118	0x38374538	4.3695065e-05
119	0x37dfc2be	2.6674355e-05
120	0x38d24b40	0.00010027597
121	0x36852bfe	3.9688302e-06
122	0x38a4d610	7.860002e-05
123	0x3abde1df	0.001448687
124	0x36f8ba0b	7.412634e-06
125	0x38f1c1ec	0.00011527896
126	0x384df0b5	4.9099985e-05
127	0x379048a6	1.7199967e-05
128	0x37e527cc	2.731746e-05
129	0x35928876	1.0917563e-06
130	0x377a2e90	1.4912002e-05
131	0x39196e6f	0.00014632357
132	0x36089f3e	2.035827e-06
133	0x39a766ae	0.00031929224
134	0x3768493e	1.3845331e-05
135	0x37198f7f	9.152921e-06
136	0x389c4077	7.450667e-05
137	0x368fd183	4.2861225e-06
138	0x38cd530b	9.79063e-05
139	0x399454a5	0.00028291825
140	0x37048a72	7.900047e-06
141	0x3a180b10	0.0005799988
142	0x38218a78	3.851435e-05
143	0x37b5389c	2.1603242e-05
144	0x39377629	0.00017496258
145	0x36e670ea	6.867679e-06
146	0x38f7a6b2	0.00011808927
147	0x398bbb93	0.000266519
148	0x3753b91c	1.2619679e-05
149	0x39ee8e77	0.00045501042
150	0x385c6275	5.2543783e-05
151	0x37eee4e4	2.8478396e-05
152	0x381f63e9	3.8001603e-05
153	0x359dbe2f	1.1752762e-06
154	0x37dc7d84	2.6284491e-05
155	0x39a5558c	0.0003153499
156	0x3611cdd5	2.1726494e-06
157	0x3912e7f9	0.00014010062
158	0x37866428	1.6020684e-05
159	0x37088f0d	8.139538e-06
160	0x3871e989	5.7676374e-05
161	0x35ee6d54	1.77642e-06
162	0x37951618	1.7772472e-05
163	0x38b0610e	8.410412e-05
164	0x365bb72e	3.2740168e-06
165	0x390f5681	0.00013669768
166	0x373a4f9d	1.1105e-05
167	0x37073ee8	8.061274e-06
168	0x385b657e	5.230819e-05
169	0x36229f75	2.4232697e-06
170	0x3864a93f	5.451706e-05
171	0x3995b84c	0.00028556807
172	0x369f01a1	4.738759e-06
173	0x38e20971	0.000107782784
174	0x37df5956	2.6625272e-05
175	0x3749ea40	1.2035074e-05
176	0x37f41ad0	2.9099552e-05
177	0x35667f9b	8.586737e-07
178	0x372bf43f	1.0249262e-05
179	0x3943a94a	0.00018659714
180	0x35d366d2	1.575065e-06
181	0x38b294d9	8.5154265e-05
182	0x3725d04b	9.883263e-06
183	0x36efbb59	7.144565e-06
184	0x373ed39f	1.1374154e-05
185	0x34b84e2c	3.4329548e-07
186	0x3678a6b5	3.7051916e-06
187	0x37fbc3d2	3.0012718e-05
188	0x352a8fd2	6.353922e-07
189	0x38514aab	4.9899023e-05
190	0x36b10528	5.2756113e-06
191	0x361e239a	2.3564558e-06
192	0x376da28d	1.4164148e-05
193	0x353e2050	7.0827537e-07
194	0x37763883	1.46759e-05
195	0x3904622f	0.00012625077
196	0x35b48cb4	1.3451995e-06
197	0x38bf87c8	9.132881e-05
198	0x37786c76	1.4807205e-05
199	0x36bd69a8	5.644939e-06
200	0x37a02125	1.908892e-05
201	0x35b05412	1.313749e-06
202	0x37eafba6	2.8012157e-05
203	0x39b065ed	0.00033645277
204	0x3626d82b	2.4861754e-06
205	0x38fbf8e9	0.00012014976
206	0x377d9030	1.5113546e-05
207	0x36c5f9d6	5.9001422e-06
208	0x3780acd8	1.5339276e-05
209	0x3542843b	7.246305e-07
210	0x376d9a02	1.4162159e-05
211	0x38957332	7.1263305e-05
212	0x35c024c4	1.4315815e-06
213	0x38ef18ef	0.00011401052
214	0x373fb28e	1.142606e-05
215	0x36aab623	5.0875983e-06
216	0x390c9d2b	0.0001340999
217	0x36a514c4	4.9198006e-06
218	0x389e74a9	7.555757e-05
219	0x392c701f	0.00016444967
220	0x3717851d	9.031294e-06
221	0x399c15be	0.00029770838
222	0x3816a97a	3.5920624e-05
223	0x37cd0aff	2.4443025e-05
224	0x382d90dd	4.138133e-05
225	0x3610f716	2.1601495e-06
226	0x383f6fea	4.5642177e-05
227	0x394cd26f	0.00019533349
228	0x368a72e0	4.1260937e-06
229	0x38d67b3b	0.00010227269
230	0x37cfb1ff	2.4759209e-05
231	0x37287f9f	1.0043294e-05
232	0x37f373f7	2.9021858e-05
233	0x35621687	8.422434e-07
234	0x36c6077c	5.901731e-06
235	0x38bb00e5	8.9170215e-05
236	0x35d00747	1.5499326e-06
237	0x385571d1	5.0889157e-05
238	0x36d19e7f	6.2471368e-06
239	0x368be0d5	4.1686967e-06
240	0x384750b4	4.7520458e-05
241	0x35d86d21	1.6125015e-06
242	0x37d8a01b	2.5823761e-05
243	0x38dd19cc	0.00010542906
244	0x364a7d22	3.0173182e-06
245	0x39219f47	0.00015413492
246	0x37b626d7	2.1714177e-05
247	0x37237edd	9.745095e-06
248	0x373fa351	1.1422512e-05
249	0x3569367c	8.687855e-07
250	0x37c7c107	2.3812534e-05
251	0x38967a70	7.175363e-05
252	0x35d74ab1	1.6040486e-06
253	0x38988ebe	7.2745126e-05
254	0x371921e4	9.127401e-06
255	0x36aac7e4	5.089665e-06

exp_avg f4 [128]
0	0x3a871a24	0.0010307473
1	0xb839a8f4	-4.4264787e-05
2	0xba19a8c1	-0.0005861633
3	0xb922d85b	-0.00015530123
4	0x3a3568de	0.00069202285
5	0xbb642265	-0.003481054
6	0x39fd1c3a	0.0004827695
7	0x39570111	0.00020504395
8	0x38067a36	3.2061907e-05
9	0x3b3ec247	0.0029107498
10	0x39a9bc5a	0.00032374525
11	0x3ae56095	0.0017500097
12	0xb82daa2f	-4.140491e-05
13	0xbaf53e6d	-0.0018710621
14	0x3a85e8b8	0.001021645
15	0x38ba2e0d	8.877749e-05
16	0xbad89c5b	-0.001652609
17	0xba90b5b3	-0.0011040479
18	0x3a9b264c	0.0011836975
19	0x39044196	0.00012612934
20	0xbb3acd91	-0.0028503875
21	0x37889f0d	1.6286527e-05
22	0x39f0eaac	0.0004595121
23	0x39fe9afa	0.00048562122
24	0x3928adec	0.0001608652
25	0xb8c7a67d	-9.52007e-05
26	0xbacdd112	-0.0015702567
27	0x3b0db554	0.0021622973
28	0xb8cd8bca	-9.8011995e-05
29	0xbad54a4e	-0.0016272755
30	0x38ec1bd5	0.00011258541
31	0xba0bd803	-0.00053346175
32	0x3749b633	1.2022955e-05
33	0x3b296b6d	0.0025851384
34	0xba5db212	-0.00084570155
35	0xba652972	-0.00087418326
36	0x3b0f988c	0.0021910993
37	0xbacde212	-0.0015707633
38	0x3a31c63c	0.00067815534
39	0x3946fd1e	0.00018977045
40	0x3b9986f9	0.0046852794
41	0x3ac58bbf	0.0015071555
42	0xb9558000	-0.00020360947
43	0x3961dc7a	0.00021539806
44	0x38b8a04e	8.803663e-05
45	0x3b87999b	0.0041381842
46	0xbb1c184f	-0.00238182
47	0xb9c0aaea	-0.00036748435
48	0xbb74d92c	-0.003736089
49	0xba809529	-0.0009810078
50	0x368c65d4	4.1841795e-06
51	0x3a82f803	0.0009992126
52	0xb75c502c	-1.3131688e-05
53	0x390132d9	0.00012321341
54	0xb979acf9	-0.00023810928
55	0xb8014827	-3.0823194e-05
56	0x378ff308	1.7160099e-05
57	0xbaa096e6	-0.0012252002
58	0xb94e6dfe	-0.00019686666
59	0x3b61cf49	0.0034455827
60	0xb90c2b3f	-0.00013367551
61	0xb9a2cd65	-0.0003105208
62	0x38874cad	6.4515836e-05
63	0xbb089e20	-0.0020846203
64	0xb8f31ea9	-0.00011592854
65	0xb933e93a	-0.00017157654
66	0xb96a1b6f	-0.00022326199
67	0x3a8dc555	0.0010816256
68	0x393b6ce3	0.00017874273
69	0x384d4d42	4.894776e-05
70	0x3b3a7e6f	0.0028456708
71	0x3a946b84	0.0011323546
72	0xbb4fac32	-0.003168833
73	0xb855142f	-5.0801955e-05
74	0xb932ab26	-0.0001703916
75	0x3a5a7a45	0.00083342596
76	0xb81d26e6	-3.7467944e-05
77	0x37c158b3	2.3048697e-05
78	0x39a769e9	0.0003193163
79	0xbae17087	-0.0017199673
80	0x3a5e3649	0.0008476717
81	0x3b4579b2	0.003013235
82	0x3a4f35eb	0.0007904458
83	0xbb2a19c1	-0.0025955292
84	0xb9081213	-0.00012976704
85	0x3a6a3258	0.00089338934
86	0xb9e0ec1b	-0.00042900522
87	0x3b051184	0.002030463
88	0x3983c0a7	0.00025129804
89	0x3a004f06	0.0004894588
90	0x39f1c50b	0.0004611391
91	0x38e171fe	0.00010750069
92	0xbaad122b	-0.0013204267
93	0x3aff6dcd	0.0019487679
94	0x39a76ffa	0.0003193615
95	0x3b138bc4	0.0022513727
96	0xba695094	-0.00089002517
97	0xba8a74ce	-0.0010563375
98	0xbad158e9	-0.0015971932
99	0xb7ef085d	-2.8494915e-05
100	0xbac8a7ef	-0.0015308837
101	0x378a39ee	1.6477858e-05
102	0x39594853	0.00020721676
103	0xba5a8652	-0.00083360553
104	0xbb265851	-0.002538223
105	0xbb913b43	-0.0044321134
106	0x37b5f2f5	2.1690017e-05
107	0x38afc2d8	8.380943e-05
108	0x388fcb84	6.856679e-05
109	0x39889ebf	0.00026058216
110	0xbac7ab6e	-0.0015233585
111	0xba53d35a	-0.0008080505
112	0xbb616fdd	-0.003439895
113	0x39d22bc1	0.0004008692
114	0x39c6fa1c	0.0003795185
115	0x3aa7dd63	0.0012807067
116	0xb79da33a	-1.8791867e-05
117	0xba0ebd8d	-0.00054451154
118	0xb8aa69fe	-8.125974e-05
119	0xbabab423	-0.0014244359
120	0x3a454941	0.00075258693
121	0x390c0840	0.00013354514
122	0x36f2d1c5	7.2365824e-06
123	0x3aa05e3a	0.0012235113
124	0x39dc87ce	0.00042062852
125	0x3a489e07	0.00076529424
126	0x3b09a185	0.0021000814
127	0xbb03ca6b	-0.0020109664

exp_avg_sq f4 [128]
0	0x3648731d	2.9869327e-06
1	0x36905627	4.301564e-06
2	0x364808f7	2.980754e-06
3	0x35418c24	7.2102034e-07
4	0x362ab8ab	2.5439465e-06
5	0x36c8a1eb	5.979314e-06
6	0x37388d19	1.10001065e-05
7	0x36c9a3c5	6.009332e-06
8	0x35d297d2	1.5690405e-06
9	0x379b5309	1.8516106e-05
10	0x36290fd0	2.5192167e-06
11	0x371a702d	9.205233e-06
12	0x3584c446	9.89189e-07
13	0x3718e477	9.1131e-06
14	0x378737ba	1.6119204e-05
15	0x37852bfe	1.5875321e-05
16	0x36928876	4.367025e-06
17	0x378fd183	1.714449e-05
18	0x37e670e9	2.7470714e-05
19	0x369dbe2f	4.701105e-06
20	0x36ee6d54	7.10568e-06
21	0x37229f74	9.693078e-06
22	0x36667f9b	3.4346947e-06
23	0x35b84e2d	1.373182e-06
24	0x363e2050	2.8331015e-06
25	0x36b05412	5.254996e-06
26	0x3642843c	2.8985223e-06
27	0x37a514c5	1.9679204e-05
28	0x3710f716	8.640598e-06
29	0x36621688	3.368974e-06
30	0x36d86d21	6.450006e-06
31	0x3669367c	3.475142e-06
32	0x35aa4ed6	1.2688931e-06
33	0x36828dbe	3.890803e-06
34	0x3710d638	8.6329455e-06
35	0x3609d499	2.053834e-06
36	0x36fab986	7.4721784e-06
37	0x369e264a	4.7132244e-06
38	0x369eea21	4.736023e-06
39	0x364650f6	2.9551425e-06
40	0x37973e1f	1.802953e-05
41	0x36b1f89c	5.303953e-06
42	0x373f8b76	1.1416958e-05
43	0x371223aa	8.710582e-06
44	0x37ce3d70	2.4585723e-05
45	0x37aa7dd2	2.0324169e-05
46	0x37948555	1.7705062e-05
47	0x3628be28	2.5144636e-06
48	0x37edc98b	2.8346452e-05
49	0x366d9080	3.5399862e-06
50	0x36c744ef	5.938687e-06
51	0x364ff170	3.0985939e-06
52	0x371398da	8.797471e-06
53	0x36573625	3.2069013e-06
54	0x3642ed5c	2.9046414e-06
55	0x364b31c7	3.0278331e-06
56	0x35fa3014	1.8640444e-06
57	0x3619ee4f	2.293749e-06
58	0x36a05ea0	4.7793874e-06
59	0x37f0373a	2.8635946e-05
60	0x364b7755	3.0318818e-06
61	0x3664fcff	3.412191e-06
62	0x3624223f	2.4457838e-06
63	0x3699a790	4.579262e-06
64	0x37fb2c60	2.9942195e-05
65	0x35fb912a	1.8743206e-06
66	0x3741d791	1.1553887e-05
67	0x368454ff	3.9438014e-06
68	0x3707ceb7	8.094757e-06
69	0x3717a24f	9.038092e-06
70	0x3793b8ef	1.7609882e-05
71	0x376f789a	1.427359e-05
72	0x3781dbb0	1.5480298e-05
73	0x36f5c23f	7.324182e-06
74	0x3715d715	8.93117e-06
75	0x36e05be8	6.6864195e-06
76	0x36bd48e6	5.6411254e-06
77	0x36e7f460	6.9127855e-06
78	0x36c3f0dc	5.8394926e-06
79	0x35dda977	1.6515104e-06
80	0x3711f39f	8.699396e-06
81	0x3758dffe	1.29267555e-05
82	0x3726a23f	9.932147e-06
83	0x379be6d7	1.8584933e-05
84	0x37941a62	1.765526e-05
85	0x36f49ea2	7.290234e-06
86	0x366703c5	3.4423877e-06
87	0x3685ff11	3.9934025e-06
88	0x3632f2bd	2.666536e-06
89	0x3662aea9	3.377829e-06
90	0x369c6a0e	4.6615087e-06
91	0x37346ad9	1.07537135e-05
92	0x36ee3b00	7.0998212e-06
93	0x38432bb9	4.6532343e-05
94	0x3682df9d	3.900334e-06
95	0x3741d72f	1.1553798e-05
96	0x364dbdc4	3.0657839e-06
97	0x36683c91	3.4605948e-06
98	0x36e42a37	6.799844e-06
99	0x36ad1bc7	5.1590355e-06
100	0x364766e2	2.9713196e-06
101	0x36641204	3.3985134e-06
102	0x35ec46c1	1.7603962e-06
103	0x36e9f27a	6.972169e-06
104	0x37caa4e8	2.4157067e-05
105	0x37626383	1.3493819e-05
106	0x350d6f26	5.2688335e-07
107	0x352daa2a	6.4695143e-07
108	0x366d4c1f	3.536006e-06
109	0x365f5bd3	3.3283038e-06
110	0x36631815	3.3839653e-06
111	0x3670c381	3.5876585e-06
112	0x37b90e54	2.206039e-05
113	0x3638383f	2.7450876e-06
114	0x362d0d7f	2.5786865e-06
115	0x379aba8e	1.8445102e-05
116	0x37812910	1.539712e-05
117	0x363cce25	2.8134175e-06
118	0x3685e8af	3.990797e-06
119	0x368e13cf	4.234236e-06
120	0x35b4f6cd	1.3482874e-06
121	0x36217b0f	2.40625e-06
122	0x3527e247	6.2541625e-07
123	0x37394696	1.1043294e-05
124	0x36d85ba3	6.4479696e-06
125	0x35787b78	9.256687e-07
126	0x369432a0	4.4166372e-06
127	0x3830a061	4.2111034e-05
