FinalProject/results/Zombie/Zombie/checkpoint.pt (torch, 447522 bytes, 36 tensors)

network_body._body_endoder.seq_layers.0.weight f4 [128, 8]
0.13103028 -0.63230836 0.22762212 -0.018983457 -0.5044294 0.6007752 0.2965979 0.0821926
0.5083813 0.3565555 -0.08629971 -0.094188966 0.32187724 0.20155829 0.1400833 0.15969393
0.2025668 0.4416008 0.22248633 0.84518343 -0.05160767 -0.44050422 0.05877153 0.26172128
0.06777785 0.09067636 0.5392629 0.0010490618 0.19999869 -0.8108986 -0.061926063 -0.3186215
0.80815756 0.3659171 -0.48717237 0.065084964 0.5703692 0.026982613 -0.22249378 -0.3732701
0.001063095 -0.16467951 0.3023375 -0.15075994 0.42000878 -0.021960134 -0.009704569 -0.095595315
-0.11061235 -0.12987657 -0.8688573 -0.36271757 0.06244489 0.42404503 -0.4829457 0.48151246
0.051860306 -0.3509117 -0.12197314 0.41170233 0.29913956 -0.55696785 0.16507722 0.06386522
0.29176837 -0.25782415 -0.58471966 -0.430739 0.3778253 0.05959086 -0.3454186 0.18644978
-0.095836826 -0.3107241 -0.35217056 0.24909474 -0.10330155 0.18527165 0.20334248 -0.61077917
-0.89572304 0.95735204 0.34373343 -0.13322364 -0.18486747 -0.48190647 -0.2960139 -0.31331483
-0.006884577 0.44397137 -0.112856574 0.22562912 0.24851164 -0.11178699 0.5307481 0.7201091
0.091772296 0.24396427 -0.009552834 0.19141282 0.60792613 -0.46171576 -0.012540853 0.09758753
-0.62735116 -0.47559872 -0.14275014 0.11889846 0.35843185 -0.13686158 -0.16734053 0.27671027
0.39760017 0.26217803 0.4677464 -0.08816933 -0.06275857 0.6970038 0.5631648 0.12038189
-0.7501981 0.25537747 0.2420432 0.87096894 -0.12549217 -0.3787411 -0.3474039 -0.2785405
-0.0005283553 0.14576304 -0.16581133 0.2665546 0.22889607 -0.30957738 0.18090622 0.41788325
0.5263622 0.6179423 0.52668804 -0.34107205 -0.102136835 0.5935153 -0.526078 -0.36821014
0.64917964 -0.56690884 0.5492668 0.18408114 -0.6975381 -0.21924873 0.15533963 0.2669367
-0.24478658 -0.7215597 -0.1286779 -0.33383417 -0.44559065 0.7610935 -0.072947435 0.040965885
-0.09947889 0.40825763 -0.34779283 -0.14230071 0.29201785 0.114318974 -0.27071092 -0.086589806
-0.6073985 -0.028374957 -0.016757937 0.6001187 0.41811603 0.008929412 -0.6353677 0.539669
-0.19212446 0.165304 0.13536814 0.5498404 0.057785854 -0.23459625 -0.7309873 -0.8026659
-0.29943767 -0.17507178 0.6219243 -0.14722162 -0.55678046 0.42742625 0.021332225 -0.39188156
0.023703912 0.038481057 -0.27406475 0.2691003 -0.5638648 -0.12324756 0.4870739 0.08986311
-0.0907863 0.4149359 -0.3719596 0.47255725 0.35627446 0.32387856 0.80632883 -0.78026015
0.07113821 -0.66384804 -0.24546579 -0.40252784 -0.60403115 0.5302099 -0.08343726 -0.1765658
-0.22510208 0.4009015 -0.6076529 -0.02500783 0.31979477 0.5077032 -0.33475205 -0.73574924
0.2652264 0.34899607 -0.15183188 -0.05508796 0.049365863 -0.08867524 -0.27089578 0.49871933
0.081787504 0.34238425 0.22240679 0.09096607 0.5024657 0.18588386 -0.6532373 -0.21672784
0.4601528 -0.15235414 -0.19745947 -0.081709325 0.043100603 0.5061768 -0.0718979 -0.10985611
-0.2521194 -0.2529274 -0.27153718 0.2408721 0.2570927 -0.52437633 0.155823 -0.010111806
00000000: cd2c 063e f6de 21bf c615 693e 3283 9bbc
00000010: 4922 01bf 67cc 193f aedb 973e 9854 a83d
00000020: 4725 023f 718e b63e e7bd b0bd 25e6 c0bd
00000030: 18cd a43e 4c65 4e3e ff71 0f3e ce86 233e
00000040: ac6d 4f3e 8019 e23e 75d3 633e f15d 583f
00000050: 9062 53bd c589 e1be 6aba 703d 5500 863e
00000060: 1dcf 8a3d 87b4 b93d 220d 0a3f ac80 893a
00000070: 75cc 4c3e 0d97 4fbf 2fa6 7dbd 5b22 a3be
00000080: 6ae3 4e3f 7c59 bb3e a86e f9be 444b 853d
00000090: b703 123f a40a dd3c 69d5 63be 421d bfbe
000000a0: 8d57 8b3a bfa1 28be fbcb 9a3e d060 1abe
000000b0: 640b d73e bde5 b3bc eaff 1ebc 7ac7 c3bd
000000c0: ba88 e2bd 5dfe 04be 6f6d 5ebf 1eb6 b9be
000000d0: 37c6 7f3d 6e1c d93e a944 f7be cd88 f63e
000000e0: 796b 543d b3aa b3be 0ecd f9bd a6ca d23e
000000f0: d228 993e 7295 0ebf 010a 293e c5cb 823d
00000100: aa62 953e 8701 84be 30b0 15bf d289 dcbe
00000110: 5172 c13e 8c15 743d b5da b0be b1ec 3e3e
00000120: 1946 c4bd 3b17 9fbe b34f b4be b112 7f3e
00000130: c38f d3bd dab7 3d3e 0339 503e 065c 1cbf
00000140: 1b4e 65bf 0615 753f d4fd af3e c76b 08be
00000150: e64d 3dbe 72bc f6be 228f 97be cd6a a0be
00000160: 0598 e1bb 3750 e33e 5921 e7bd 520b 673e
00000170: d679 7e3e 94f0 e4bd 1cdf 073f 1259 383f
00000180: 1df3 bb3d c5d1 793e 7d83 1cbc b901 443e
00000190: 0ca1 1b3f 0266 ecbe 2678 4dbc f9db c73d
000001a0: 169a 20bf ad81 f3be 182d 12be 0981 f33d
000001b0: 6184 b73e 7125 0cbe 515b 2bbe f8ac 8d3e
000001c0: 4092 cb3e 333c 863e 757c ef3e 1f92 b4bd
000001d0: 9187 80bd d76e 323f 912b 103f c88a f63d
000001e0: fc0c 40bf d6c0 823e 2cda 773e d2f7 5e3f
000001f0: 0581 00be 5aea c1be edde b1be dc9c 8ebe
00000200: 5381 0aba e842 153e 72ca 29be d879 883e
00000210: bb63 6a3e ed80 9ebe 7b3f 393e cbf4 d53e
00000220: acbf 063f 7731 1e3f 07d5 063f ffa0 aebe
00000230: 1e2d d1bd 9ef0 173f 0cad 06bf 0a86 bcbe
00000240: a330 263f f020 11bf c09c 0c3f c47f 3c3e
00000250: db91 32bf bd82 60be 5a11 1f3e edab 883e
00000260: 55a9 7abe 23b8 38bf 24c4 03be 50ec aabe
00000270: 7524 e4be 06d7 423f 7765 95bd d8cb 273d
00000280: 97bb cbbd 2507 d13e e711 b2be 47b7 11be
00000290: 5d83 953e 1120 ea3d 9f9a 8abe ff55 b1bd
000002a0: 787e 1bbf 9972 e8bc f147 89bc 61a1 193f
000002b0: 4e13 d63e ab4c 123c 75a7 22bf bf27 0a3f
000002c0: 46bc 44be 7445 293e f29d 0a3e 57c2 0c3f
000002d0: dcb0 6c3d 003a 70be fc21 3bbf 837b 4dbf
000002e0: e54f 99be 0446 33be 6e36 1f3f 44c1 16be
000002f0: 2a89 0ebf 9dd7 da3e ebc0 ae3c b3a4 c8be
00000300: b52e c23c 509e 1d3d 3752 8cbe 84c7 893e
00000310: 7259 10bf 3769 fcbd c061 f93e 260a b83d
00000320: 2bee b9bd 7a72 d43e 7d71 bebe 06f3 f13e
00000330: 9b69 b63e 69d3 a53e 916b 4e3f 21bf 47bf
00000340: e9b0 913d f2f1 29bf 625b 7bbe 2118 cebe
00000350: c9a1 1abf d6bb 073f 27e1 aabd aacd 34be
00000360: 2981 66be f642 cd3e 248f 1bbf 38dd ccbc
00000370: 24bc a33e d6f8 013f 9f64 abbe 105a 3cbf
00000380: c1cb 873e 9daf b23e d179 1bbe eaa3 61bd
00000390: dc33 4a3d 5d9b b5bd dab2 8abe 2458 ff3e
000003a0: 3580 a73d fd4c af3e 9bbe 633e 6b4c ba3d
000003b0: 98a1 003f 5758 3e3e 8f3a 27bf e7ed 5dbe
000003c0: 2699 eb3e b902 1cbe d132 4abe 3857 a7bd
000003d0: 428a 303d ce94 013f 353f 93bd 3dfc e0bd
000003e0: cb15 81be b37f 81be ec06 8bbe 2da7 763e
000003f0: a8a1 833e 873d 06bf 1190 1f3e fdab 25bc

network_body._body_endoder.seq_layers.0.bias f4 [128]
-0.07284391 -0.035167232 0.0084224325 -0.0057268785 -0.008187175 0.018105289 0.009702815 -0.014450659
0.0254424 0.09702208 0.10862442 0.05081704 0.1153875 -0.024126627 0.043237474 0.10691196
0.05384783 -0.07238247 0.05649472 -0.09809685 0.03120667 0.1445159 0.10049039 -0.05514834
-0.055865835 0.11969972 -0.03881751 0.029821537 -0.05441873 0.028549554 -0.17244677 0.037706822
0.011331172 -0.005722707 0.020902378 -0.10572526 0.065569684 0.03073531 0.10218651 -0.031421784
-0.02352656 -0.009364128 -0.02178301 -0.14812212 -0.08585016 -0.08011986 0.081208795 -0.037202735
-0.07848794 -0.019436305 -0.014156866 0.052786004 0.03746629 -0.042717323 0.0768792 0.06488331
-0.04724788 0.04301819 0.021231215 0.033586673 0.053869855 0.0068666013 -0.024577776 0.020944154
0.01531653 0.040537324 -0.061719336 0.009345283 -0.045491673 -0.006827156 -0.11020643 -0.026418066
0.055322446 0.04855691 0.09016962 0.024151165 -0.028888756 0.014763564 -0.027000083 -0.101472706
-0.0076897014 0.08214085 0.07204907 -0.009681735 -0.11054747 -0.025305016 -0.085661106 0.067483865
-0.009515521 -0.07684358 0.052502107 0.049431995 0.04367531 0.054159306 -0.031955943 -0.17492823
0.09722997 -0.064152606 0.07725181 0.11035465 -0.06410415 0.04619986 -0.011360279 0.017465865
-0.039694153 -0.0687421 0.035331577 -0.13946393 0.041396875 0.0824398 -0.012432005 -0.011697845
0.07971575 -0.056288484 -0.047997665 -0.03948822 0.015649298 0.055260383 0.09244814 0.0138649605
0.060789317 -0.00036370958 -0.036825534 0.09652218 -0.0049900278 -0.08760866 -0.024567707 0.02747762
00000000: 302f 95bd 840b 10bd 3efe 093c 8aa8 bbbb
00000010: 8023 06bc 8b51 943c 8ef8 1e3c 75c2 6cbc
00000020: 946c d03c 83b3 c63d 7b76 de3d 8725 503d
00000030: 4850 ec3d 34a5 c5bc c719 313d a8f4 da3d
00000040: 8b8f 5c3d 433d 94bd 0267 673d 00e7 c8bd
00000050: 21a5 ff3c fafb 133e e8cd cd3d 3ae3 61bd
00000060: 93d3 64bd 2025 f53d 1cff 1ebd 4c4c f43c
00000070: 2de6 5ebd c1e0 e93c e395 30be 7872 1a3d
00000080: 61a6 393c 8c85 bbbb 773b ab3c 7c86 d8bd
00000090: 6649 863d 9ec8 fb3c 2947 d13d 21b4 00bd
000000a0: c6ba c0bc 006c 19bc 4872 b2bc 53ad 17be
000000b0: 35d2 afbd e215 a4bd cc50 a63d e561 18bd
000000c0: 49be a0bd e338 9fbc 33f2 67bc 2336 583d
000000d0: 4176 193d 5cf8 2ebd d872 9d3d 8ae1 843d
000000e0: fe86 41bd d733 303d 16ed ad3c 2e92 093d
000000f0: a3a6 5c3d 3a01 e13b 5557 c9bc 1393 ab3c
00000100: 2ff2 7a3c 770a 263d 6acd 7cbd f51c 193c
00000110: 7a55 3abd 56b6 dfbb e9b3 e1bd b36a d8bc
00000120: ca99 623d 9ce3 463d daaa b83d aad8 c53c
00000130: 1da8 ecbc e0e2 713c 472f ddbc ecd0 cfbd
00000140: e4f9 fbbb 7639 a83d 768e 933d 24a0 1ebc
00000150: b666 e2bd 774c cfbc 176f afbd fb34 8a3d
00000160: fde6 1bbc 2b60 9dbd 730c 573d 3479 4a3d
00000170: e2e4 323d 26d6 5d3d 3ce4 02bd 6320 33be
00000180: 8220 c73d 7162 83bd 3236 9e3d 9e01 e23d
00000190: 0949 83bd 103c 3d3d 7720 3abc 9314 8f3c
000001a0: 5696 22bd a8c8 8cbd d8b7 103d a2cf 0ebe
000001b0: c58f 293d 33d6 a83d 9caf 4bbc 51a8 3fbc
000001c0: 0342 a33d c18e 66bd 3399 44bd 66be 21bd
000001d0: f532 803c b658 623d 7355 bd3d dc29 633c
000001e0: 38fe 783d 46b0 beb9 5fd6 16bd 6cad c53d
000001f0: 6383 a3bb 2b6c b3bd 3742 c9bc bf18 e13c

network_body._body_endoder.seq_layers.2.weight f4 [128, 128]
0.028428202 -0.0116140805 -0.06931061 0.039362233 -0.016059292 0.05556269 0.26544732 -0.009321287
0.04305324 -0.06814654 0.07042317 -0.07371158 0.13898647 0.013012253 -0.051193204 0.06202402
-0.015617081 0.033830084 -0.26328972 -0.17429298 0.0237037 -0.094102874 0.12938088 0.19709441
-0.21621047 0.060097605 0.044449516 -0.0698196 -0.092287935 0.044894326 -0.025940612 -0.004833306
0.04107064 0.041042317 -0.023966696 -0.25378302 0.20600216 0.060276907 -0.025396856 0.0041335262
-0.24561341 0.041172396 -0.082877256 0.0054021226 0.084311485 0.023021244 0.22043549 -0.0024825872
-0.08071105 0.10807623 -0.13089801 0.030891422 -0.010823314 -0.0955112 -0.09591011 -0.016450265
-0.031610753 -0.048278276 -0.016708106 -0.2939194 0.020331794 -0.050488997 0.19259684 0.1522843
0.15950604 -0.17430821 0.014904541 -0.06753464 -0.05103523 -0.12925924 0.105440065 -0.119576454
0.04546182 -0.09904449 0.04021751 -0.061571162 0.03954343 -0.2165757 0.0602845 0.13227211
-0.1628469 0.096925795 -0.22889209 0.02844858 -0.08877598 0.10296308 0.08611547 -0.008204955
0.0069828513 -0.07091859 0.08972647 0.025196899 0.0488436 0.061866883 -0.23114339 -0.0055367993
-0.12221303 -0.04592621 -0.09189062 0.27660307 -0.1054347 0.082902625 -0.07417214 -0.13210167
0.1404601 0.090586096 -0.10112974 -0.005412253 0.04904564 0.13922782 0.115185715 0.048913214
-0.14499776 -0.08108831 -0.22611406 -0.09029078 0.07508215 0.10252326 0.014239241 0.113678075
-0.011762806 0.10783406 -0.16325879 0.054235935 0.07338395 0.013348069 0.14642544 0.009471095
0.017912012 0.054421403 -0.03549626 -0.04701797 0.12311252 0.04619115 -0.14457944 -0.017944925
-0.0029812616 0.031451847 -0.06270923 0.13215041 0.3051284 -0.051491287 -0.0055112126 -0.113550134
-0.07233181 0.050266165 -0.051444706 -0.038272068 0.064451754 -0.06399283 -0.06879572 0.06518569
0.122842714 0.12977421 -0.18150438 -0.12065127 -0.01936959 -0.088870205 0.030114518 0.072167024
0.13032708 0.14503404 0.008094117 -0.023421299 0.08620336 -0.061661977 0.06646773 0.041492596
-0.17302553 0.03306743 0.020336425 0.027396267 -0.13193071 -0.026238702 -0.03902871 -0.05534859
-0.0777295 0.00044088566 -0.13690433 -0.20800069 0.2060953 -0.2770896 -0.0417129 -0.0597479
-0.15374644 0.08253853 0.0013710621 0.06569119 0.054364137 0.03699315 -0.08674626 -0.25780275
-0.15099086 0.0125895655 0.023963332 -0.03672931 0.009921701 -0.13266574 -0.07534298 0.08381454
0.004565118 0.12450313 0.07263025 -0.103939556 -0.026507666 0.114271514 -0.13948318 -0.1508839
-0.00096808275 0.0065699853 0.046826307 0.050695304 -0.030868517 0.083659515 0.029332265 0.09977175
0.17290094 0.22580792 0.2432029 0.14234489 0.08451558 0.09608335 0.035326473 -0.026982544
-0.17285374 0.033130284 0.04622632 -0.06691674 0.18184553 -0.151932 -0.046148155 0.14739774
-0.09629577 0.021182 0.3728058 -0.07874853 0.022626627 0.054247633 -0.054078322 -0.19942306
0.09264206 -0.05433565 0.13551226 -0.07719723 -0.14787784 -0.0070790728 0.12412307 0.07522952
0.083726466 -0.11498357 0.07219672 -0.050786864 0.05218877 -0.08942607 0.14202298 -0.27828112
00000000: 43e2 e83c fc48 3ebc b9f2 8dbd 4b3a 213d
00000010: c78e 83bc b495 633d b6e8 873e 50b8 18bc
00000020: 9858 303d 6a90 8bbd 063a 903d 19f6 96bd
00000030: 7852 0e3e 5831 553c f7af 51bd e60c 7e3d
00000040: c9de 7fbc 6a91 0a3d e9cd 86be dc79 32be
00000050: 432e c23c 02b9 c0bd 6c7c 043e 1ed3 493e
00000060: 4766 5dbe e828 763d b210 363d 94fd 8ebd
00000070: 7501 bdbd 1de3 373d 6881 d4bc b660 9ebb
00000080: b039 283d fd1b 283d ce55 c4bc d9ef 81be
00000090: 3bf2 523e ebe4 763d 110d d0bc 8872 873b
000000a0: 1582 7bbe 63a4 283d 8dbb a9bd 4a04 b13b
000000b0: 80ab ac3d 0c97 bc3c d7b9 613e e7b2 22bb
000000c0: d64b a5bd 1257 dd3d 210a 06be 0210 fd3c
000000d0: 4554 31bc 609b c3bd 856c c4bd b5c2 86bc
000000e0: 477a 01bd 71bf 45bd 70df 88bc 9b7c 96be
000000f0: dd8e a63c 8dcd 4ebd 1b38 453e 6af0 1b3e
00000100: 8d55 233e da7d 32be 2d32 743c 9a4f 8abd
00000110: 510a 51bd 895c 04be f6f0 d73d 80e4 f4bd
00000120: 2c36 3a3d d6d7 cabd 1ebb 243d 0b32 7cbd
00000130: 4bf8 213d 05c6 5dbe e1ec 763d 5772 073e
00000140: 56c1 26be 0881 c63d b062 6abe ff0c e93c
00000150: 2ed0 b5bd 4fde d23d 4f5d b03d 136e 06bc
00000160: 67d0 e43b c43d 91bd 83c2 b73d ba69 ce3c
00000170: 3a10 483d 2168 7d3d dab0 6cbe 0a6e b5bb
00000180: d34a fabd 1f1d 3cbd 2631 bcbd eb9e 8d3e
00000190: 26ee d7bd dac8 a93d 90e7 97bd a945 07be
000001a0: c6d4 0f3e 3485 b93d 1c1d cfbd 4559 b1bb
000001b0: 15e4 483d bd91 0e3e 7de6 eb3d 3959 483d
000001c0: 4b7a 14be a111 a6bd 728a 67be 5fea b8bd
000001d0: acc4 993d b7f7 d13d b54b 693c 0dd0 e83d
000001e0: c9b8 40bc 1bd8 dc3d 502d 27be 8026 5e3d
000001f0: 534a 963d dcb1 5a3c 8df0 153e a72c 1b3c
00000200: 36bc 923c fae8 5e3d 8764 11bd ea95 40bd
00000210: 6b22 fc3d ee32 3d3d a20c 14be 3c01 93bc
00000220: 4561 43bb a7d3 003d b26d 80bd 7052 073e
00000230: ca39 9c3e 87e8 52bd 6797 b4bb f98c e8bd
00000240: b322 94bd e5e3 4d3d afb7 52bd 2cc3 1cbd
00000250: 48ff 833d ac0e 83bd c5e4 8cbd 1380 853d
00000260: f694 fb3d 88e3 043e 49dc 39be 0318 f7bd
00000270: f9ac 9ebc 9501 b6bd b9b2 f63c 4ecc 933d
00000280: 7674 053e ce83 143e 309d 043c 06de bfbc
00000290: 638b b03d 4591 7cbd 3c20 883d 24f4 293d
000002a0: 9b2d 31be b771 073d 9398 a63c 236e e03c
000002b0: d818 07be 8cf2 d6bc 92dc 1fbd 34b5 62bd
000002c0: a530 9fbd ac26 e739 a630 0cbe 22fe 54be
000002d0: a50a 533e b0de 8dbe 25db 2abd 37ba 74bd
000002e0: b56f 1dbe f609 a93d 36b5 b33a 1a89 863d
000002f0: eeac 5e3d 2186 173d 06a8 b1bd b9fe 83be
00000300: 599d 1abe 7744 4e3c c04e c43c 7971 16bd
00000310: a18e 223c 87d9 07be 6c4d 9abd f5a6 ab3d
00000320: fc96 953b 7ffb fe3d 2bbf 943d 43de d4bd
00000330: 9b26 d9bc 2f07 ea3d aed4 0ebe 4f81 1abe
00000340: efc6 7dba 0849 d73b f1cc 3f3d e1a5 4f3d
00000350: f9df fcbc ae55 ab3d 384a f03c 2255 cc3d
00000360: f20c 313e 313a 673e 2e0a 793e dcc2 113e
00000370: 8116 ad3d 59c7 c43d 7eb2 103d 7f0a ddbc
00000380: 9200 31be 9fb3 073d cf57 3d3d a50b 89bd
00000390: b735 3a3e 1094 1bbe d905 3dbd 6fef 163e
000003a0: b736 c5bd e085 ad3c 67e0 be3e e946 a1bd
000003b0: 7a5b b93c c432 5e3d 3b81 5dbd 8f35 4cbe
000003c0: 1fbb bd3d 0f8f 5ebd bac3 0a3e 9519 9ebd
000003d0: 4a6d 17be 91f7 e7bb 3c34 fe3d ef11 9a3d
000003e0: c878 ab3d 827c ebbd e0db 933d e305 50bd
000003f0: e4c3 553d 0425 b7bd 796e 113e dd7a 8ebe

network_body._body_endoder.seq_layers.2.bias f4 [128]
0.113750786 0.031157594 0.14560837 0.01815177 0.08319226 -0.012326952 0.097645454 0.11555471
0.0784749 0.040638525 0.03585821 0.064481035 0.06701649 0.10009557 0.087125875 0.017475057
-0.06283348 0.12805727 0.034106795 0.018458385 0.0029036398 0.045257855 0.023469353 0.022533558
-0.046625033 0.09908421 0.05238433 0.0635154 -0.076591365 0.07493159 0.048544962 0.014586959
0.014302338 0.038981147 0.09082889 -0.0076984093 0.08905749 0.07339373 0.073153995 0.02274353
0.060958873 0.021954935 0.025018362 -0.0186537 -0.10758516 0.044125043 0.07475733 0.030586416
0.02996469 0.074564524 0.020509765 0.043327626 -0.057715002 0.11993047 0.02690025 0.06296295
0.039116528 0.04665586 -0.018529044 0.11787745 0.08006323 0.05529645 0.103702776 0.12053675
-0.03959982 -0.07328375 0.08893424 -0.005819785 0.094946705 0.078060776 -0.0027573747 0.112891056
0.069498114 0.035766765 0.04820857 0.10020317 0.0151723465 0.087341435 0.10581045 0.03544841
0.047818944 0.0076131555 -0.12713137 0.13182601 -0.05309475 -0.093665354 0.12102019 0.076602526
0.113245055 0.044601496 0.055231705 0.13584627 0.054024387 0.007124196 0.10670529 0.06342601
0.091312736 0.061446823 -0.0056431 0.10240367 -0.030371947 0.063465185 0.05503147 -0.004783423
0.09925064 0.09706859 0.07187737 0.033100665 -0.0028828108 0.052931983 0.0067086876 -0.0028745125
0.025368372 0.0076145385 0.124640055 0.08777468 0.07553907 0.10555382 0.09008492 0.06918517
0.013765652 -0.020621989 0.095008954 0.08337681 -0.014262934 0.046962343 0.083294705 0.13916242
00000000: 2cf6 e83d 363e ff3c 5c1a 153e 05b3 943c
00000010: b460 aa3d fcf6 49bc 57fa c73d f3a7 ec3d
00000020: 73b7 a03d 9574 263d 0fe0 123d a20e 843d
00000030: f13f 893d e8fe cc3d 0d6f b23d da27 8f3c
00000040: d7ae 80bd 7221 033e 91b3 0b3d 0a36 973c
00000050: fe4a 3e3b 4d60 393d cd42 c03c 4c98 b83c
00000060: e4f9 3ebd aaec ca3d f490 563d 5d14 823d
00000070: efdb 9cbd bc75 993d 15d7 463d 24fe 6e3c
00000080: 5a54 6a3c b2aa 1f3d 7f04 ba3d f042 fcbb
00000090: c663 b63d 744f 963d c3d1 953d a450 ba3c
000000a0: 03b0 793d d6da b33c 4ff3 cc3c a5cf 98bc
000000b0: 9c55 dcbd 76bc 343d 5f1a 993d 5d90 fa3c
000000c0: 8278 f53c 49b5 983d 1804 a83c 4f78 313d
000000d0: 9166 6cbd 1b9e f53d ea5d dc3c b8f2 803d
000000e0: a738 203d 371a 3f3d 39ca 97bc bc69 f13d
000000f0: 31f8 a33d 887e 623d 1f62 d43d f9db f63d
00000100: 6c33 22bd ca15 96bd 2823 b63d e5b3 bebb
00000110: 6b73 c23d 54de 9f3d 12b5 34bb 6d33 e73d
00000120: 0755 8e3d 2c80 123d 5976 453d 5237 cd3d
00000130: 6f95 783c 11e0 b23d 26b3 d83d 5a32 113d
00000140: ccdd 433d c777 f93b ba2e 02be 66fd 063e
00000150: e179 59bd 9fd3 bfbd 6fd9 f73d c9e1 9c3d
00000160: 06ed e73d 0fb0 363d a43a 623d 491b 0b3e
00000170: ad48 5d3d 1672 e93b 4e88 da3d 7fe5 813d
00000180: 2c02 bb3d aaaf 7b3d c1e9 b8bb 04b9 d13d
00000190: 97ce f8bc 09fa 813d ae68 613d 43be 9cbb
000001a0: eb43 cb3d e6cb c63d 7134 933d 9094 073d
000001b0: 8aed 3cbb 35cf 583d 8dd4 db3b 5162 3cbb
000001c0: 55d1 cf3c 6183 f93b 4943 ff3d 36c3 b33d
000001d0: 3ab4 9a3d 9a2c d83d 717e b83d f4b0 8d3d
000001e0: 5489 613c 72ef a8bc 0e94 c23d 76c1 aa3d
000001f0: 15af 69bc 965b 403d 6a96 aa3d 9880 0e3e

action_model._continuous_distribution.log_sigma f4 [1, 2]
-0.45681617 -0.423643
00000000: cfe3 e9be bce7 d8be

action_model._continuous_distribution.mu.weight f4 [2, 128]
-0.079772666 0.06438526 -0.1166048 0.083829485 -0.046469837 0.027356533 -0.060765296 -0.057282362
0.09187444 -0.013215953 -0.009545633 -0.033273667 -0.08922965 0.0489873 0.042308297 0.096348345
-0.013929089 -0.093539625 -0.015440986 0.051822443 -0.0289959 0.008884263 0.03786813 0.055265553
-0.005523854 0.10932603 0.090304 -0.04821748 0.020900372 -0.007907348 0.09958886 0.054872464
0.039409116 -0.017115286 -0.045707356 0.047985706 0.008485405 0.022367345 0.003131334 -0.009292403
-0.022590183 0.059887048 0.076685764 0.059513815 -0.010481731 -0.0456143 -0.039861392 0.06905194
0.099560566 0.072680406 0.054647353 0.0069693387 -0.0072308304 -0.06032613 0.036128912 0.054553792
-0.02568147 0.11205169 -0.04454916 -0.071556054 -0.08126264 0.067111276 0.022160726 -0.07223159
-0.0033494094 -0.012972381 -0.01780467 0.0021230727 -0.035372254 -0.048287228 0.020311661 -0.08761684
0.009527581 0.06475444 0.08701309 0.08465984 0.08169502 0.07885947 -0.08521738 0.07072839
-0.032604795 0.072446376 0.12344309 0.04262457 0.008738879 0.13370189 -0.09096199 -0.034235284
0.10591662 0.04034485 -0.025378576 -0.10627642 -0.05308906 -0.030937245 -0.023307374 -0.0042039794
-0.053110026 0.08997683 0.0513957 0.12315852 -0.017252281 0.021623805 0.039632954 0.055383276
-0.06983881 0.089073226 -0.012418978 0.039993353 0.036068827 0.08241965 0.02083344 -0.040701233
-0.008716715 0.04231596 0.0999971 0.04248647 0.10709882 -0.06720644 -0.057154737 0.10335038
-0.034937013 0.038855955 0.11538837 -0.032147206 0.05339821 -0.019664234 0.10991104 -0.11565924
0.014355184 -0.012071305 -0.012822924 0.068308145 -0.018447148 0.013179583 -0.014793944 -0.08293148
0.0005504166 0.035078947 0.05816358 0.06677453 -0.04865262 -0.09197746 -0.07637166 -0.023080148
0.010879537 -0.061491653 0.047150068 0.04599228 0.0035048649 -0.05403425 -0.046318546 0.008125263
0.023627743 0.014999467 0.06811028 0.010940552 0.019946294 0.04119611 -0.010523961 -0.038157467
0.02241162 -0.027746255 -0.09334439 0.01257527 0.106506385 -0.046597574 0.07382051 0.033877656
-0.07450463 -0.0036379064 -0.04705998 0.011573764 -0.009984628 0.061122686 0.08198241 -0.03454622
-0.023427071 -0.011159545 0.053642098 -0.045574438 0.0031737895 -0.09549849 0.0038459569 -0.042461712
0.03610376 0.07967888 -0.049999293 -0.05216841 -0.06458445 0.059651926 -0.05606826 -0.0005564688
0.00010030537 -0.016915595 0.06223314 0.037770182 0.050900016 0.09494134 0.019921327 -6.541373e-05
-0.048089188 -0.0066053574 0.049612917 0.0009245458 -0.035584208 0.019656908 0.02699665 0.059319086
0.047672205 -0.029078372 0.073101535 -0.13168117 -0.039499782 -0.006501579 -0.06525909 -0.07910113
0.0058510187 -0.035357058 0.05233033 -0.027510444 0.012600379 -0.013450596 0.102018595 0.050262004
-0.009161546 0.0832269 -0.043413293 0.011545497 -0.01138498 -0.05969611 -0.044783924 0.06238897
0.009409587 -0.033142127 0.07805971 -0.024660463 -0.041913815 -0.04083431 0.040180333 0.035706375
0.041265536 -0.010234309 0.013732018 -0.07394474 -0.026354402 -0.027105384 -0.08610931 0.12844196
0.04250273 0.033886217 0.05234363 0.06133172 0.01460469 0.042092144 -0.03355955 -0.03721014
00000000: da5f a3bd 6bdc 833d 7fce eebd cbae ab3d
00000010: 2857 3ebd cf1a e03c 08e5 78bd e9a0 6abd
00000020: ab28 bc3d b987 58bc 4965 1cbc f849 08bd
00000030: 09be b6bd e8a6 483d 774b 2d3d 4852 c53d
00000040: d536 64bc b491 bfbd 30fc 7cbc c543 543d
00000050: cf88 edbc 4d8f 113c 9d1b 1b3d 225e 623d
00000060: 7201 b5bb 53e6 df3d 4ef1 b83d b17f 45bd
00000070: 4237 ab3c d28d 01bc 3ff5 cb3d f3c1 603d
00000080: 746b 213d 5b35 8cbc a337 3bbd a98c 443d
00000090: 5e06 0b3c b93b b73c 1137 4d3b 2a3f 18bc
000000a0: 0c0f b9bc 1f4c 753d 6d0d 9d3d c2c4 733d
000000b0: 91bb 2bbc 0fd6 3abd b345 23bd 1b6b 8d3d
000000c0: 69e6 cb3d 77d9 943d e7d5 5f3d 0d5f e43b
000000d0: 9af0 ecbb 8818 77bd e9fb 133d cc73 5f3d
000000e0: f261 d2bc 5b7b e53d 2e79 36bd fb8b 92bd
000000f0: 076d a6bd a371 893d 698a b53c 28ee 93bd
00000100: c481 5bbb 1c8a 54bc 19db 91bc 4023 0b3b
00000110: 7fe2 10bd d4c8 45bd a464 a63c 7570 b3bd
00000120: 9219 1c3c fa9d 843d eb33 b23d 2362 ad3d
00000130: b84f a73d 1381 a13d 7386 aebd 0cda 903d
00000140: 9b8c 05bd c45e 943d bbcf fc3d 1a97 2e3d
00000150: 842d 0f3c 26e9 083e 484a babd 4c3a 0cbd
00000160: d0ea d83d a440 253d bbe6 cfbc 74a7 d9bd
00000170: ea73 59bd 1b70 fdbc 1bef bebc 89c1 89bb
00000180: e689 59bd c645 b83d 4c84 523d 893a fc3d
00000190: a854 8dbc 6824 b13c 2a56 223d 93d9 623d
000001a0: a607 8fbd 066c b63d f878 4bbc 12d0 233d
000001b0: e8bc 133d a2cb a83d e4aa aa3c 56b6 26bd
000001c0: 8dd0 0ebc 8053 2d3d 48cb cc3d 4b06 2e3d
000001d0: a056 db3d 88a3 89bd 161b 6abd 5da9 d33d
000001e0: 1d1a 0fbd 6c27 1f3d bd50 ec3d caac 03bd
000001f0: 15b8 5a3d e316 a1bc 0a19 e13d c0de ecbd
00000200: 0132 6b3c b9c6 45bc 3e17 52bc 24e5 8b3d
00000210: 791e 97bc 2def 573c 4c62 72bc fbd7 a9bd
00000220: d549 103a f1ae 0f3d ef3c 6e3d 16c1 883d
00000230: f847 47bd ae5e bcbd bf68 9cbd 9412 bdbc
00000240: 1640 323c acde 7bbd 6e20 413d 6762 3c3d
00000250: e0b1 653b 0553 5dbd 84b8 3dbd d31f 053c
00000260: f88e c13c 53c0 753c 677d 8b3d 0040 333c
00000270: 6966 a33c 41bd 283d b16c 2cbc 014b 1cbd
00000280: 9398 b73c 1d4c e3bc 582b bfbd 8108 4e3c
00000290: 0520 da3d 19dd 3ebd 352f 973d 4cc3 0a3d
000002a0: e295 98bd f169 6ebb f7c1 40bd e29f 3d3c
000002b0: 9196 23bc c85b 7a3d 65e6 a73d 5680 0dbd
000002c0: 21ea bfbc 86d6 36bc d1b7 5b3d 43ac 3abd
000002d0: 5aff 4f3b b694 c3bd 730c 7c3b 55ec 2dbd
000002e0: 89e1 133d ae2e a33d 0fcc 4cbd 8bae 55bd
000002f0: da44 84bd 9455 743d d5a7 65bd fddf 11ba
00000300: 095b d238 9392 8abc 2de8 7e3d e8b4 1a3d
00000310: 897c 503d 9b70 c23d 0d32 a33c bb2e 89b8
00000320: 2bf9 44bd c171 d8bb ea36 4b3d 385d 723a
00000330: bfc0 11bd 8607 a13c 1428 dd3c 92f8 723d
00000340: ee43 433d c435 eebc 42b6 953d 6ed7 06be
00000350: 86ca 21bd 330b d5bb 8fa6 85bd c6ff a1bd
00000360: e7b9 bf3b 90d2 10bd 5458 563d 955d e1bc
00000370: d271 4e3c e35f 5cbc 20ef d03d 88df 4d3d
00000380: 4f1a 16bc dd72 aa3d 23d2 31bd 5329 3d3c
00000390: 1188 3abc e983 74bd 596f 37bd 948b 7f3d
000003a0: ab2a 1a3c 0ac0 07bd c5dd 9f3d bd04 cabc
000003b0: d2ad 2bbd e141 27bd 2294 243d d940 123d
000003c0: 0d06 293d cead 27bc 42fc 603c 5770 97bd
000003d0: 30e5 d7bc 1c0c debc 145a b0bd 4a86 033e
000003e0: 5817 2e3d 46cc 0a3d 4666 563d f836 7b3d
000003f0: 8248 6f3c d068 2c3d bd75 09bd a969 18bd

action_model._continuous_distribution.mu.bias f4 [2]
-0.039568383 -0.010119199
00000000: 7512 22bd ffca 25bc

exp_avg f4 [128, 8]
0.00015311175 -0.00025895826 0.00070876454 4.9564096e-05 -0.00033177715 -0.00019463064 -0.0009182895 -0.0007286743
-0.003827075 -0.0018467488 0.013040045 -0.006251831 -0.0028573985 0.0060728593 -0.00553868 0.0029798287
-0.0048185983 -0.0005923619 0.008094523 -0.007942397 -0.00092652405 0.0079704905 -0.0077822586 0.0034672795
0.0034732614 -0.0022800365 0.004363255 -0.0057469504 -0.0033199156 0.0039507914 0.00032187236 -0.0009283333
-0.0044872663 -0.0026694892 0.01553532 -0.0044641285 -0.0041996585 0.0051717036 -0.00648488 0.006398709
0.011375474 -0.0011300991 -0.0071842386 0.00049929915 -0.0015493701 -0.0018227202 0.0055349497 -0.0073313704
-0.0062900344 0.0020130728 -0.008518498 0.004526527 0.0031619617 -0.0006088893 -0.0007441311 -0.004066556
-0.008988746 -0.00243171 0.0126568675 -0.011428285 -0.0038194363 0.008219763 -0.006068263 0.0068516326
-0.004993328 0.0002932941 -0.0010630441 -0.0011671112 0.0003613513 0.0037325849 -0.0034389703 0.0007599934
-0.002411204 -0.0026255744 0.013703608 -0.003886483 -0.004045848 0.0034239038 -0.006102395 0.0011970849
0.005333588 -0.0003549937 -0.015271451 0.0005411462 -0.00044887883 0.0013645696 0.0070401835 -0.0073399586
-0.0033291765 -0.0021316325 0.0034269802 -0.007124573 -0.0031576916 0.0049391827 -0.0047044833 -0.0016514845
-0.002131754 -0.003957453 0.016651504 -0.0091672065 -0.0060450085 0.007667769 -0.004723354 0.0010560986
-0.0010314867 0.0005596061 -0.004191966 0.00054729 0.0008920736 0.0026427312 0.0012194768 -0.0005495451
0.0060285516 -0.00021436767 -0.003173453 -0.00022342797 -0.00018340543 -0.0017460916 -0.00063367764 -0.0060827825
0.008941772 0.00081666856 -0.016600953 0.003412052 0.0012829395 -0.0033978277 0.006415488 -0.008563392
-0.008437515 -0.0022582896 0.009461641 -0.009109449 -0.0034539246 0.0073641986 -0.0063673067 0.001884545
0.0016865657 -0.00026648786 0.0029342235 0.00056223775 -0.00037262257 7.6665293e-07 0.0013324991 0.0007443592
-0.0010440866 -0.00010018468 0.0021357676 -0.0035590865 -0.0001656713 0.0021453225 -0.002232647 -0.002307364
-0.0016684845 -0.0002003076 -0.0004251825 -3.564794e-05 -0.0002852819 0.000620006 -0.00020197507 0.0025772152
-0.0020920662 0.0007839655 -0.00091854186 0.0014056959 0.0011354397 0.0010874601 -0.00083060213 -0.0022538758
0.00229294 -0.00023212792 -0.0125686815 -0.00034268852 -0.00028375202 0.00043175495 0.0047784946 -0.0024797488
-0.001757428 -0.0012357327 0.00017967501 -0.00030457805 -0.0018203373 0.0015102644 -0.0012703027 -0.003600743
0.002930466 -0.0010142183 0.0006821612 0.00050513464 -0.0014573565 0.0006919959 0.0017303075 0.00022189952
-0.0036683534 -0.002042159 0.010605118 -0.0066731367 -0.0031342856 0.004801901 -0.0028707131 0.0038027305
-0.004223011 -0.0032420536 0.021801697 -0.004927238 -0.0051944833 0.005377415 -0.009765638 0.0035685657
-0.0034807944 -0.00059183675 0.00020898142 0.00039765795 -0.0007700851 -0.00059272227 0.0020274296 0.0001571161
-0.004145812 -0.00020093493 0.010149783 0.0033774266 -0.00033463267 -0.002041232 -0.0070068017 -0.0008116719
-0.002288684 0.00039262685 -0.002960222 -0.0019894096 0.00057063845 0.0017545726 -0.00050020294 -0.0030157147
0.006907985 -0.0007718429 -0.006544846 0.00033260096 -0.0011218297 -0.00036990317 0.006931704 -0.004177188
0.002854372 -0.000678585 0.0027619365 0.0016064339 -0.001026848 0.0003304842 0.00074423046 0.0012754233
-0.0134922825 -0.0021957287 0.018366614 -0.011226182 -0.003477226 0.010731369 -0.0077951904 0.008342272
00000000: 9f8c 2039 cac4 87b9 62cc 393a 0be3 4f38
00000010: 60f2 adb9 c415 4cb9 5db9 70ba 8104 3fba
00000020: aacf 7abb 9b0e f2ba eaa5 553c 29dc ccbb
00000030: 3143 3bbb d6fe c63b d17d b5bb 3b49 433b
00000040: 55e5 9dbb bc48 1bba e49e 043c d420 02bc
00000050: fae1 72ba a996 023c 5102 ffbb 4c3b 633b
00000060: a89f 633b aa6c 15bb a3f9 8e3b ea50 bcbb
00000070: f192 59bb a475 813b fac0 a839 655b 73ba
00000080: eb09 93bb 99f2 2ebb db87 7e3c d347 92bb
00000090: 4a9d 89bb 6577 a93b 1e7f d4bb 43ac d13b
000000a0: 3260 3a3c d51f 94ba c369 ebbb 66e3 023a
000000b0: 3c14 cbba 57e8 eeba 865e b53b fe3b f0bb
000000c0: a21c cebb c2ed 033b 2c91 0bbc 4353 943b
000000d0: ea38 4f3b df9d 1fba cb11 43ba bf40 85bb
000000e0: 8945 13bc 535d 1fbb c05e 4f3c b43d 3bbc
000000f0: 824f 7abb 2fac 063c 48d8 c6bb a983 e03b
00000100: 129f a3bb 45c5 9939 d755 8bba c1f9 98ba
00000110: c073 bd39 629e 743b 5960 61bb 4b3a 473a
00000120: 4a05 1ebb d411 2cbb 1985 603c 5db4 7ebb
00000130: 0893 84bb 9363 603b 99f6 c7bb 81e7 9c3a
00000140: 61c5 ae3b 731e bab9 1c35 7abc b5db 0d3a
00000150: 7f57 ebb9 5cdb b23a 57b1 e63b 0984 f0bb
00000160: 502e 5abb dcb2 0bbb 3097 603b 4075 e9bb
00000170: 46f1 4ebb ded8 a13b 1128 9abb a076 d8ba
00000180: e6b4 0bbb 86ad 81bb bc68 883c 0d32 16bc
00000190: 3515 c6bb e941 fb3b 5dc6 9abb ca6c 8a3a
000001a0: f332 87ba 88b2 123a c25c 89bb 0378 0f3a
000001b0: 0cda 693a ac31 2d3b dad6 9f3a 590f 10ba
000001c0: 288b c53b e2c7 60b9 b5f9 4fbb fd47 6ab9
000001d0: 8550 40b9 1ddd e4ba 631d 26ba 1452 c7bb
000001e0: 8380 123c b315 563a b9fe 87bc bc9c 5f3b
000001f0: 4e28 a83a 17ae 5ebb 0439 d23b 784d 0cbc
00000200: 813d 0abc d0ff 13bb 0005 1b3c cc3f 15bc
00000210: 3d5b 62bb 604f f13b d7a4 d0bb d602 f73a
00000220: c10f dd3a 65b7 8bb9 1a4c 403b 2363 133a
00000230: 8e5c c3b9 fdcb 4d35 40a7 ae3a 1a21 433a
00000240: bcd9 88ba 3e1a d2b8 3cf8 0b3b 903f 69bb
00000250: 0db8 2db9 8a98 0c3b 9a51 12bb 2537 17bb
00000260: 0db1 daba a909 52b9 07eb deb9 af84 15b8
00000270: e391 95b9 e687 223a 45c9 53b9 7fe6 283b
00000280: 0c1b 09bb 0983 4d3a 4dca 70ba 543f b83a
00000290: 09d3 943a 1b89 8e3a c4bc 59ba c3b5 13bb
000002a0: 2645 163b 5d67 73b9 dfec 4dbc e0aa b3b9
000002b0: 8dc4 94b9 2b5d e239 eb94 9c3b 4883 22bb
000002c0: 8059 e6ba 4ff8 a1ba 2567 3c39 c6af 9fb9
000002d0: 6298 eeba 10f4 c53a 4980 a6ba 71fa 6bbb
000002e0: 100d 403b 85ef 84ba 10d3 323a 036b 043a
000002f0: c504 bfba 0f67 353a 7ccb e23a b3ad 6839
00000300: c268 70bb bed5 05bb 17c1 2d3c 54aa dabb
00000310: 9668 4dbb 4459 9d3b 9322 3cbb 3b37 793b
00000320: 2f61 8abb a278 54bb 7999 b23c ab74 a1bb
00000330: 7c36 aabb 0735 b03b 0e00 20bc 99de 693b
00000340: 0a1e 64bb 7e25 1bba 0622 5b39 bf7c d039
00000350: 89df 49ba eb60 1bba a0de 043b 88bf 2439
00000360: 97d9 87bb 0fb2 52b9 474b 263c d157 5d3b
00000370: a371 afb9 31c6 05bb 5099 e5bb 61c6 54ba
00000380: bffd 15bb 7cd9 cd39 4900 42bb c160 02bb
00000390: e696 153a b0f9 e53a 0d20 03ba 4ca3 45bb
000003a0: 615c e23b 8055 4aba 2676 d6bb f260 ae39
000003b0: 5c0a 93ba 90ef c1b9 5923 e33b cbe0 88bb
000003c0: 6a10 3b3b 12e3 31ba 9b01 353b fa8e d23a
000003d0: 4d97 86ba d744 ad39 7618 433a 1b2c a73a
000003e0: bc0e 5dbc 37e6 0fbb 9575 963c 05ee 37bc
000003f0: 2ce2 63bb a0d2 2f3c cc6e ffbb 06ae 083c

exp_avg_sq f4 [128, 8]
0.000278274 8.420923e-06 0.00014925507 6.816284e-05 1.7510305e-05 3.925894e-05 0.00012476032 6.419534e-05
0.0062475437 0.00021899611 0.006219528 0.0028008884 0.00046604115 0.001663761 0.002392335 0.0022817375
0.007304523 0.00029002802 0.009628806 0.0068885847 0.0006179818 0.004057844 0.0028107762 0.0031856212
0.004480461 0.00015387016 0.0050220904 0.004701093 0.0003262925 0.0025872267 0.0017711868 0.0017492591
0.0130723445 0.0005043172 0.015243634 0.015989456 0.0010792023 0.00785706 0.005197511 0.0053565274
0.004089022 0.00012337735 0.0038034962 0.0008095889 0.0002478327 0.00059846515 0.001445375 0.0012741057
0.011743424 0.00054460694 0.016707217 0.0027083936 0.00112067 0.002299729 0.004569443 0.005089566
0.009078705 0.00033129676 0.011243675 0.011997104 0.00071909704 0.006292955 0.003588548 0.003838009
0.006555919 0.00018078201 0.004699091 0.0017153309 0.00037554724 0.0009300427 0.0025308062 0.0019633234
0.006277101 0.00021659042 0.006813197 0.006569888 0.00045998633 0.0032875203 0.0025675232 0.0026898938
0.0049041673 0.00026195307 0.008824342 0.0015901658 0.0005322348 0.0016568813 0.0021042184 0.0029367667
0.005829406 0.00020293026 0.0059969765 0.0050388942 0.00042704784 0.0026390795 0.0023869139 0.0023713598
0.01704462 0.00056138483 0.016499437 0.017993325 0.0012034059 0.0089533115 0.006291151 0.005936853
0.0020975727 0.00012912317 0.0052500293 0.015861679 0.0002611242 0.007500582 0.0004734212 0.0010135351
0.0033107265 0.000128779 0.0038140866 0.00052223855 0.00026598206 0.0005013742 0.0014250369 0.0014436888
0.0030907458 0.00017348351 0.0070503294 0.01944497 0.0003557378 0.0085473675 0.0007392638 0.0014917918
0.0068187714 0.00020600772 0.006229029 0.008002383 0.0004423636 0.0039323578 0.0026508225 0.0024499763
0.0008420483 2.6522981e-05 0.000816077 0.00012411564 5.438378e-05 0.0001085399 0.00028128223 0.00027029304
0.0039439485 0.00018035492 0.0060283476 0.0032380593 0.0003729392 0.0017606369 0.001556955 0.0019801457
0.0021289552 4.7759047e-05 0.00079310586 0.0005783132 9.463474e-05 0.00021767987 0.0007453009 0.00041397358
0.006033238 0.0001934707 0.004520551 0.001455604 0.00039476415 0.00087502104 0.002280961 0.0018333616
0.0043996084 0.00019928865 0.007019788 0.022376368 0.00039769648 0.00930268 0.0011059815 0.0013557206
0.002896629 9.9825564e-05 0.003147568 0.0034018054 0.00020971899 0.0016838026 0.0011253601 0.0011746729
0.0013220044 3.2052707e-05 0.0004070984 0.00022210811 6.473487e-05 7.841739e-05 0.00041364066 0.0002123462
0.0029829144 0.0001228977 0.00431073 0.004585769 0.00026335882 0.0023443713 0.0011506788 0.0012749822
0.019342594 0.0006814621 0.020208336 0.020150019 0.0014506759 0.010102162 0.0075838864 0.0075015165
0.0015107136 5.9320046e-05 0.0020238026 0.00037223342 0.00012222916 0.00022680241 0.00052475586 0.0007023289
0.0073066624 0.00026972443 0.007398807 0.0014615746 0.000563546 0.001310073 0.0029389188 0.0029305907
0.0016154763 4.743146e-05 0.0012037414 0.0007103768 9.7162214e-05 0.00036175415 0.0006219172 0.0005252711
0.0031418975 8.755357e-05 0.0023006187 0.00072034105 0.00017383439 0.00049110776 0.0012274475 0.0010078397
0.0011387106 4.6262914e-05 0.0013497229 0.00028793115 9.685676e-05 0.00023905089 0.00041476174 0.00044417076
0.005958303 0.00017906971 0.006321691 0.009843686 0.0003894365 0.004715444 0.0022325406 0.002246026
00000000: 4ee5 9139 9747 0d37 5a81 1c39 a5f2 8e38
00000010: 18e3 9237 f7a9 2438 18d2 0239 9ca0 8638
00000020: 32b8 cc3b 52a2 6539 2fcd cb3b 1c8f 373b
00000030: fc56 f439 8e12 da3a b9c8 1c3b 3489 153b
00000040: c85a ef3b e70e 9839 24c2 1d3c a3b9 e13b
00000050: 0e00 223a aaf7 843b 0035 383b dbc5 503b
00000060: d5d0 923b 3558 2139 5990 a43b a00b 9a3b
00000070: 3d12 ab39 768e 293b 2b27 e83a 6547 e53a
00000080: 632d 563c 2834 043a 6fc0 793c 52fc 823c
00000090: 0574 8d3a e6ba 003c e24f aa3b cf85 af3b
000000a0: 34fd 853b db5e 0139 1444 793b 973a 543a
000000b0: 8bef 8139 51e2 1c3a bd72 bd3a e5ff a63a
000000c0: 7e67 403c f4c3 0e3a 93dd 883c 4e7f 313b
000000d0: 72e3 923a 0db7 163b 44bb 953b 60c6 a63b
000000e0: d9be 143c e6b1 ad39 6437 383c 808f 443c
000000f0: c981 3c3a 2235 ce3b d82d 6b3b 1b87 7b3b
00000100: 09d3 d63b 4d90 3d39 d5fa 993b f4d4 e03a
00000110: 19e5 c439 1cce 733a e2db 253b 1aab 003b
00000120: 24b0 cd3b 8c1c 6339 3d41 df3b 3748 d73b
00000130: 522a f139 7073 573b e443 283b ee48 303b
00000140: 23b3 a03b bf56 8939 f993 103c 1c6d d03a
00000150: ac85 0b3a b62b d93a ede6 093b c576 403b
00000160: 9a04 bf3b adc9 5439 4982 c43b 4f1d a53b
00000170: 64e5 df39 68f4 2c3b c56d 1c3b d168 1b3b
00000180: 29a1 8b3c e629 133a d429 873c bd66 933c
00000190: 9abb 9d3a e9b0 123c 0026 ce3b ef89 c23b
000001a0: 6e77 093b 3d65 0739 7008 ac3b 5af0 813c
000001b0: 7fe7 8839 71c7 f53b 8535 f839 98d8 843a
000001c0: c6f8 583b d908 0739 c1f5 793b d6e6 083a
000001d0: 8273 8b39 a76e 033a 4ec8 ba3a 283a bd3a
000001e0: 1c8e 4a3b 20e9 3539 7306 e73b 0f4b 9f3c
000001f0: 5282 ba39 420a 0c3c 27cb 413a 3a88 c33a
00000200: 0070 df3b c703 5839 e21c cc3b 6d1c 033c
00000210: 0aed e739 02db 803b 6cb9 2d3b c88f 203b
00000220: e8bc 5c3a ab7d de37 00ee 553a 0a25 0239
00000230: 241a 6438 ea9f e338 1079 9339 1eb6 8d39
00000240: 3d3c 813b a81d 3d39 7289 c53b 9f35 543b
00000250: 0d87 c339 2cc5 e63a be12 cc3a 55c5 013b
00000260: f185 0b3b e350 4838 6fe8 4f3a f199 173a
00000270: a476 c638 ff40 6439 4c60 433a 980a d939
00000280: 78b2 c53b 65de 4a39 2121 943b f7c9 be3a
00000290: 59f8 ce39 ab61 653a 2d7c 153b 684d f03a
000002a0: 972a 903b 24f8 5039 4006 e63b a54e b73c
000002b0: eb81 d039 456a 183c 95f6 903a 6fb2 b13a
000002c0: 5fd5 3d3b 7159 d138 6e47 4e3b d3f0 5e3b
000002d0: 03e8 5b39 0ab3 dc3a d280 933a 7bf7 993a
000002e0: 1b47 ad3a 5570 0638 d36f d539 b1e5 6839
000002f0: 45c2 8738 0474 a438 e9dd d839 40a9 5e39
00000300: 007d 433b 1ade 0039 0641 8d3b 3844 963b
00000310: 6c13 8a39 06a4 193b 60d2 963a 4e1d a73a
00000320: 5c74 9e3c 26a4 323a f48b a53c a711 a53c
00000330: 9b24 be3a 8a83 253c 4082 f83b 48cf f53b
00000340: 2303 c63a 6ace 7838 c6a1 043b 5328 c339
00000350: a42a 0039 cfd1 6d39 c58f 093a 7f1c 383a
00000360: ba6c ef3b cd69 8d39 b171 f23b 4e92 bf3a
00000370: efba 133a c1b6 ab3a e09a 403b 270f 403b
00000380: 64be d33a 24f1 4638 dcc6 9d3a 9438 3a3a
00000390: 91c3 cb38 d2a9 bd39 2808 233a 59b2 093a
000003a0: 4be8 4d3b f79c b738 fac5 163b 45d5 3c3a
000003b0: 5047 3639 afbd 003a 4ee2 a03a 7d19 843a
000003c0: ca40 953a 6d0a 4238 2fe9 b03a 77f5 9639
000003d0: 941f cb38 bca9 7a39 6174 d939 97df e839
000003e0: de3d c33b a9c4 3b39 3026 cf3b 6947 213c
000003f0: 482d cc39 0384 9a3b d14f 123b 1032 133b

exp_avg f4 [128]
-0.0005179165 -0.003693498 -0.001184723 -0.004560073 -0.0053389794 -0.0022601984 0.004026146 -0.00486342
0.0005865885 -0.005251148 -0.0007099872 -0.004263266 -0.0079149045 0.001119213 -0.00042873534 0.0016333372
-0.0045165797 -0.00053297565 -0.000200369 -0.00040061504 0.0015679313 -0.00046425592 -0.0024714652 -0.0020284369
-0.004084318 -0.0064841053 -0.0011836734 -0.00040186985 0.0007852536 -0.0015436861 -0.00135717 -0.004391457
-0.002780179 -0.0028037908 0.00043835488 -0.001973351 -0.0039543966 0.00033451398 -0.00077184604 -0.0015533569
-0.0022376464 -6.895559e-06 -0.0029044338 -0.0002499646 -0.0056324843 -0.0014932748 -0.003207902 -0.00069656846
5.1950316e-05 -0.0010378037 0.00042421842 -0.003215312 -0.006552235 -0.001420845 0.00057676574 -0.00018621732
-0.00043181272 -0.0026624291 -0.0033832788 -0.004259071 -0.004044596 -0.0036669027 -0.004512462 0.0019515704
-0.003152119 -0.004120282 -0.00092258235 -0.00013866967 -1.5963573e-05 0.0009856747 -0.00077272445 -0.0016194186
0.0001325192 -0.002123419 -0.0051957616 -0.00081358606 0.00093083933 0.00024380884 0.0034360478 -0.0014142258
-0.0073538744 -0.0024606083 -0.00566996 -0.0012802837 -0.0017547208 -0.0008998998 0.001951342 -0.005793326
-0.004305899 -4.125368e-05 -0.0049064364 -0.0061711627 -0.0034590831 -0.008461952 -0.0029819054 -0.0017001749
0.00010994184 -0.0015482326 -0.0070095435 0.0007504417 6.9212045e-05 -0.0005600786 -0.0017925499 -0.0033823578
0.0014111248 0.005229169 -0.008642263 -0.0028208743 -0.0028030025 -0.0016966815 -0.004066125 -0.0018478227
-0.0024027226 -0.0020078747 -0.007271418 -0.00013840939 -0.004463286 0.005538006 -0.003158379 -0.0005081123
-0.005228258 -0.0040564276 -0.0014014585 -0.004483166 0.001957381 0.00063125114 -0.005383581 0.0066845263
00000000: cac4 07ba 9d0e 72bb b548 9bba aa6c 95bb
00000010: 9bf2 aebb d61f 14bb c3ed 833b 535d 9fbb
00000020: 4ac5 193a d211 acbb 6f1e 3aba deb2 8bbb
00000030: 84ad 01bc 8eb2 923a e2c7 e0b9 b415 d63a
00000040: d1ff 93bb 64b7 0bba 251a 52b9 a409 d2b9
00000050: 0b83 cd3a 6067 f3b9 4ef8 21bb 86ef 04bb
00000060: bed5 85bb 9e78 d4bb 7d25 9bba 0fb2 d2b9
00000070: 7ad9 4d3a 8355 caba 12e3 b1ba 36e6 8fbb
00000080: aa33 36bb cebf 37bb ffd2 e539 5653 01bb
00000090: e293 81bb b561 af39 b655 4aba 029a cbba
000000a0: 7aa5 12bb 6760 e7b6 5058 3ebb ae0d 83b9
000000b0: b490 b8bb fdb9 c3ba aa3b 52bb eb99 36ba
000000c0: 3ae5 5938 ea06 88ba a269 de39 fcb7 52bb
000000d0: 22b4 d6bb a63b baba 1832 173a 5543 43b9
000000e0: ec64 e2b9 267c 2ebb 00ba 5dbb ad8f 8bbb
000000f0: 8888 84bb 6b50 70bb 46dd 93bb d6cb ff3a
00000100: c893 4ebb 6e03 87bb 74d9 71ba db67 11b9
00000110: 83e9 85b7 c131 813a a990 4aba ac42 d4ba
00000120: daf4 0a39 0f29 0bbb 3541 aabb d646 55ba
00000130: 9203 743a f0a6 7f39 512f 613b 8b5d b9ba
00000140: c5f8 f0bb 2842 21bb 12cb b9bb 31cf a7ba
00000150: a9fe e5ba 41e7 6bba 2cc4 ff3a f1d5 bdbb
00000160: 8018 8dbb cd07 2db8 2cc6 a0bb 7737 cabb
00000170: c9b1 62bb 00a4 0abc 126c 43bb 67d8 deba
00000180: 9390 e638 11ee caba 50b0 e5bb 4ab9 443a
00000190: ef25 9138 3dd2 12ba fef3 eaba 8caa 5dbb
000001a0: 7ef5 b83a 7359 ab3b 4798 0dbc 6bde 38bb
000001b0: 94b2 37bb 2f63 deba 213d 85bb a432 f2ba
000001c0: ff76 1dbb 8c96 03bb 1345 eebb fd21 11b9
000001d0: c240 92bb 2978 b53b cffc 4ebb d732 05ba
000001e0: cf51 abbb c8eb 84bb 25b1 b7ba 86e7 92bb
000001f0: 6747 003b 8c7a 253a c068 b0bb df09 db3b

exp_avg_sq f4 [128]
3.3683693e-05 0.00087598443 0.0011601121 0.00061548076 0.002017269 0.0004935094 0.0021784278 0.0013251869
0.0007231281 0.00086636166 0.0010478124 0.000811721 0.0022455393 0.0005164927 0.000515116 0.00069393404
0.0008240309 0.00010609194 0.0007214197 0.0001910362 0.0007738828 0.00079715473 0.00039930225 0.00012821083
0.0004915908 0.0027258482 0.00023728018 0.0010788977 0.00018972582 0.00035021428 0.00018505166 0.00071627874
0.0005459851 0.00082913355 0.00019473648 0.00015094169 0.0010626368 0.00046439652 0.0007560182 0.00042353515
0.0003745983 0.00033104705 0.00060596067 8.8454704e-05 0.00072673056 0.00015800147 0.0005085965 0.0005344802
0.00024328321 0.0005167793 0.0002193468 0.00056741043 0.0024493153 7.3015115e-05 0.0006690504 0.0010888589
0.00032807974 0.0006792554 0.0007454986 0.0013102293 0.0007996675 0.00031914553 0.0002957793 0.0010451218
0.00074053823 0.00052222476 0.00038550457 0.0008334233 0.00021486745 0.00033660632 0.00021469784 0.0002086358
0.0006447851 0.0016518313 0.0020217695 0.0005699758 0.0003028072 0.00035107762 0.0005702246 0.00020215847
0.0021271987 0.0011845656 0.0030758814 0.000331625 0.0001260588 0.0002310269 0.00010518707 0.0011540367
0.0007502507 0.0002593751 0.0015620273 0.001702551 0.0010940547 0.0024983187 0.0005689095 6.869931e-05
0.000682066 6.504227e-05 0.0029812336 0.0010599296 0.00016229741 0.0005153633 9.6739765e-05 0.0005776968
0.0006351664 0.0006256333 0.0019891027 0.00023156042 0.0006299777 0.0011980981 0.0005541304 0.00024971206
0.0007665475 0.00029613185 0.0014995406 0.00044559076 0.0004556543 0.0017640917 0.0007630501 0.00030041896
0.0024612804 0.0005221895 0.0001521889 0.0012943918 0.00034007643 0.00016195721 0.0004426277 0.0015088752
00000000: 9747 0d38 52a2 653a e70e 983a 3758 213a
00000010: 2834 043b db5e 013a f4c3 0e3b e5b1 ad3a
00000020: 4e90 3d3a 8c1c 633a c056 893a adc9 543a
00000030: e629 133b 3d65 073a d908 073a 20e9 353a
00000040: c703 583a ad7d de38 a81d 3d3a e450 4839
00000050: 65de 4a3a 26f8 503a 7159 d139 5570 0639
00000060: 1ade 003a 25a4 323b 6ace 7839 cd69 8d3a
00000070: 23f1 4639 f79c b739 6d0a 4239 a7c4 3b3a
00000080: 7120 0f3a 365a 593a 2d32 4c39 1a46 1e39
00000090: 2d48 8b3a 3f7a f339 862f 463a ed0d de39
000000a0: bc65 c439 6290 ad39 55d9 1e3a c280 b938
000000b0: 1082 3e3a 32ad 2539 5553 053a 5c1c 0c3a
000000c0: d719 7f39 7978 073a 7500 6639 45be 143a
000000d0: b184 203b b11f 9938 3663 2f3a 0bb8 8e3a
000000e0: 1e02 ac39 0f10 323a 906d 433a 00bc ab3a
000000f0: c7a0 513a fd52 a739 d312 9b39 78fc 883a
00000100: ae20 423a e9e5 083a 8c1d ca39 177a 5a3a
00000110: 0b4e 6139 897a b039 8320 6139 3fc5 5a39
00000120: cc06 293a 4382 d83a aa7f 043b 6e6a 153a
00000130: 18c2 9e39 d710 b839 207b 153a 80fa 5339
00000140: 7968 0b3b 6d43 9b3a ba94 493b f4dd ad39
00000150: a72e 0439 d03f 7239 e197 dc38 0c43 973a
00000160: 79ac 443a bdfc 8739 f0bc cc3a 2228 df3a
00000170: 6266 8f3a d5ba 233b df22 153a a912 9038
00000180: adcc 323a 4e67 8838 cd60 433b 56ed 8a3a
00000190: 612e 2a39 7219 073a c4e0 ca38 9370 173a
000001a0: 4c81 263a 8a01 243a 9b5b 023b 07cf 7239
000001b0: 1625 253a 8009 9d3a 1043 113a c9eb 8239
000001c0: 22f2 483a 2542 9b39 3c8c c43a 2e9e e939
000001d0: e3e4 ee39 1839 e73a 6d07 483a 8d81 9d39
000001e0: 6f4d 213b 8be3 083a e694 1f39 95a8 a93a
000001f0: 494c b239 0fd3 2939 7c10 e839 73c5 c53a
