FinalProject/results/Zombie/Zombie/Zombie-5817.onnx (onnx, 76122 bytes, 7 tensors)

network_body._body_endoder.seq_layers.0.weight f4 [128, 8]
-0.34298977 -0.11706339 0.29154694 0.18492705 -0.14062612 0.16666934 -0.18621671 0.020454666
0.20391749 -0.13754897 -0.30883276 0.0958613 0.33231878 -0.09852024 -2.5676442e-05 -0.59996176
0.16749834 0.06693159 -0.13915779 0.06991278 -0.51285285 -0.078192666 0.42066136 -0.4335324
0.27323472 -0.07366109 -0.66966236 -0.5786163 0.04956295 -0.59435976 0.104376696 -0.004054301
-0.46492958 0.27185553 -0.27759397 0.36863962 -0.061650228 -0.4212489 0.45318606 0.5822435
-0.26708815 0.2825985 0.17473786 0.3084777 -0.46272796 -0.11285897 -0.2412572 -0.012518882
0.18475293 0.0020825115 0.049433406 0.38073245 0.2656025 -0.19052047 0.012110051 0.15431575
0.18329988 1.1907909 -0.17746168 -0.07536514 0.36603454 -0.53252447 -0.17975637 -0.37166107
0.15180603 0.14137602 -0.014597 0.3796722 -0.14399137 -0.39373994 -0.42377758 -0.11569754
0.13775724 -0.11269374 -0.108802624 -0.078401886 0.049157526 0.46163446 -0.8368396 0.35089874
-0.23121417 0.33919778 -0.24105778 -0.32234588 -0.14688462 -0.20445588 0.084018536 0.3056454
-0.27247742 -0.07911086 0.18550155 0.1092936 -0.0028718968 0.17620115 0.7417025 0.555047
-0.44084734 0.21197435 -0.13893734 -0.3128159 -0.02807622 0.32206836 0.31069407 -0.030074613
0.6446194 -0.4017216 0.23262078 0.97407883 -0.00894245 -0.26928017 0.5367338 0.07174313
-0.38394436 -0.21261917 0.22902735 0.23515052 -0.8416349 -0.5719461 -0.2471471 -0.22962205
-0.42770234 -0.018486906 0.16991769 0.32175976 -0.47246045 -0.10397952 0.1974378 0.19205828
0.14755918 -0.32999244 0.25260758 -0.26134595 0.03614381 0.18790905 -0.0130786905 0.5603549
-0.52942324 0.121566065 0.047322575 -0.5461394 0.40681028 0.72213924 0.005086315 0.49199492
0.0065812883 0.13199052 -0.18810706 0.038601715 -0.04955941 0.48573893 -0.1344369 -0.4255016
-0.06247497 0.208077 0.4004584 0.5715083 0.16004845 -0.4018746 0.24282591 -0.20242734
0.27092427 -0.7551218 -0.64024997 0.16313343 0.05548933 0.26724142 -0.02858135 -0.681903
0.57999605 0.200884 -0.22294226 -0.39664426 -0.052398123 0.16017246 -0.42999616 -0.16865934
0.18824248 -0.07938887 0.17965849 -0.11392033 0.14471057 0.061220203 -0.060761705 0.15669134
-0.32479823 -0.49401367 -0.2785081 -0.36924595 -0.21450244 0.4116432 0.22656031 0.10629972
0.11332127 0.09017377 0.127272 0.55790484 0.2338914 -0.5719207 -0.053078692 -0.5622884
-0.1195036 0.13671379 -0.094578475 -0.14841555 0.40510082 0.10169819 -0.19906467 -0.10454235
-0.6497247 -0.26770094 0.029908255 -0.086543694 -0.2522481 -0.39323786 0.003954441 0.38574943
0.7012963 0.68593526 -0.02899813 -0.2264891 -0.039793577 -0.22581673 0.27403334 -0.32107422
0.14607185 -0.13779709 0.32952508 -0.13008192 -0.12704383 0.10714779 0.16070549 0.5232678
-0.12928534 0.12760684 0.3922341 0.27699462 -0.40742388 -0.243245 0.12493657 -0.2356646
-0.14745839 -0.3378048 -0.45852086 -0.043946497 0.40045252 0.13356 -0.1843731 -0.3066894
0.404455 0.12798502 0.37723407 -0.37895784 0.28825793 0.13027793 -0.7021426 0.33440232
00000000: 5b9c afbe eebe efbd a445 953e 845d 3d3e
00000010: 4b00 10be 5eab 2a3e 98af 3ebe 8b90 a73c
00000020: bfcf 503e a3d9 0cbe 541f 9ebe ee52 c43d
00000030: b025 aa3e fbc4 c9bd bd63 d7b7 1897 19bf
00000040: af84 2b3e 6e13 893d 617f 0ebe 6e2e 8f3d
00000050: 534a 03bf 7a23 a0bd ed60 d73e f5f7 ddbe
00000060: 6ce5 8b3e a0db 96bd fe6e 2bbf 3320 14bf
00000070: 8502 4b3d f627 18bf 73c3 d53d f1d9 84bb
00000080: 400b eebe a630 8b3e cc20 8ebe 55be bc3e
00000090: f384 7cbd f0ad d7be 0108 e83e e90d 153f
000000a0: c7bf 88be c0b0 903e 7bee 323e caf0 9d3e
000000b0: aeea ecbe 9b22 e7bd 210c 77be ff1b 4dbc
000000c0: df2f 3d3e bf7a 083b af7a 4a3d 5def c23e
000000d0: 0dfd 873e cc17 43be 3c69 463c f304 1e3e
000000e0: f7b2 3b3e d66b 983f 84b8 35be 0a59 9abd
000000f0: e168 bb3e 8653 08bf 0e12 38be 5c4a bebe
00000100: 0a73 1b3e e0c4 103e 4128 6fbc 6564 c23e
00000110: 7972 13be 4898 c9be 60f9 d8be d5f2 ecbd
00000120: 3c10 0d3e facb e6bd e9d3 debd 2b91 a0bd
00000130: 6759 493d 5a5b ec3e 1f3b 56bf 00a9 b33e
00000140: 68c3 6cbe 55ab ad3e dad7 76be 850a a5be
00000150: ec68 16be e25c 51be e911 ac3d 8e7d 9c3e
00000160: 2982 8bbe e004 a2bd 1ef4 3d3e 53d5 df3d
00000170: 6f36 3cbb 136e 343e 37e0 3d3f 8f17 0e3f
00000180: beb6 e1be ce0f 593e 9745 0ebe 6829 a0be
00000190: 1a00 e6bc 25e6 a43e 4b13 9f3e 095f f6bc
000001a0: c705 253f 74ae cdbe 2434 6e3e 3b5d 793f
000001b0: 5b83 12bc 17df 89be 6367 093f 10ee 923d
000001c0: 5b94 c4be d7b8 59be 2586 6a3e 4ccb 703e
000001d0: 6375 57bf 0f6b 12bf 2114 7dbe 0b22 6bbe
000001e0: cdfb dabe da71 97bc e7fe 2d3e b2bd a43e
000001f0: 56e6 f1be 37f3 d4bd 222d 4a3e edaa 443e
00000200: c119 173e c5f4 a8be c855 813e 23cf 85be
00000210: 880b 143d 3b6b 403e 0148 56bc 6b73 0f3f
00000220: 4888 07bf a1f7 f83d 51d5 413d cbcf 0bbf
00000230: 7049 d03e 1ede 383f 1aab a63b c2e6 fb3e
00000240: d9a7 d73b 8628 073e 239f 40be d51c 1e3d
00000250: cffe 4abd c6b2 f83e d4a9 09be 59db d9be
00000260: c1e5 7fbd 2312 553e e208 cd3e 5e4e 123f
00000270: bee3 233e 82c2 cdbe 5ba7 783e 1d49 4fbe
00000280: 96b6 8a3e aa4f 41bf 6ce7 23bf 730c 273e
00000290: c848 633d ded3 883e 6f23 eabc 3291 2ebf
000002a0: 9f7a 143f 89b4 4d3e fa4a 64be f514 cbbe
000002b0: 6a9f 56bd 4004 243e 7528 dcbe 09b5 2cbe
000002c0: a3c2 403e a296 a2bd 65f8 373e 104f e9bd
000002d0: 022f 143e 09c2 7a3d 44e1 78bd b273 203e
000002e0: f44b a6be 5cef fcbe 9d98 8ebe ce0d bdbe
000002f0: 87a6 5bbe e6c2 d23e 6dff 673e abb3 d93d
00000300: fb14 e83d 07ad b83d 9753 023e dad2 0e3f
00000310: 3a81 6f3e 6569 12bf 0b69 59bd 22f2 0fbf
00000320: 4ebe f4bd b3fe 0b3e 5cb2 c1bd 3ffa 17be
00000330: 6069 cf3e 2447 d03d 9cd7 4bbe 4d1a d6bd
00000340: 5c54 26bf 1910 89be 2802 f53c d23d b1bd
00000350: aa26 81be 7956 c9be 4194 813b f380 c53e
00000360: 2888 333f 7499 2f3f 7c8d edbc c2ec 67be
00000370: 97fe 22bd 803c 67be 194e 8c3e d763 a4be
00000380: dc93 153e ae1a 0dbe 83b7 a83e 3234 05be
00000390: c717 02be 4d70 db3d fb8f 243e e1f4 053f
000003a0: 6063 04be 5eab 023e e8d2 c83e 3dd2 8d3e
000003b0: dd99 d0be 3815 79be bfde ff3d 1052 71be
000003c0: 55ff 16be c0f4 acbe 3fc3 eabe 3e01 34bd
000003d0: 1d08 cd3e f4c3 083e 4dcc 3cbe 6506 9dbe
000003e0: ba14 cf3e 810e 033e d324 c13e c306 c2be
000003f0: 8b96 933e 9467 053e 9ebf 33bf c836 ab3e

network_body._body_endoder.seq_layers.0.bias f4 [128]
0.008598556 -0.00010733258 -0.0037490611 -0.008459304 0.0052811373 -0.01138885 -5.379262e-14 0.00082997535
-8.054612e-06 -0.0079803355 0.004377054 -0.00795009 -0.010900892 0.0 0.002183741 -0.011094573
-0.007289433 -0.021523206 -0.010704641 0.003450704 0.0 -0.009317509 0.016859895 -0.005146479
-0.0013080303 -0.021863883 -0.011524662 0.00110961 -0.016991887 0.006996372 -0.011294925 0.00078383344
-0.009906309 0.00052734173 -4.4936184e-23 -0.008964088 -0.00386253 -0.011808184 -0.0029380245 -0.0006270503
-0.0068909517 -0.0016591327 0.013450808 0.0049766568 0.0006329901 -0.0023669738 -0.012962059 -0.004856891
4.449738e-09 0.0081912065 0.0047243326 0.0026784225 0.002734784 6.42658e-16 -0.0057979273 0.0042611314
0.00585528 0.0012650328 0.007207337 -0.012882359 -0.01731535 8.409943e-06 -4.071664e-09 -0.00021621211
-0.0055739884 0.0022964585 -0.011058646 0.01652768 -0.005952902 0.0013891973 -1.0832042e-34 -0.005879679
-3.535811e-16 -0.0048059267 0.0026994664 -0.018103754 -0.012049583 -0.008801672 0.0033030272 -0.012760427
-0.00060366216 0.0026426842 0.008384457 -2.6960973e-34 -0.0037781575 -0.0031031307 -2.5776206e-05 -0.021252017
-0.0031673715 -0.00078654866 -0.0072791465 0.0 -0.00036397862 0.037918765 0.003406629 -0.0058202823
0.0037818346 -0.00983074 -0.009994643 -1.449364e-07 -0.009101368 -0.00075570715 -0.0062300703 2.564473e-10
-0.00032584506 -0.01193723 0.00405525 -0.0008955627 0.004118689 2.8698312e-05 0.011082941 -2.2659583e-14
-0.010510483 -8.653913e-18 -0.0055770525 -0.012175938 0.0019923828 0.0019110307 -0.00094806426 -0.011689969
0.0030206684 -0.00818489 -0.0015005128 -0.00579222 -0.02917155 -0.005006384 -0.0071010953 0.007674265
00000000: f5e0 0c3c bd17 e1b8 cfb2 75bb e598 0abc
00000010: 640d ad3b 4d98 3abc ab42 72a9 b492 593a
00000020: 4c22 07b7 f4bf 02bc 646d 8f3b 1841 02bc
00000030: a899 32bc 0000 0000 181d 0f3b 03c6 35bc
00000040: 32dc eebb 6f51 b0bc 8562 2fbc 3525 623b
00000050: 0000 0000 77a8 18bc c31d 8a3c cba3 a8bb
00000060: 3772 abba e31b b3bc f0d1 3cbc 5570 913a
00000070: 9232 8bbc d241 e53b 590e 39bc 2c7a 4d3a
00000080: 124e 22bc 4e3d 0a3a 4d4c 599a 1cde 12bc
00000090: 8022 7dbb 1d77 41bc df8b 40bb a260 24ba
000000a0: 7ecd e1bb 4177 d9ba c760 5c3c 3913 a33b
000000b0: 3fef 253a 3b1f 1bbb d15e 54bc 8e26 9fbb
000000c0: 4fe4 9831 6934 063c 93ce 9a3b 7988 2f3b
000000d0: 103a 333b ca3b 3926 8afc bdbb f6a0 8b3b
000000e0: a6dd bf3b 75cf a53a 862b ec3b 8810 53bc
000000f0: ecd8 8dbc 6e18 0d37 bce6 8bb1 ffb6 62b9
00000100: 01a6 b6bb 2e80 163b 532f 35bc 0f65 873c
00000110: 9010 c3bb ba15 b63a 87fb 0f87 53aa c0bb
00000120: 5cd3 cba5 097b 9dbb 88e9 303b 534e 94bc
00000130: 9d6b 45bc e334 10bc 9a77 583b 1c11 51bc
00000140: 153f 1eba e230 2d3b f65e 093c b82f b387
00000150: f79a 77bb e55d 4bbb fb39 d8b7 b618 aebc
00000160: ad93 4fbb 6330 4eba e885 eebb 0000 0000
00000170: 62d4 beb9 b550 1b3d c041 5f3b 11b8 bebb
00000180: a8d8 773b 1d11 21bc 92c0 23bc d09f 1bb4
00000190: e71d 15bc a61a 46ba 9e25 ccbb c0fb 8c2f
000001a0: 2fd6 aab9 5f94 43bc e7e1 843b 32c4 6aba
000001b0: 11f6 863b 28bd f037 3995 353c 7119 cca8
000001c0: 2934 2cbc f3a2 1fa3 b5bf b6bb 967d 47bc
000001d0: a392 023b 8d7b fa3a 8487 78ba 4987 3fbc
000001e0: 68f6 453b eb19 06bc dbac c4ba aacc bdbb
000001f0: 2df9 eebc 980c a4bb 4eb0 e8bb 6778 fb3b

network_body._body_endoder.seq_layers.2.weight f4 [128, 128]
-0.0131833125 -0.026851194 -0.002660219 0.056137133 0.07854428 -0.13028783 -0.18456848 0.07465024
0.0009903396 -0.061436735 -0.08506156 0.012806063 0.050201908 -0.04086136 -0.008529542 -0.05051147
-0.09825246 0.028864594 -0.16349328 -0.091814704 -0.052642077 -0.03258545 0.028627405 0.09525955
0.20035818 0.09600379 0.0017177756 -0.008388062 0.084843725 0.0033478758 0.13254218 0.039776392
-0.14052641 0.034945622 -0.17711924 -0.012956458 -0.06831629 0.0206798 0.023525923 -0.067861244
0.097627446 -0.025346426 -0.03321786 -0.13869137 0.025491077 0.0353277 -0.052939992 -0.09850389
0.054421864 -0.04416829 -0.03618201 -0.03207928 -0.145875 -0.18038337 0.17083333 -0.16305193
0.08438718 -0.063937224 -0.13741793 0.07162542 0.09115758 -0.05648646 -0.0060649854 0.0103626335
0.025696823 0.04899994 0.045706656 -0.09331713 -0.015202979 -0.012206042 -0.07611967 0.1068973
-0.021251617 0.028246906 0.038535394 0.1964291 -0.0075808996 -0.035932828 -0.15994029 0.1312561
-0.11762615 -0.094158344 -0.011624473 0.03331876 0.038210005 0.056850217 0.07462045 -0.015018166
0.061804358 0.0011204374 -0.04952843 0.06719021 0.02733521 0.15051222 -0.17997019 -0.11047472
-0.11752707 -0.02011642 0.08870597 -0.03049935 0.13897811 0.10128305 0.075104475 -0.10800697
-0.06309778 0.014220607 0.014525747 0.05219192 -0.009211491 0.22396712 -0.018957611 0.20687297
0.03087629 -0.06493602 -0.16049765 0.0054300213 0.04324425 -0.06875825 0.07117234 0.04894948
-0.04058893 0.04062737 0.03492427 -0.0005678942 0.069750465 -0.05011203 -0.11049777 -0.04044221
-0.006634969 -0.0066681392 0.00036365906 -0.044010125 0.020156989 0.03186812 -0.05320394 -0.028542997
0.004576167 0.08301994 -0.044752367 -0.05088681 0.022088598 0.10821265 0.069228135 0.046096038
0.13414533 0.009185173 0.044568483 -0.0962396 0.065556064 -0.0042765755 0.111074306 -0.15671436
0.079873934 0.018458368 -0.06545524 0.028046206 0.0233689 -0.13829634 -0.032647416 0.07500761
0.06599041 0.14668843 0.045473497 -0.023156503 0.2902232 0.037787903 -0.083614334 -0.00028076963
0.008814175 0.12700647 0.02917665 0.02966611 -0.02422383 0.07119191 -0.091450684 -0.008823004
0.020396179 -0.06691214 0.12908919 -0.10771613 0.09470299 0.10696 0.047520217 -0.04606752
-0.003171929 0.1787762 -0.09430374 0.0753768 0.07638376 -0.12002462 -0.14258718 -0.2057305
-0.06094953 0.15439314 -0.02025057 -0.003960272 0.091824405 -0.065738164 -0.04455988 0.037682265
-0.0072032576 -0.060295857 0.059782844 -0.07135209 0.007740255 0.08548812 0.04143287 -0.13519518
0.00872684 -0.018468004 -0.083117045 0.106254466 -0.0025945262 -0.03603122 0.13814121 0.026811598
0.06391858 0.015914282 -0.046919223 -0.18769805 -0.104557626 -0.009736893 -0.107767865 0.010367518
0.07185808 -0.12191491 -0.048688546 0.03192194 -0.03540567 -0.0014680572 -0.004332595 -0.262408
0.10169869 0.011416222 0.010681194 -0.02689904 -0.10346179 0.03589524 -0.035777923 0.0057892394
-0.04168674 -0.056751467 0.041757613 0.11295618 -0.12706517 -0.012302684 0.018448729 0.01762478
-0.09737012 -0.070867114 -0.15567341 -0.043798074 0.12447433 -0.040180895 0.14801069 -0.09784879
00000000: d2fe 57bc 09f7 dbbc 1257 2ebb 0df0 653d
00000010: d3db a03d 2c6a 05be 85ff 3cbe 3ae2 983d
00000020: 48ce 813a 16a5 7bbd c134 aebd 85d0 513c
00000030: 84a0 4d3d 3e5e 27bd 7ebf 0bbc 1de5 4ebd
00000040: 9638 c9bd 7175 ec3c c86a 27be 5909 bcbd
00000050: 389f 57bd 5278 05bd 0584 ea3c 7017 c33d
00000060: b22a 4d3e a39d c43d fc26 e13a 156e 09bc
00000070: 8cc2 ad3d 0968 5b3b 23b9 073e 92ec 223d
00000080: 28e6 0fbe 2423 0f3d bf5e 35be 5347 54bc
00000090: 69e9 8bbd af68 a93c 70b9 c03c d6fa 8abd
000000a0: e6f0 c73d 4fa3 cfbc 730f 08bd 1c05 0ebe
000000b0: aad2 d03c c7b3 103d 9bd7 58bd 68bc c9bd
000000c0: 76e9 5e3d cfe9 34bd 9633 14bd 9065 03bd
000000d0: 4260 15be 6bb6 38be efee 2e3e 16f7 26be
000000e0: 30d3 ac3d 85f1 82bd 49b7 0cbe 59b0 923d
000000f0: d3b0 ba3d 595e 67bd c9bc c6bb 09c8 293c
00000100: 2582 d23c 29b4 483d e736 3b3d 0d1d bfbd
00000110: ea15 79bc dafb 47bc a1e4 9bbd f9ec da3d
00000120: df17 aebc 0e66 e73c 4ad7 1d3d b624 493e
00000130: 3269 f8bb 4d2e 13bd 63c7 23be 0068 063e
00000140: fbe5 f0bd 17d6 c0bd 9374 3ebc 4179 083d
00000150: 1882 1c3d c6db 683d 9bd2 983d c10e 76bc
00000160: 9126 7d3d a4db 923a 53de 4abd 059b 893d
00000170: 17ee df3c e01f 1a3e 1b4a 38be 9240 e2bd
00000180: 08b2 f0bd 31cb a4bc 7aab b53d c6d9 f9bc
00000190: 4750 0e3e 7d6d cf3d 60d0 993d c232 ddbd
000001a0: 6939 81bd 8cfd 683c 66fd 6d3c 32c7 553d
000001b0: cbeb 16bc a357 653e fe4c 9bbc 82d6 533e
000001c0: 46f0 fc3c 2dfd 84bd 7f59 24be 52ee b13b
000001d0: e220 313d 20d1 8cbd cec2 913d 407f 483d
000001e0: 9440 26bd e368 263d c00c 0f3d bcde 14ba
000001f0: 55d9 8e3d 4642 4dbd a84c e2bd bba6 25bd
00000200: 276a d9bb 6880 dabb 7ea9 be39 f643 34bd
00000210: 4520 a53c 2588 023d 60ec 59bd 01d3 e9bc
00000220: acf3 953b 5c06 aa3d 424e 37bd b06e 50bd
00000230: 26f3 b43c 989e dd3d 7bc7 8d3d 33cf 3c3d
00000240: 655d 093e 687d 163c 718d 363d 4419 c5bd
00000250: 4242 863d 8422 8cbb ed7a e33d bb79 20be
00000260: f294 a33d 0136 973c 660d 86bd 28c1 e53c
00000270: 2370 bf3c 8e9d 0dbe 4cb9 05bd 979d 993d
00000280: fb25 873d 7e35 163e 6b42 3a3d b5b2 bdbc
00000290: 2398 943e 7dc7 1a3d fe3d abbd 4334 93b9
000002a0: 5469 103c fc0d 023e df03 ef3c 5806 f33c
000002b0: 0e71 c6bc 10cd 913d 7f4a bbbd 5c8e 10bc
000002c0: e315 a73c 3b09 89bd f52f 043e 469a dcbd
000002d0: a4f3 c13d d80d db3d 8fa4 423d 4cb1 3cbd
000002e0: 23e0 4fbb 1c11 373e 5222 c1bd 275f 9a3d
000002f0: 176f 9c3d 78cf f5bd 6002 12be 04ab 52be
00000300: 37a6 79bd 3c19 1e3e 86e4 a5bc 2bc5 81bb
00000310: 6f0e bc3d bba1 86bd 6c84 36bd b858 1a3d
00000320: 4e09 ecbb caf8 76bd dbde 743d 0b21 92bd
00000330: f7a1 fd3b 6514 af3d 83b5 293d 9b70 0abe
00000340: 05fb 0e3c 364a 97bc 4539 aabd f19b d93d
00000350: ed08 2abb 7995 13bd e474 0d3e ffa3 db3c
00000360: bfe7 823d ab5e 823c 5f2e 40bd eb33 40be
00000370: 4f22 d6bd 7d87 1fbc 66b5 dcbd 86dc 293c
00000380: 542a 933d 86ae f9bd a46d 47bd 95c0 023d
00000390: 8905 11bd d36b c0ba 71f8 8dbb 575a 86be
000003a0: 6747 d03d 1b0b 3b3c 2d00 2f3c 605b dcbc
000003b0: c6e3 d3bd e306 133d df8b 12bd a9b3 bd3b
000003c0: b7bf 2abd 3a74 68bd 080a 2b3d 9255 e73d
000003d0: 5f1d 02be 3291 49bc ca21 973c d861 903c
000003e0: fc69 c7bd c722 91bd da68 1fbe 9c65 33bd
000003f0: 66ec fe3d b994 24bd 1d90 173e f264 c8bd

network_body._body_endoder.seq_layers.2.bias f4 [128]
-0.011005143 -0.0014631839 -0.0072085103 -0.014704833 -0.0032512522 0.001987009 -0.0056830514 0.00525404
-0.0027069822 6.144904e-13 -0.0103820395 -0.0039785807 8.6537425e-29 -0.01012376 -0.0014506615 -0.0011104767
0.00013306117 3.3378662e-06 -0.0048211846 -0.0029216928 0.0048036096 -0.0027038518 -0.009547072 -0.009152136
0.00656849 0.004314343 0.0016710676 -0.0075238063 -0.0016431301 -1.7908584e-34 -0.0058802404 0.0048955823
-5.5118833e-17 -0.0044724727 0.0039461358 -0.010991521 -0.0047046645 -1.2750862e-05 -1.7848172e-23 -0.0051950826
0.005829033 -0.0034129473 5.430964e-09 1.2781138e-09 -8.650652e-20 -0.0014815737 -0.0035173357 0.0
0.0042949636 0.0 6.677617e-12 -0.0036284586 0.0030408234 -0.0019753173 -4.296613e-08 0.0063033695
0.006162911 -8.333346e-12 0.005214944 -0.011296717 -5.7277364e-14 -0.0013558274 -0.009164215 -0.020636784
-0.0057152635 -0.002027425 -0.009541729 -0.0009883184 0.0032050163 -0.0017735537 1.6184995e-34 -1.0962197e-05
8.958086e-21 -1.9126909e-24 -0.0007284328 0.00207897 4.429506e-22 -2.5704157e-15 -0.0002848688 -0.0070155053
0.00057956146 0.0023063293 -0.0033684545 -0.00012195072 -0.013771282 -0.0052826507 -0.007841659 -0.0007582051
-0.0021766394 -0.010141286 -0.006717964 -0.0054969285 -0.0067865564 -0.011735687 -0.00995838 0.0006791175
-0.0023536703 0.004228442 -0.010635329 -0.0003756353 -0.0049826526 -0.006164147 1.2101268e-06 -1.4046913e-21
-0.0063544097 -0.010795123 -0.0015174645 -0.0020040812 5.941167e-08 -0.0010095623 0.00019164864 0.00582953
-0.0069803284 -0.008766343 0.0049419203 4.5659673e-30 -0.00559948 0.0029162576 0.0019688595 -0.007636073
0.003101188 0.004342571 5.8554466e-08 -0.0035925903 -4.1878505e-16 -0.0020814682 -0.0006367407 -7.472721e-06
00000000: ea4e 34bc 4ec8 bfba 5e35 ecbb 8aec 70bc
00000010: f612 55bb 7b38 023b e438 babb 152a ac3b
00000020: a067 31bb b3f6 2c2b 6e19 2abc c15e 82bb
00000030: 0066 db10 21de 25bc 1f24 beba 6a8d 91ba
00000040: 5686 0b39 1b00 6036 07fb 9dbb df79 3fbb
00000050: 9967 9d3b 1b33 31bb 536b 1cbc d7f2 15bc
00000060: 7d3c d73b 555f 8d3b b907 db3a 438a f6bb
00000070: 4c5e d7ba c10b 6e87 08af c0bb 1f6b a03b
00000080: d530 7ea4 d28d 92bb 964e 813b c815 34bc
00000090: 9629 9abb 89ec 55b7 ef9d ac99 833b aabb
000000a0: 7901 bf3b c1ab 5fbb 449b ba31 a2a9 af30
000000b0: fc41 cc9f 5d31 c2ba 1a83 66bb 0000 0000
000000c0: c4bc 8c3b 0000 0000 a0f2 ea2c 6fcb 6dbb
000000d0: 8d48 473b 5374 01bb c289 38b3 7f8c ce3b
000000e0: 3ff2 c93b 0e9a 12ad 1fe2 aa3b de15 39bc
000000f0: 27fa 80a9 05b6 b1ba 8125 16bc 790e a9bc
00000100: 1b47 bbbb 8cde 04bb ea54 1cbc 768a 81ba
00000110: 400b 523b 9676 e8ba af22 5707 47ea 37b7
00000120: a536 291e bffc 1398 4cf4 3eba 543f 083b
00000130: a5df 051c cd37 39a7 715a 95b9 53e2 e5bb
00000140: b6ed 173a c925 173b 4ac1 5cbb cbbf ffb8
00000150: f1a0 61bc 161a adbb 4d7a 00bc 48c2 46ba
00000160: f3a5 0ebb a327 26bc 5e22 dcbb 941f b4bb
00000170: c361 debb 0a47 40bc 7928 23bc ce06 323a
00000180: 0940 1abb be8e 8a3b ce3f 2ebc ebf0 c4b9
00000190: 8545 a3bb 9dfc c9bb a46b a235 5d45 d49c
000001a0: a738 d0bb 07de 30bc a9e5 c6ba e756 03bb
000001b0: d22b 7f33 4a53 84ba 4af5 4839 a405 bf3b
000001c0: 3dbb e4bb b5a0 0fbc d5ef a13b b737 b90e
000001d0: d87b b7bb af1e 3f3b fb07 013b 0638 fabb
000001e0: 4d3d 4b3b 204c 8e3b 517d 7b33 aa71 6bbb
000001f0: c469 f1a5 3e69 08bb f2ea 26ba 2fbe fab6

action_model._continuous_distribution.log_sigma f4 [1, 2]
0.112615556 0.07004521
00000000: fca2 e63d dd73 8f3d

action_model._continuous_distribution.mu.weight f4 [2, 128]
-0.021552166 0.019219747 0.0064387666 0.0020103126 -0.0024124242 0.004405019 0.0019766935 0.018226195
0.0104026655 -0.004634843 0.00067070755 -0.010222233 -0.0011058985 -0.00015633513 -0.020840583 0.0072664265
-0.00021300006 -0.017269347 0.011873819 0.020163933 0.007926261 0.0011041376 0.00046509024 0.0051402724
0.017795429 0.012217163 -0.021701714 -0.010043747 0.00386928 0.013075379 -0.0073326146 0.02491095
-0.0025680864 -0.008733223 0.004634198 -0.019374127 0.0026427626 0.01932009 -0.002334825 0.009969622
0.014938676 -0.00034323128 -0.025159338 -0.015575676 0.02130541 0.013888362 0.019554827 -0.018696986
0.023493288 -0.012351301 0.017197592 -0.02327826 0.009869743 0.0050701275 -0.00038612334 0.013650502
0.025189338 -0.0030119328 0.00991189 -0.0017099458 0.050762564 0.01782804 -0.013201435 0.0022224076
0.009354729 -0.023329835 0.00033650803 0.004934415 0.006392982 0.02716569 -0.012598355 -0.0011217963
0.024501033 -0.0054621333 -0.0012189824 0.023503087 -0.0018951839 -0.027163232 0.011651809 -0.014437633
0.0072739124 0.038854007 -0.024737876 0.014685508 -0.021831825 0.028701931 -0.0020677706 0.009360051
-0.0036084438 0.005106239 0.007605363 -0.028583786 0.020320054 -0.009430222 -0.0058567575 0.015838105
-0.014647429 0.032001052 -0.0027555258 0.01007918 0.0052719763 -0.007374103 -0.007907665 0.002730699
0.016158432 -0.018193373 -0.0060275644 -0.016790563 0.0081604775 -0.009123371 -0.00252764 0.018364787
-0.0039099916 0.030532151 0.041565258 0.008728549 0.01201549 0.014310535 0.02617812 -0.01198424
0.00237708 0.006882492 -0.009004173 -0.014061854 -0.010362299 -0.03078278 0.015094292 -0.0022879115
-0.031078203 -0.0052731712 -0.016434647 -0.0010309102 -0.005310438 0.017909933 -0.016205661 0.006557906
0.006084903 -0.008757797 0.00064696826 0.014127613 0.008030081 -0.004883903 0.0041435612 0.004412916
0.002292908 -0.007709889 0.014633997 0.0069633913 0.032940343 0.009381608 -0.0023158172 0.00041040505
0.043060504 0.01792821 0.011318636 -0.010013905 0.011154693 0.006794995 0.013302169 0.012550336
-0.0029151747 0.013460937 0.038202256 -0.02247702 0.013922379 0.0093765175 0.010707918 -0.008979872
0.030027917 0.007690651 0.016694833 -0.00044184653 -0.009279297 0.004216713 0.0008266638 0.00022396898
0.012300971 0.011046323 -0.0069659213 0.0033839655 0.013986224 -0.0033951248 -0.019665167 0.023965845
0.015722644 0.019466994 0.00524222 -0.007100016 0.009950067 -0.00086976436 0.0052745407 0.0039035438
0.001898077 -0.0061304416 0.003985565 0.011548974 0.019160163 -0.010480064 0.0038698178 -0.0057346844
-0.0075351964 0.0089944415 0.015533373 -0.0037576985 -0.008973221 0.049955994 -0.014821892 -0.017642856
-0.013910506 0.0017018559 0.021802489 0.005356022 -0.014662418 0.004885621 0.0067390003 0.009192519
0.0056932303 -0.015552005 -0.008308095 -0.0038268855 0.0055175056 -0.011291304 -0.00059795956 0.032015044
-0.006099746 0.016425928 0.0007439036 -0.030066751 -0.027894685 -0.0074035106 -0.01638911 0.0060275146
-0.027572013 -0.003369201 0.012215265 -0.008486985 -0.005632372 0.01845807 -0.04166755 0.017437685
-0.008337858 -0.007990945 0.013417029 0.0037270815 -0.020414574 0.004231112 -0.0011195202 0.0071647344
0.019919896 -0.015501743 0.0064473497 0.009994973 0.006917339 0.004333891 -0.001284018 -0.0017181449
00000000: 2b8e b0bc bb72 9d3c 4afc d23b 73bf 033b
00000010: c319 1ebb fa57 903b 6a8b 013b 1a4f 953c
00000020: f16f 2a3c e2df 97bb 6cd2 2f3a 277b 27bc
00000030: ccf3 90ba e4ed 23b9 dfb9 aabc 341b ee3b
00000040: c558 5fb9 7278 8dbc 688a 423c d52e a53c
00000050: 26dd 013c b6b8 903a 5bd7 f339 bb6f a83b
00000060: b8c7 913c 7f2a 483c cbc7 b1bc 878e 24bc
00000070: bf93 7d3b 1d3a 563c 6e46 f0bb 0c12 cc3c
00000080: 574d 28bb cb15 0fbc 78da 973b 7db6 9ebc
00000090: 3332 2d3b 2a45 9e3c dd03 19bb a057 233c
000000a0: 59c1 743c b9f3 b3b9 f51a cebc 1f31 7fbc
000000b0: af88 ae3c 038c 633c 7231 a03c 6c2a 99bc
000000c0: ff74 c03c 1c5d 4abc f7e1 8c3c 0db2 bebc
000000d0: b4b4 213c 5023 a63b 9970 cab9 5ba6 5f3c
000000e0: df59 ce3c d963 45bb 7b65 223c 4320 e0ba
000000f0: 68ec 4f3d 1c0c 923c d54a 58bc d0a5 113b
00000100: 9444 193c 361e bfbc 586d b039 e0b0 a13b
00000110: 387c d13b 958a de3c 5569 4ebc 3d09 93ba
00000120: 64b6 c83c b2fb b2bb 43c6 9fba 8c89 c03c
00000130: d267 f8ba 6d85 debc 3be7 3e3c d28b 6cbc
00000140: 005a ee3b 6125 1f3d 16a7 cabc 7c9b 703c
00000150: a8d8 b2bc 5020 eb3c 6f83 07bb e65a 193c
00000160: a47b 6cbb 3d52 a73b 6936 f93b 8b28 eabc
00000170: 3e76 a63c 3881 1abc 0bea bfbb eabe 813c
00000180: c5fb 6fbc 8913 033d 0d96 34bb 2523 253c
00000190: 8bc0 ac3b 76a2 f1bb 278f 01bc 87f5 323b
000001a0: b05e 843c 450a 95bc e082 c5bb 5d8c 89bc
000001b0: 86b3 053c 317a 15bc c3a6 25bb c071 963c
000001c0: 631f 80bb 901e fa3c 5540 2a3d 3002 0f3c
000001d0: 9edc 443c bc76 6a3c 7f73 d63c 8c59 44bc
000001e0: c9c8 1b3b 8786 e13b 3d86 13bc b163 66bc
000001f0: a2c6 29bc 2b2c fcbc 0d4e 773c c9f0 15bb
00000200: b797 febc 91ca acbb f4a1 86bc 9b1f 87ba
00000210: 2f03 aebb dab7 923c bcc1 84bc b4e3 d63b
00000220: de63 c73b dd7c 0fbc 4e99 293a 8177 673c
00000230: 9a90 033c 2609 a0bb b6c6 873b 399a 903b
00000240: 9d44 163b 3da3 fcbb 6fc3 6f3c 292d e43b
00000250: 74ec 063d 51b5 193c f7c4 17bb a22b d739
00000260: 3660 303d 2ede 923c cd71 393c 5d11 24bc
00000270: 2cc2 363c 8da8 de3b 57f1 593c ed9f 4d3c
00000280: 840c 3fbb 438b 5c3c f879 1c3d ba21 b8bc
00000290: b11a 643c f79f 193c 4370 2f3c 5020 13bc
000002a0: 1bfd f53c db01 fc3b 9ac3 883c a3a7 e7b9
000002b0: 3108 18bc 5a2c 8a3b 78b4 583a 37d9 6a39
000002c0: 038a 493c a3fb 343c 6242 e4bb 85c5 5d3b
000002d0: 7a26 653c be80 5ebb d818 a1bc 0554 c43c
000002e0: c6cc 803c 3f79 9f3c eec6 ab3b 40a7 e8bb
000002f0: 9b05 233c e600 64ba 0ed6 ac3b 99d2 7f3b
00000300: e5c8 f83a dfe1 c8bb 5899 823b e837 3d3c
00000310: c6f5 9c3c 93b4 2bbc c59c 7d3b 05ea bbbb
00000320: cfe9 f6bb 6c5d 133c b07f 7e3c b843 76bb
00000330: 6b04 13bc a89e 4c3d 85d7 72bc c087 90bc
00000340: e4e8 63bc cf10 df3a 229b b23c 9281 af3b
00000350: a33a 70bc 8f17 a03b d5d2 dc3b 389c 163c
00000360: 478e ba3b d6cd 7ebc ad1e 08bc 7ccc 7abb
00000370: 31cc b43b 29ff 38bc 63c0 1cba 3522 033d
00000380: 61e0 c7bb ab8f 863c 8702 433a 8c4e f6bc
00000390: 6583 e4bc 2699 f2bb 7442 86bc 7582 c53b
000003a0: b4de e1bc d0cd 5cbb 8922 483c ff0c 0bbc
000003b0: c38f b8bb 6135 973c 98ab 2abd 7ad9 8e3c
000003c0: 839b 08bc 74ec 02bc 19d3 5b3c 0d42 743b
000003d0: 773c a7bc 24a5 8a3b ddbc 92ba 26c6 ea3b
000003e0: 0d2f a33c 06fb 7dbc 4a44 d33b f5c1 233c
000003f0: d8aa e23b 5003 8e3b 7f4c a8ba 6033 e1ba

action_model._continuous_distribution.mu.bias f4 [2]
0.005509971 0.0056711114
00000000: fd8c b43b bbd4 b93b
