FinalProject/results/Zombie/Zombie/Zombie-3776.onnx (onnx, 76122 bytes, 7 tensors)

network_body._body_endoder.seq_layers.0.weight f4 [128, 8]
00000000: 0701 163f 8540 27be 4862 df3d 1850 743e
00000010: 708f 313e da39 b73d 28d5 753e a953 0f3f
00000020: 536b f6bd 4cb8 00bf fd6a 333b f32a 563e
00000030: 32f0 763e 2e53 83be 8bf9 1fbe b79d 113e
00000040: 4a91 193c 4115 31be dc5b 673e 752a fbbe
00000050: d93c f8bd 460f e73d 1bba 163f dd2f c03e
00000060: b2d1 013e ee81 ec3d 6304 713e a39e 3abe
00000070: 61ea 1fbf 6d10 0bbe f0de 82bf 78f2 023f
00000080: 8070 85be ce62 37bd efe3 1f3e c630 27be
00000090: cc75 bbbe 5c45 b1be 0436 04bf 2017 d1be
000000a0: 31cb 623d 4a96 12be 493d 713e 02b8 8a3f
000000b0: eadd 37bf 88bd d43e 008b 03bf 2a97 843d
000000c0: e480 993d c3f2 7a3e 0c9d 793e a558 b93e
000000d0: 428b 413e c44b a93d d625 083f 6860 edbd
000000e0: 846f 953d b8d4 f3be 394d 3fbe e23c a33d
000000f0: 9abd 9d3e 9d73 23bd 2af6 24bf 1036 9dbe
00000100: 81de e4bd 9f08 dd3e 7875 ce3d 0553 e43d
00000110: f453 2cba dd8e 8fbe 3055 c3bd fd03 363d
00000120: 7a6a ecbe 352c 043e 30e0 88be 14f8 cbbe
00000130: 9273 d7bc db6d 213e 8ca2 b4be 4b93 0fbf
00000140: 336d ce39 de4a 1fbe 6a7f 353f bf11 00be
00000150: 85fb 663e 0028 273e 27ea 3abc d49e c7be
00000160: f65e 983e a0c5 f23b 2ea0 933e a66b 6a3d
00000170: 0dee 2fbd fadc 583e 7ed4 a43e 8a19 7d3d
00000180: 87f1 31bf 0f7c 90be 4b4b 8fbe 4c56 923e
00000190: 1b41 5f3d bb59 7cbd fc51 a0be 11d5 8ebe
000001a0: bb06 d03e c5c4 66be 20b3 ae3d 8668 ae3d
000001b0: f285 253b 8a71 d5be ecba 973e 9252 c03d
000001c0: d621 c0be 0d3a 59be eb9d 093e 302e 5ebe
000001d0: f98e ccbd 853e 6a3e d42f 0a3f 10c4 35bb
000001e0: bd34 5fbe b3a3 34be 4410 b8be 8a78 c6be
000001f0: cdd3 8dbe 93ee 30bd 5f72 303e 5d10 9e3e
00000200: 949b 49bd 42b3 63bf 1b8d fabc b7b0 613e
00000210: 3c57 8f3e 3cb4 593e d217 d5bd f144 723e
00000220: 662f 15bf b0b6 cf3e 3da0 15bf bd3a 07bf
00000230: 8201 38bf 62ed ffbe 3178 e0be e680 25bf
00000240: 8d8c b63e a197 5f3e 5370 2ebc d3d7 d33e
00000250: f990 af3e 2528 db3e 2923 02bf 7978 71be
00000260: 1c1a 09bf 9b4c 86bd 4cdc abbd 6f78 8abd
00000270: a5a7 a83e f624 e3be 133a 11bf d54f 95be
00000280: e469 6abd 87b8 533e 8af3 9c3d 5db6 eebe
00000290: 6d1b 64be 7920 aebd 9637 cabd b257 a83c
000002a0: a808 76be 84eb 7f3e a51d 83be 4ba5 9fbe
000002b0: 59c6 323e 9226 003f fa0a 1e3f f8ad 9d3e
000002c0: ead7 b83d 45af 23be 4f1c 0b3f 7569 2d3f
000002d0: 5ed1 b73e f805 0e3f adce 823e f89b af3d
000002e0: 3ef7 acbd a85f 25be 8f1f 493e 4043 b5be
000002f0: e517 1e3d 842f b73e c461 90be 9be7 023f
00000300: 3716 25be 3a14 fc3d 3e31 163e 9490 15be
00000310: 29a7 6abf 3cfb d13d c0e7 72be 39ef de3e
00000320: 9c57 5abf 03e1 41be e3c9 8cbe fbed a6be
00000330: d7cc e23e 23fc 6ebe bad2 f13c 0261 4e3c
00000340: 60ef 18bf f904 5a3f 9888 4abe 361b ba3e
00000350: d230 8c3c e797 b93e fa0a 363f e479 18bf
00000360: a56c 203e b02d 7f3e 7932 e93d b5e3 e93d
00000370: 5ace 103b 79e2 933e 9e7a 43bf 6802 2d3f
00000380: ca3c 1ebe 4234 40bd f2ae fc3d e6d9 8c3e
00000390: 9f1f 783e 9642 ea3e 92a5 923e 6ac6 37be
000003a0: d7d0 6abe b02e b23e a207 223f 7425 31be
000003b0: 25d2 04be fa6b abbe 5790 bd3e 6a3b febd
000003c0: 789d 1ebe d762 973e cb61 89be f4aa cb3e
000003d0: 640a 14bf 005c 573e 33b7 1bbf 9ed0 273e
000003e0: 3a51 e3be 4b8e dbbe 53eb ad3e 5404 b2be
000003f0: 5d18 1f3e c466 bebe 15e4 3fbf 25a7 a33e
0.5859532 -0.16333206 0.109074175 0.23858678 0.17339873 0.08946581 0.24007094 0.5598703
-0.12032189 -0.50281215 0.0027377002 0.20914821 0.24115065 -0.256494 -0.15622537 0.1422032
0.0093730185 -0.17293264 0.22593635 -0.4905583 -0.12120981 0.1128221 0.58877724 0.37536517
0.12677649 0.115482196 0.2353683 -0.18224578 -0.6246701 -0.13580485 -1.0224285 0.5115123
-0.26062393 -0.044771962 0.15614294 -0.163272 -0.3661331 -0.3462323 -0.5164492 -0.40837955
0.05536956 -0.14315143 0.23558535 1.0837405 -0.7182299 0.4155085 -0.5138397 0.06474145
0.07495287 0.24506669 0.24376315 0.36200443 0.18900779 0.08266404 0.53182733 -0.11590654
0.072966605 -0.4762323 -0.18681802 0.07970597 0.30808717 -0.03990518 -0.64438117 -0.3070531
-0.11175252 0.4317064 0.10080999 0.11148647 -0.0006573789 -0.28038684 -0.095377326 0.044437397
-0.46174985 0.12907489 -0.2673354 -0.39837706 -0.026300225 0.15764563 -0.35280263 -0.56084126
0.00039372742 -0.15555903 0.70897543 -0.1250677 0.22556885 0.16323853 -0.011408365 -0.38988364
0.2975995 0.0074088126 0.28833145 0.057231568 -0.042951632 0.21178046 0.3219337 0.061791934
-0.69509166 -0.2821965 -0.2798713 0.28581464 0.05450545 -0.06160901 -0.3131255 -0.27896932
0.40630135 -0.22535999 0.08530259 0.0851603 0.002525684 -0.41688186 0.29634798 0.09390749
-0.37525815 -0.21213551 0.13439147 -0.21697307 -0.09988207 0.22875412 0.5397923 -0.002773527
-0.21797462 -0.17640571 -0.3594991 -0.3876384 -0.27700654 -0.043196272 0.17231129 0.3087186
-0.049220636 -0.889454 -0.030584862 0.22040068 0.27996242 0.2126016 -0.10404934 0.23659112
-0.5827545 0.40569067 -0.5844763 -0.52824 -0.718773 -0.49985796 -0.438417 -0.6464981
0.35654107 0.21835186 -0.010646897 0.41375598 0.34290293 0.42804065 -0.508349 -0.23581113
-0.53555465 -0.0655758 -0.08391628 -0.06761252 0.32940403 -0.44364136 -0.5672924 -0.2916247
-0.05722989 0.2067586 0.07663639 -0.46623507 -0.22276087 -0.085022874 -0.098738834 0.020549629
-0.2402674 0.24992186 -0.25608554 -0.31180796 0.17458476 0.50058854 0.617355 0.3079679
0.09025557 -0.15984829 0.5434007 0.6773904 0.35901922 0.5547786 0.25548306 0.085746706
-0.08445595 -0.16149771 0.19640945 -0.3540287 0.038597006 0.3577844 -0.2819959 0.5113465
-0.16121756 0.123085454 0.14667222 -0.14605933 -0.91661316 0.10252997 -0.23721218 0.43541887
-0.8528993 -0.18933491 -0.27497777 -0.3260344 0.44296905 -0.2333837 0.029519428 0.012596371
-0.5974026 0.8516384 -0.19778669 0.36348885 0.017113123 0.36248705 0.711105 -0.5956099
0.15666445 0.24919772 0.1138658 0.11420385 0.0022095651 0.28883722 -0.76358974 0.67581797
-0.15452877 -0.046924837 0.12338056 0.27509993 0.24230812 0.45753926 0.28641945 -0.17946783
-0.22931229 0.34801245 0.63292897 -0.17299443 -0.12970789 -0.33480817 0.37024185 -0.12413676
-0.15489757 0.29567596 -0.26832423 0.39778864 -0.57828355 0.21031189 -0.60826415 0.16388175
-0.44397908 -0.42881998 0.339686 -0.34768927 0.15536638 -0.3718778 -0.749574 0.3196346

network_body._body_endoder.seq_layers.0.bias f4 [128]
00000000: a04c 83ba 0b71 203b 55f8 4ebb 7205 253c
00000010: 35bb acba 6ce6 ccba 4bea a73a ebcb 34bc
00000020: 5e9e 00bb dce5 413b 7541 8dbc 8e58 56bb
00000030: 308d 843b 12b5 4bbc 6682 45bb f4ed be38
00000040: 683b 663a 730e 963a 74f2 2a39 ad90 8c3b
00000050: 8ee5 60bc f74b fa3b 0fcc 04bb 3cb2 073c
00000060: 1bad 1fbb 2328 2abc f826 c03b 17c2 ac3c
00000070: 0625 3fbb d257 cabb 8891 423c c785 293b
00000080: 7fb8 41bc 2073 debb 9f34 073c c8c9 a93b
00000090: 067f 183b a6f2 89bb fb42 8b3a f1ce 68bb
000000a0: f034 883b 5b64 a2b8 a054 763c a72e 95bb
000000b0: 8d61 4c3b bbf7 d23a 2ef1 d13b 0858 7abc
000000c0: 69a0 af3a 542d 25bb 9e48 403b 7a0c dbbb
000000d0: 9145 27bc 94da 633a 27cc 67bc 1155 be3b
000000e0: 5eb6 98bb ee92 343c 9cf9 aabb 1a5e 943c
000000f0: 1564 0fbc 4bbc a73b 75f5 e8bc 5d16 36bc
00000100: 8a1f 213c 5032 6ab9 d7f6 dfba bb54 24bc
00000110: 961d 95bb 78ef 99bb 3a8f f43a 5f9c 86bc
00000120: dfeb 12bc b096 7f3b 9784 75bb fcc9 f6bb
00000130: 0987 b8bb 2bde c9bb bd51 dc3b 5b69 3ebb
00000140: 3cba dabb 3799 083c 68d7 98bb 19f1 bcbb
00000150: aeb2 a5bb d225 1cbb 6e37 e1ba 3fab 41ba
00000160: 6ebd 52bc e144 d73b 6560 0aba 82a0 b4ba
00000170: 8c47 e93b 1757 a43b 5763 beba 565d cfbb
00000180: 9488 88bb 35b3 39bb 0015 11bb 0a65 993b
00000190: debc 12bb bd5b ddbb e8b6 013c 7b34 c9bb
000001a0: 1e45 8d3b 8b9a 85ba 0977 4b3b 9eec a73a
000001b0: 5a60 8abc 9995 04bb 371d b63b 444b ba3b
000001c0: 088d 1f3c e5e6 6dbc 892e 70bc f614 6cbb
000001d0: a6a8 e33a 6c33 5b3b 8e40 813b aa06 4bbc
000001e0: 5a7e 953b acaa 7fbb 7433 97bb 6ac9 2c3c
000001f0: 17f2 fb3b 88e4 bdbb 4dd8 a1bb 8f09 353c
-0.0010017343 0.0024481441 -0.0031581123 0.010072099 -0.0013178351 -0.0015632636 0.0012810914 -0.011034946
-0.0019625644 0.002958647 -0.017243126 -0.0032706591 0.004045151 -0.012433307 -0.0030137538 9.104228e-05
0.0008782656 0.0011448398 0.00016302784 0.0042897076 -0.013726605 0.0076384502 -0.002026323 0.0082822405
-0.0024364654 -0.010385546 0.0058640204 0.021088643 -0.0029166355 -0.00617502 0.011875518 0.002586709
-0.011823772 -0.0067886263 0.008252292 0.005181525 0.0023269071 -0.004209834 0.001062482 -0.0035523737
0.0041567013 -7.7434546e-05 0.015034825 -0.0045526805 0.0031186074 0.0016095558 0.0064069247 -0.015279777
0.0013399246 -0.002520402 0.0029340158 -0.006684837 -0.010209457 0.00086919335 -0.014147795 0.0058084805
-0.0046604117 0.011021359 -0.005217744 0.018111277 -0.008751889 0.005118882 -0.028437356 -0.01111373
0.00983418 -0.00022334722 -0.0017087114 -0.010029967 -0.004550646 -0.0046977364 0.0018658407 -0.016431985
-0.008967369 0.003899973 -0.0037463063 -0.0075314026 -0.005631332 -0.0061605177 0.006723611 -0.0029054496
-0.006675033 0.0083373105 -0.0046643503 -0.005766046 -0.0050567007 -0.0023826254 -0.0017182657 -0.00073878834
-0.012862546 0.0065694903 -0.0005278646 -0.0013780745 0.0071191248 0.0050152647 -0.0014525455 -0.006328265
-0.004166672 -0.0028335575 -0.002213776 0.0046812342 -0.0022390406 -0.006755321 0.007917143 -0.0061402894
0.004311218 -0.0010193152 0.0031046292 0.0012811606 -0.016891647 -0.0020230769 0.005557682 0.005685242
0.009738214 -0.014520382 -0.014659532 -0.0036023236 0.0017368987 0.0033447398 0.003944463 -0.012391726
0.0045621814 -0.003901164 -0.004614288 0.010546068 0.0076887715 -0.0057950653 -0.004939115 0.011049642

network_body._body_endoder.seq_layers.2.weight f4 [128, 128]
00000000: 3a37 5c3b b82a 0dbd 7a7a 373d c041 8c3b
00000010: 2804 4b3d 5cea 0dbe 24a5 22ba 8750 12be
00000020: bb8c 4abd e05e 323d 456a 09bd 7ed2 cebd
00000030: 8063 323d 30e3 31bd 08b0 bb3d 2c06 f6bb
00000040: ef24 5f3d f91f 12be 1114 513d da39 e2bd
00000050: 64c0 24bd 6668 22bd 496c 08be 0370 9c3d
00000060: 4e5d 1a3d 7105 343c 6c43 69bc cfe1 243d
00000070: fec2 d7bd e36c 153c 583d 813d 9a14 0cbe
00000080: 048c d9bd 4095 78bd 7c71 443e f6f7 1d3c
00000090: cfa6 05bd c21b 643e f23f babd bb12 133e
000000a0: c1ef 8ebd 5132 1fbd 6344 6c3b 0719 673d
000000b0: d976 b83c 621f 0d3e 926d ccbc 6e07 e73a
000000c0: e964 b13d 3f3b c8bc f9ea 823d 6538 ca3c
000000d0: 9c9b 6d3c f2e2 f9bc b109 6dbd f12b 08bc
000000e0: e654 84bd 3158 393c 9ae8 1fbd 0efb 043e
000000f0: eda5 be3d 53bb 903d e146 c5bb 2a02 98bd
00000100: aa0f 06be b40f c0bd 59a4 a83d b25c 3bbd
00000110: a152 04bd a3d1 5f3d cb8c 923d 9173 f03a
00000120: 8a2d cfbd 7e8e 3b3d 8d9e 2ebd 8413 1cbe
00000130: 9c08 2ebc 7682 e53d f02f 09bd fe0f 7d3d
00000140: 7b1b 21bd b745 8f3d 1439 cebd 7894 0a3e
00000150: e79b d7bd ce1f d23d 43db 123a fefa 5e3c
00000160: e36a 5e3c b403 873d 8b4f 693c e7a5 01bd
00000170: 1a98 163e 9bb5 26be 3716 cabd e9d6 143d
00000180: 063c d3bd 7c86 923d 09c2 18be d4ae e9bc
00000190: 1ea5 0f3d 7f1e acbb b1f9 2d3d 568a ac3d
000001a0: bccc 16ba ff04 b93d b37e 9a3d f2b2 c83d
000001b0: 5f5a 00bc ffca a63d bb3d 603d 48f7 bdbd
000001c0: fa3c 893d a14e e7bd 0b45 5ebd b28c a73d
000001d0: 1096 d5bd 9436 35bc 595d fbbd 5713 323d
000001e0: 0770 3f3e f0a2 0abd 25a7 2ebe e4a4 663d
000001f0: b51b 81bc 25e1 20bc a5e4 d6bc a631 653b
00000200: 1ae7 09be 9b40 3d3b 20bd 323d 8800 8d3d
00000210: 6db9 35bb b440 36be 5962 25bd 0512 f13d
00000220: eab5 c4bd c2a2 c6bd e86f eebc c540 7fbd
00000230: 3635 e73d 13db 7dbd 5e55 a0bd 393c 853d
00000240: 1793 b93c 9dc9 473d 92a0 8cbd ae65 223c
00000250: bcef c6bd 91f9 373d b55c 87bd 300a fe3d
00000260: 9157 993d 3d74 563d 8698 833c 5844 8cbd
00000270: 76bb 593d 7983 933d b47f a9bd dd31 5dbc
00000280: 3385 babd ca68 33be a204 8f3d b0fe b13b
00000290: ba05 833c dfc2 89bd ba3c 8a3d 6af2 01bc
000002a0: d5b7 a93c 05b4 da3c 8b7c acbb 7a4b c63d
000002b0: 89a8 45be 1e8a 433e 0808 f03c 3a56 10bd
000002c0: 94ee bb3b e8c8 103e 3888 a43c 402c d43c
000002d0: c9a5 83bd 86c0 e63d ffa3 52be b2b1 9cbd
000002e0: 8e6a 55bd 2ddd b83c 5384 0dbe c6fd 8dbb
000002f0: 0aa8 3ebd cfb2 8e3d 74fa a83c 8af5 d0bc
00000300: 3402 dd3d 3a12 98bd 889f 8fbd 1b0d 073d
00000310: 38f0 e63c 4c90 22bd 0ea4 d43d 0bdf 563d
00000320: 1fd9 e63d fc30 f6bd 2ba0 0fbe 5aba abbd
00000330: f284 30bd 4f23 0dbd 4267 263e 2435 e83c
00000340: da17 1d3d d674 c83a 870f 0dbe 64d8 513d
00000350: 02e8 49be 872d d53d f1a8 d93d b9cd 0cbe
00000360: 5f63 73bd 083e f63d 4228 173e 89f0 44bd
00000370: 570d 1cbe 2b95 053e 280a dc3b 6f7d 973d
00000380: 546c 43bc 7ef8 e23c f28a b4bd fc51 19be
00000390: 1d42 1a3d a3e4 593c 032d 713c 942f e8bd
000003a0: ee61 19be 8e84 8b3d 5057 cd3d a030 bd3d
000003b0: 46aa ce3d e27b ecbc 47ce 36bd a47d 2fbe
000003c0: 1eac 63bd 7bf9 bfbd e25d 583c ca93 9c3e
000003d0: 0735 1cbd b456 c03b 6bdb 233e be25 6d3c
000003e0: 8c37 a9bd cfa8 2abc 98d4 0abd acef ea3c
000003f0: 0c15 8a3d dfdb 2d3e 7e34 33bb c902 873d
0.0033602254 -0.034464568 0.044794537 0.004280299 0.04956451 -0.13858932 -0.00062044174 -0.14288531
-0.049450617 0.04354751 -0.033548612 -0.10098742 0.04355192 -0.043429554 0.09164435 -0.00750806
0.054478582 -0.14270009 0.051044527 -0.110461906 -0.04022254 -0.039650343 -0.13322558 0.07638552
0.03768664 0.010987625 -0.014237266 0.04025441 -0.10535239 0.009120199 0.063105285 -0.13679734
-0.10622409 -0.06068921 0.19183916 0.009641638 -0.032629784 0.22276214 -0.09094228 0.14362614
-0.06979323 -0.038866345 0.0036051504 0.056420352 0.022517608 0.13781503 -0.024954591 0.0017626116
0.08661825 -0.024442313 0.06392474 0.024685094 0.014502432 -0.030503724 -0.05787057 -0.008311258
-0.064615056 0.01131253 -0.039040186 0.12986395 0.093089916 0.07066979 -0.0060204123 -0.07422288
-0.13091913 -0.09377995 0.08234472 -0.045742698 -0.032305364 0.054643285 0.071557604 0.0018344988
-0.10116108 0.045790188 -0.042631675 -0.1524182 -0.01062217 0.11206524 -0.033492982 0.06178283
-0.039332848 0.06995719 -0.100694805 0.13533199 -0.10527783 0.102599725 0.00056021305 0.013609646
0.0135752885 0.06592503 0.014240156 -0.031652357 0.1470646 -0.16280214 -0.098675184 0.036337767
-0.10314183 0.07154557 -0.14917769 -0.028525747 0.035069577 -0.005252659 0.042474452 0.08424823
-0.00057525537 0.09034156 0.07543697 0.09799756 -0.007834046 0.08144187 0.05474637 -0.09275681
0.067010835 -0.11294294 -0.054265063 0.081811324 -0.10429013 -0.011060376 -0.12273664 0.043475475
0.18695079 -0.033846796 -0.17055948 0.056309596 -0.015760282 -0.009819304 -0.026232073 0.003497222
-0.13467064 0.002887762 0.043637395 0.06884867 -0.002772893 -0.1779812 -0.040376995 0.11771015
-0.0960501 -0.09699012 -0.029106095 -0.06231763 0.11289446 -0.061976504 -0.078287825 0.06505627
0.022653146 0.048776258 -0.06866564 0.009911938 -0.097136945 0.04491574 -0.06609479 0.12404287
0.07487405 0.052356947 0.01606394 -0.06848973 0.053157292 0.07202811 -0.082763106 -0.013500658
-0.09107437 -0.17520443 0.069833055 0.0054319724 0.015993942 -0.06726622 0.06749864 -0.007931331
0.02071754 0.026697168 -0.00526387 0.09682365 -0.19302572 0.19095656 0.029300705 -0.035238482
0.005735228 0.1413914 0.020084485 0.025900006 -0.064281054 0.1126719 -0.20570372 -0.0765108
-0.05210357 0.022566402 -0.13820009 -0.0043332307 -0.046546973 0.06967699 0.020627238 -0.025507707
0.10791436 -0.074253514 -0.0701285 0.032971483 0.028190717 -0.039688393 0.103828534 0.052458804
0.11271881 -0.12021062 -0.14025943 -0.08385153 -0.043095537 -0.0344575 0.16250327 0.028345652
0.038352825 0.0015293609 -0.13775454 0.051231757 -0.1971741 0.10409074 0.10627926 -0.13750352
-0.05942094 0.1202355 0.14761451 -0.048080955 -0.15239464 0.13045184 0.006715078 0.073969714
-0.011927683 0.027706381 -0.08815564 -0.14972681 0.037660707 0.01329914 0.014720204 -0.113372
-0.14978763 0.06812392 0.10026419 0.0923779 0.10091071 -0.028867666 -0.044630315 -0.17137772
-0.055584066 -0.093737565 0.013205977 0.30581504 -0.03813651 0.005869711 0.1600167 0.0144743305
-0.08262548 -0.010416224 -0.03389415 0.028678738 0.067422956 0.16978405 -0.002734452 0.06592328

network_body._body_endoder.seq_layers.2.bias f4 [128]
00000000: 8752 43bb 3884 a93b ee42 3bbc 9c6a 27bb
00000010: 322d 21ba 92be a639 101f 033c 6746 ca3b
00000020: 1bc9 813b 4f3a b939 0349 39bb 7fd8 2ebc
00000030: 1022 94bb fcf6 2bbb 49e5 ebbb cbcc d23b
00000040: 4904 0fbc 557f 34bc 6f9b 333b 7cb6 543a
00000050: e3c0 0a3b 9630 debb 3094 13bc 2cf4 b03b
00000060: f10b ab3b 5b4c 943a f985 e13a 0792 25bb
00000070: 1294 1f3b 981e 07bc 2480 623b fb91 3c39
00000080: 9db1 c83a 12cb 3f3a 671d b13b 5016 e5bb
00000090: cc5b ec3a 3b43 183b b36c 083c d785 17bc
000000a0: 795f e6bb a0b7 90bb 515c e63b cea2 373b
000000b0: f426 bbba 016d a1bb 59b3 a939 2865 b33b
000000c0: 60d1 df3b 463a 713c ea79 0fbc 71a5 6abb
000000d0: 777c 013c d055 b23b e2a5 833b fdb7 843b
000000e0: b7fa 5939 4580 2abb f6db 3b3b 74ed f9b9
000000f0: becd 28b9 c74a dd3b e2bc 2bbb 4afe 383a
00000100: a2dc 77bb ff9f d53b 6a3d 03bc 71e4 863a
00000110: a0c6 81bb 6f51 9e3b a886 3e3b 38de 1cbc
00000120: 7805 aab9 fa24 ed3b 74ad 10bc 88f5 a9ba
00000130: 4088 c83b 0e3b b23b 5285 83ba 7f38 59bc
00000140: 7c45 5abb c3b6 9d3b 16e6 8d3b 8730 9c3b
00000150: 2218 2d3b 394a e03b 1715 c5bb 978a e33a
00000160: a546 edbb 5cc5 34bb db61 b0bb b0bb c63b
00000170: c2ca 49b9 05d9 47bb b53a 5b3b 4a51 e1bb
00000180: 363f ff3b cf9c d8bb 7757 cfbb d62e 6a39
00000190: 33b2 24bc 221b 3e3a cc06 abbb 04a7 2b3c
000001a0: d602 523b b8e0 433a e0e9 aebb 0a8c c03b
000001b0: 6217 1e3b 2403 c538 86af 08bc 0e95 1bbc
000001c0: a705 4dba 6199 12bc acb7 3bbc f940 0abb
000001d0: 5f3d 3a3b 6f51 a63b ebda 3c3b f3c9 713b
000001e0: 42c5 023c e4d1 593b 8563 20ba 095e 0b3c
000001f0: 246f a5bb 1447 35bb b751 e7bb 5938 c139
-0.0029803829 0.0051732324 -0.0114295315 -0.0025545722 -0.0006148397 0.00031803973 0.008003011 0.0061729434
0.003960741 0.00035329393 -0.0028272278 -0.010671734 -0.004520662 -0.0026239743 -0.007198964 0.0064331046
-0.008729049 -0.011016686 0.0027405878 0.00081143505 0.0021172098 -0.0067806942 -0.009007499 0.0054002013
0.0052199294 0.001131426 0.0017206065 -0.002526404 0.0024349731 -0.00824704 0.003456124 0.00017983459
0.0015311722 0.00073163316 0.0054051164 -0.0069911852 0.0018032729 0.0023233432 0.008326697 -0.0092482185
-0.007030424 -0.004416421 0.007030048 0.0028020623 -0.0014278577 -0.0049263244 0.00032367816 0.0054747052
0.0068303794 0.014723366 -0.008757094 -0.0035804177 0.00790321 0.0054423586 0.0040175775 0.0040502534
0.00020788131 -0.0026016396 0.0028665042 -0.00047669897 -0.00016098373 0.006753299 -0.0026205112 0.0007056935
-0.0037820716 0.006519317 -0.008010248 0.001029147 -0.0039604455 0.004831485 0.002907196 -0.009574465
-0.00032429 0.007237074 -0.008830417 -0.0012966851 0.006119758 0.005439169 -0.0010034239 -0.013258099
-0.0033305576 0.0048130467 0.004330407 0.004766527 0.002641209 0.0068447855 -0.006014477 0.0017360029
-0.0072410875 -0.0027583456 -0.005382759 0.0060648546 -0.00019244387 -0.0030494344 0.003345174 -0.0068761455
0.0077895178 -0.00661049 -0.0063275653 0.00022333427 -0.010052252 0.0007251968 -0.005219316 0.010476831
0.0032045147 0.00074721454 -0.0053379387 0.005876069 0.0024122824 9.394277e-05 -0.008342629 -0.009495987
-0.00078209717 -0.008947701 -0.011457365 -0.0021095856 0.0028417928 0.0050756256 0.0028817009 0.0036894053
0.0079816 0.0033236677 -0.0006118345 0.008506306 -0.0050486494 -0.0027660774 -0.0070593017 0.0003685381

action_model._continuous_distribution.log_sigma f4 [1, 2]
00000000: 4b58 4039 1970 853c
0.00018343439 0.016288804

action_model._continuous_distribution.mu.weight f4 [2, 128]
00000000: fc68 acba 9414 02bc 22eb 0c3c 486d 3e3b
00000010: c020 6a3d fe33 343c 9724 b6bc 969d 7dbc
00000020: 3930 cfbb e3f2 32bb 8140 e93a 1265 d63b
00000030: 9970 a13c e719 eebc ee3d 943c 9381 e83a
00000040: 8e2f 3e3a 02cd dabb 6734 7fba a955 cdba
00000050: 6f29 ba3c 3aa0 2b3c b9c7 3ebb b571 353a
00000060: d4ac fe3b 087f 5ebc eef0 55bc db9f babc
00000070: 87cb d1bb b137 4fbb d4a6 553c 73a7 2a3c
00000080: 8f7d 983c ead2 d5bb 2522 8bbc 4eda bb3c
00000090: 4dcb 133c 288f 803c 8d55 4dbc abf8 b83b
000000a0: eef3 2fbc dee3 43bc 1c1a ddba 0912 8a3c
000000b0: 6eb9 31bc 2586 cb39 a3c0 1fbc 77af 27bc
000000c0: f3ce 15bd 82e5 b83a a816 edbb f78e 2cbc
000000d0: 7f68 b1bc 1c16 aabc 7e18 b1bc 3eb9 98bc
000000e0: d056 b7bb 22ea e4bc da8b 47bc 1044 773c
000000f0: b6f7 d4bb 0af5 77bc ba35 c4ba 4b3f 7fbc
00000100: 9bbe 603c ff6a b4bc 27ca 653c 3f29 a3bb
00000110: f216 8ebc fd52 4d3c 3ab6 6b3c ff98 3cbc
00000120: 34d3 02bb 1fec 81bc 8ef3 3f3c 1bef eebc
00000130: 00e7 4dbb f991 36bd 4019 a33c afdf 133c
00000140: b513 333c 78cd 33bc b305 7ebc 6c14 47bc
00000150: eeb4 a3bc 6541 99bc e024 74bc d88a 9d39
00000160: 6766 453c 54a9 abbc 41c0 203c f106 5dbc
00000170: dac3 f1bc 0b67 acbc 8f6f 48bd d381 85bb
00000180: f82b 1b3d 1a4b a5bc 6200 943c ab3f 77bc
00000190: a469 ea3b 00b7 74ba 3764 d4b9 64ec bfbc
000001a0: 900e 9f3a e3f2 3fbd 3d41 a03b f1df 9bbc
000001b0: 6b1d afba 0fc0 91bb 64d5 7bbc a12b 99ba
000001c0: 52ab 7cbc dda8 09bc 0e59 06bc 3635 c9bc
000001d0: 8347 f83c 5fa8 dbbc e0ae 54bb dbd7 a3bc
000001e0: 77ad 023c f669 64bc 74f9 69bb 91a6 1039
000001f0: 763b 563b 3f26 46bd 431d b13c e995 433c
00000200: ae27 903c 30c7 adbc b502 113b 1026 18bb
00000210: 6623 9ebc 65c3 c9bc bd2a 443c 0538 003c
00000220: ef00 20bd 4da3 64bc e987 a13c a255 0b3b
00000230: 0a2c 2c3a 1d7f 203d 3c8a e53c 2896 66bb
00000240: 1016 653c 78c2 853c 7c12 99bc 864c 91bc
00000250: 99b6 04bd b17f 9f3c 3ffb 073c 5cf6 89b9
00000260: 74b7 2b3c 9670 a43c dd60 003c c008 09ba
00000270: 7031 87bc 568e fe3c 5ac5 d8bb 442c 94bc
00000280: 5fbb 28bd 96ed 863c 8fb8 d0bc e23d f93b
00000290: 1394 fcbb e0da adbb 1165 ac3b 4a31 88bb
000002a0: a4cf 823c 67a4 f83c 41c3 f1bc 6352 1cbd
000002b0: 7e28 94bb e976 35bc db77 f53c 0401 d5bc
000002c0: 6371 f53b 42a4 06bc 7195 9e3b 36ec 883c
000002d0: 361c dd3c ef58 78bc 1fff 18bc 247e 7f3c
000002e0: 66ac f03c 8faf e03c 490e 543c bd4f efbb
000002f0: 2678 943c dec1 efbc ceee 33bc e055 c0bb
00000300: e7f2 ef3a 57a3 553c 93c1 b93c f0fd 7dbc
00000310: ddd0 a53b 9551 92bb 6494 46bc 94ed 193c
00000320: 344a 5fbc cc9e 2e3c 0231 05bc d33c a73b
00000330: 388e a8bc 1ee6 e4bb 2c50 f8bc fd4b 633c
00000340: a8e6 adbb 7a05 aabc e60b 5bbc 02ed 48bc
00000350: 6866 aa3b 20f7 e4bc 9c87 8b3c a133 573b
00000360: 7ba7 b23c 9541 c53b 4cc7 2bbb 00f5 00bd
00000370: 3120 273b 652b 5f3c 4707 543b ff38 9b3c
00000380: 51c5 fdbc 335d cf3c 741e 41bb 9e4a 803c
00000390: 2d43 aa3c c7fd c5bc bea5 11bc 5f34 1b3c
000003a0: 41ed ccbc fb16 e73c 0119 3b3d b641 8dbc
000003b0: 0514 dcbc 0f1c eabb 489d 1b3c a846 a63a
000003c0: 1155 f43c 5352 133c f34b 003c 1df5 163c
000003d0: 8d05 94bc a516 81bc 6e3b 633b 7ad7 90bc
000003e0: 1eca e7bc 3d62 4d3c 5962 29bb b631 8fbc
000003f0: 3a19 aa3b 981b 813b b722 223c 0975 efbc
-0.0013153846 -0.0079394765 0.008600982 0.0029056836 0.05716014 0.010998724 -0.022234244 -0.015479466
-0.0063228873 -0.0027305416 0.0017795713 0.0065428102 0.019707011 -0.029065086 0.018095937 0.0017738811
0.0007255011 -0.006677271 -0.00097352866 -0.0015665788 0.022724835 0.010475213 -0.0029110743 0.0006921546
0.0077720676 -0.013580091 -0.01305793 -0.022781303 -0.006402436 -0.0031618888 0.013040263 0.0104159
0.018614559 -0.006525387 -0.016984055 0.022931244 0.009020639 0.015693262 -0.012532604 0.005644878
-0.01073931 -0.011956183 -0.0016868743 0.016854303 -0.010847433 0.00038819123 -0.009750518 -0.010234705
-0.036574315 0.0014106485 -0.007235367 -0.010532132 -0.021656273 -0.020762496 -0.021618124 -0.018643018
-0.0055950657 -0.027943674 -0.012179339 0.015091911 -0.006499256 -0.015134105 -0.0014969625 -0.015579055
0.013717319 -0.022023676 0.014025248 -0.004979282 -0.017344926 0.012531993 0.014386708 -0.0115110865
-0.0019962313 -0.015859662 0.011715783 -0.029166749 -0.0031418204 -0.044572804 0.019909501 0.009025498
0.0109299915 -0.010974281 -0.0155042885 -0.012150865 -0.019983735 -0.01870794 -0.01490137 0.0003004882
0.01204834 -0.020954765 0.009811462 -0.0134904245 -0.029512335 -0.021045228 -0.048934516 -0.004074314
0.03788373 -0.020177413 0.018066589 -0.015090863 0.0071537066 -0.00093351305 -0.00040510457 -0.02342815
0.0012135077 -0.046862494 0.0048905895 -0.019027682 -0.0013360208 -0.004447944 -0.0153707005 -0.0011685976
-0.015421705 -0.008402077 -0.008199943 -0.024561506 0.030307537 -0.026813684 -0.0032452866 -0.020000389
0.007975928 -0.013941279 -0.0035701664 0.00013794961 0.003268925 -0.048376318 0.021620398 0.011937597
0.017597046 -0.021213144 0.0022126858 -0.0023216046 -0.019303989 -0.024629304 0.01197308 0.007825856
-0.03906339 -0.01395495 0.019718127 0.0021260758 0.00065678416 0.039183725 0.028020017 -0.0035184715
0.013982311 0.016328081 -0.018685572 -0.017736685 -0.0324007 0.019470068 0.008299648 -0.00026314228
0.01048075 0.020073216 0.007835594 -0.0005227439 -0.016503066 0.03107373 -0.006615323 -0.018087514
-0.041194316 0.016470712 -0.02547863 0.007606254 -0.0077080815 -0.005305633 0.0052610715 -0.0041562663
0.015968151 0.03035183 -0.02951205 -0.038164508 -0.0045214286 -0.011075714 0.029964378 -0.02600146
0.0074903234 -0.008217873 0.004839592 0.016714197 0.026990991 -0.015157922 -0.009338169 0.015594039
0.029379081 0.027427463 0.012942859 -0.0073032067 0.018123697 -0.029267248 -0.010982228 -0.005869612
0.0018306643 0.013039432 0.022675311 -0.015502438 0.005060299 -0.0044652917 -0.01212034 0.009395022
-0.013628531 0.010657977 -0.00812936 0.0051036864 -0.020575628 -0.00698544 -0.030311666 0.0138730975
-0.0053070374 -0.020754565 -0.013369536 -0.012263538 0.005200196 -0.02794987 0.017032437 0.003283717
0.021808377 0.006019781 -0.002621132 -0.03148365 0.0025501365 0.013621186 0.003235297 0.018948076
-0.030977877 0.025312996 -0.0029467614 0.01566058 0.020783985 -0.024168862 -0.008889614 0.009472935
-0.025015475 0.0282092 0.045678142 -0.017243247 -0.026865015 -0.007144458 0.009497948 0.0012685852
0.02982572 0.008991796 0.007830608 0.009213713 -0.018069053 -0.015757868 0.0034672874 -0.017680872
-0.02829462 0.012535629 -0.0025845973 -0.017479759 0.0051909955 0.003940057 0.009895972 -0.029230611

action_model._continuous_distribution.mu.bias f4 [2]
00000000: 1657 85bb a7d0 adbb
-0.0040692193 -0.0053044143
