FinalProject/results/Zombie/Zombie/Zombie-2118.onnx (onnx, 79314 bytes, 8 tensors)

network_body._body_endoder.seq_layers.0.weight f4 [128, 8]
0	0x3e9ec345	0.31008354
1	0xbe21c371	-0.15797211
2	0xbed097cb	-0.4074081
3	0x3e8fcb4f	0.280848
4	0xbe38b45b	-0.1803755
5	0xbddbc388	-0.10730654
6	0x3e629168	0.2212578
7	0xbb9c22c0	-0.0047648847
8	0xbe34ec7c	-0.17668337
9	0x3f0cfb67	0.5507111
10	0x3e8c3f55	0.27392069
11	0xbf420c63	-0.7580015
12	0xbf13c6ff	-0.5772552
13	0xbf4009ea	-0.7501513
14	0x3dacf3c7	0.08444934
15	0x3ec7ad61	0.38999465
16	0xbde61f28	-0.11236411
17	0xbe81733f	-0.25283238
18	0x3f1b1ce1	0.6059094
19	0xbd80ef16	-0.06295602
20	0xbd3eed95	-0.046613295
21	0x3f625eef	0.8842611
22	0xbeb6f327	-0.35732386
23	0xbd08cdd0	-0.033399403
24	0x3f1443b3	0.579158
25	0xbe013698	-0.12618482
26	0xbcac5abe	-0.021039363
27	0xbede41c6	-0.43409556
28	0x3e92ccc1	0.2867184
29	0xbe3f4667	-0.186792
30	0xbe2babf7	-0.16764818
31	0xbea35db8	-0.3190744
32	0xbe2d36a8	-0.16915381
33	0xbed5d5fd	-0.41764823
34	0xbf4e1490	-0.80500126
35	0xbecb0828	-0.3965466
36	0xbe9c125d	-0.3048276
37	0xbe3b8194	-0.18311149
38	0x3b3136ef	0.00270408
39	0x3e0d97b3	0.138274
40	0xbf5fadd8	-0.8737464
41	0x3e7de211	0.24793269
42	0x3c5181f9	0.012787336
43	0xbe9e0985	-0.30866638
44	0xbdbd9923	-0.09257724
45	0xbe95248a	-0.2912944
46	0x3d41b97f	0.047296043
47	0xbe53f028	-0.20697081
48	0xbefde1e8	-0.49586415
49	0x3c64124f	0.013920381
50	0x3dc3df99	0.09564132
51	0x3df40943	0.11915829
52	0x3f43c582	0.7647325
53	0x3d83065a	0.06397696
54	0xbe06a9b1	-0.1315067
55	0xbe346cc1	-0.17619611
56	0xbee11907	-0.43964407
57	0xbf4d561b	-0.8020951
58	0x3e3caf0a	0.18426147
59	0xbeb9b67a	-0.3627203
60	0xbf6ca115	-0.9243329
61	0xbe7eb498	-0.24873579
62	0x3e121774	0.14266759
63	0x3e83c400	0.25735474
64	0xbf235d2d	-0.6381405
65	0xbe787688	-0.24263966
66	0xbdba8c95	-0.09108845
67	0x3dbd22cf	0.09235155
68	0x3df1f02d	0.11813388
69	0x3cf27019	0.029594468
70	0x3e9526e3	0.2913123
71	0x3eb9b382	0.36269766
72	0x3e91cc3c	0.2847613
73	0xbe84ea88	-0.25960183
74	0xbdb0aea8	-0.08627063
75	0xbe6b895c	-0.23001617
76	0xbd709a39	-0.05874083
77	0xbe154226	-0.14576015
78	0xbef6cc56	-0.4820277
79	0x3db0c38b	0.08631047
80	0x3f0897e5	0.5335677
81	0x3f501d3f	0.81294626
82	0x3e1be748	0.15224946
83	0x3e769379	0.24079694
84	0xbe714a97	-0.2356361
85	0xbee0cffa	-0.43908674
86	0x3ea18f77	0.31554767
87	0xbe2337d5	-0.15939267
88	0xbee7ab0d	-0.4524769
89	0x3e059d1b	0.13048212
90	0x3e364283	0.1779881
91	0xbeb826d9	-0.35967138
92	0xbef16a2f	-0.47151324
93	0x3f39b325	0.7253898
94	0xbed3154b	-0.41227183
95	0xbda8e04d	-0.08245907
96	0x3e6c2599	0.23061217
97	0xbf0b8dfa	-0.54513514
98	0xbd89de0d	-0.06731806
99	0x3ebc6a26	0.36799735
100	0x3e729645	0.23690136
101	0xbe87c6ea	-0.26518947
102	0x3d8548ea	0.06508048
103	0x3d210233	0.039308738
104	0x3d6c9b65	0.057765383
105	0xbe781b28	-0.2422911
106	0x3f293fe9	0.66113144
107	0xbcdb23af	-0.026750414
108	0xbee6862e	-0.45024246
109	0x3da135c6	0.078715846
110	0x3ebe9080	0.3721962
111	0xbdb67635	-0.08909265
112	0xbefafb7c	-0.49019992
113	0xbea80b84	-0.32821286
114	0x3e29bf9f	0.16577004
115	0xbe165242	-0.14679816
116	0x3ee0a7a5	0.43877903
117	0x3d5b6cac	0.053570434
118	0xbe4275e7	-0.18990289
119	0x3f20677e	0.62657917
120	0x3d81215c	0.06305191
121	0xbea9937e	-0.3312034
122	0xbf019745	-0.50621444
123	0xbe5e2093	-0.21692114
124	0xbe880d84	-0.26572812
125	0x3f07b628	0.53012323
126	0xbd4186f3	-0.04724784
127	0xbcf61b8a	-0.030042429
128	0x3f10edf5	0.56613094
129	0x3d61069d	0.054937948
130	0xbe96deb6	-0.2946679
131	0x3eba71e9	0.36415032
132	0x3e8e4260	0.27785015
133	0xbe8af22d	-0.2713789
134	0xbefe0914	-0.496163
135	0xbdc9aa5d	-0.09846947
136	0xbe21dbed	-0.15806551
137	0x3e2346cf	0.1594498
138	0xbe438f87	-0.1909772
139	0x3eb812da	0.35951883
140	0x3d632526	0.05545535
141	0x3e3a76d2	0.18209389
142	0x3db28f05	0.08718685
143	0x3e82ed89	0.2557185
144	0xbe0f8317	-0.1401485
145	0xbda5964b	-0.08085307
146	0xbedd5a0f	-0.43232772
147	0xbe157aec	-0.14597672
148	0xbdf88aaa	-0.12135823
149	0x3eeef1ea	0.4666894
150	0xbec5161d	-0.38493434
151	0x3d9f415b	0.077761374
152	0xbeae5e6a	-0.34056407
153	0x3da7fe0a	0.08202751
154	0x3cd7c782	0.02634025
155	0x3db8ad2d	0.09017406
156	0x3e8e6a3f	0.27815434
157	0xbf16dafb	-0.5892789
158	0xbe0a06f2	-0.13479212
159	0x3e1a363f	0.15059756
160	0x3de745d8	0.112926185
161	0x3e6f5539	0.23372354
162	0xbd0f75a9	-0.03502432
163	0x3de565ff	0.11201095
164	0xbe5b2122	-0.21399358
165	0x3ddf7b5d	0.109122016
166	0xbf1e6c4d	-0.61884004
167	0xbe2f7372	-0.17133883
168	0xbe79124b	-0.24323384
169	0x3dc3e98c	0.0956603
170	0x3f2db443	0.6785318
171	0xbdf9d3de	-0.121986136
172	0xbea1fdb1	-0.31638864
173	0xbf1e302a	-0.6179224
174	0xbe4985e4	-0.19679981
175	0xbda3c945	-0.079973735
176	0x3f1298ed	0.57264596
177	0x3dc9fe1f	0.09862923
178	0x3dc18eaf	0.09451043
179	0x3e1d5452	0.15364197
180	0x3ea23812	0.31683403
181	0x3ea3e26f	0.32008693
182	0x3cd135b7	0.025538309
183	0xbe19f139	-0.15033425
184	0x3e0845a8	0.13307822
185	0xbd319e85	-0.043364067
186	0xbed56a2a	-0.4168256
187	0x3e96ee94	0.29478896
188	0xbe40b494	-0.18818885
189	0xbde1782b	-0.11009248
190	0xbef03989	-0.46918896
191	0xbec97449	-0.3934653
192	0x3e3cd679	0.1844119
193	0xbe15742d	-0.14595099
194	0x3f08906d	0.53345376
195	0xbd8b8e01	-0.068141945
196	0x3e365744	0.17806727
197	0x3c8de8a1	0.01732284
198	0x3d76a177	0.06021258
199	0xbe5eabd1	-0.2174523
200	0xbe89ac12	-0.26889092
201	0xbdb710b2	-0.08938731
202	0x3e2dd122	0.16974309
203	0xbf04423c	-0.51663566
204	0xbd6576ce	-0.056021504
205	0x3c3e690a	0.011621723
206	0xbeac1e84	-0.33617032
207	0x3f0835c8	0.53207064
208	0xbef86f90	-0.48522615
209	0xbdb20432	-0.086922064
210	0xbda70581	-0.08155347
211	0xbf332c35	-0.6998933
212	0x3e7e6e03	0.24846654
213	0xbe8eddad	-0.279035
214	0x3d9bf0c5	0.076142825
215	0x3dbff9e1	0.093738325
216	0xbf0a710d	-0.5407875
217	0x3e429dd9	0.19005527
218	0x3e166a55	0.14689
219	0xbe59171d	-0.21200223
220	0x3e558091	0.20849825
221	0xbf00b9c6	-0.5028347
222	0x3e4c5ad8	0.19956529
223	0x3f22fc1c	0.6366594
224	0xbd2a93ea	-0.041644968
225	0x3ec484f7	0.38382694
226	0x3edc98da	0.43085366
227	0x3edc6294	0.4304396
228	0xbe459088	-0.19293416
229	0x3e8ddc82	0.27707297
230	0x3eb08db6	0.34483117
231	0xbca5aef3	-0.020225024
232	0xbe86587b	-0.2623938
233	0xbbc8d28f	-0.006128616
234	0xbe4803d1	-0.19532706
235	0x3e386f93	0.18011312
236	0xbde77a92	-0.11302675
237	0x3db66f77	0.08907979
238	0xbe587543	-0.21138482
239	0xbd05c0fa	-0.03265474
240	0x3e2b0b11	0.1670344
241	0xbda86632	-0.08222617
242	0x3dd56722	0.10420062
243	0xbdf4783a	-0.11936994
244	0x3e4135b6	0.18868145
245	0xbe959552	-0.29215485
246	0x3dc05269	0.093907185
247	0xbe1285b4	-0.14308816
248	0x3e5a1055	0.21295293
249	0xbe436554	-0.19081622
250	0x3e024a2e	0.1272361
251	0xbd306378	-0.04306361
252	0x3da3013c	0.0795922
253	0x3e6799e2	0.22617295
254	0x3e0b091a	0.1357769
255	0xbdbb98c7	-0.09159999

network_body._body_endoder.seq_layers.0.bias f4 [128]
0	0x871eb284	-1.193906e-34
1	0xb94fa690	-0.00019803108
2	0xbbbd3fb9	-0.0057754186
3	0x35a03b02	1.1938102e-06
4	0x3b6df016	0.0036306432
5	0x3b2d99e0	0.0026489422
6	0xbb7cb503	-0.003856004
7	0xba058204	-0.0005092921
8	0x3b7445b8	0.0037273
9	0x33de7cee	1.0360405e-07
10	0x00000000	0.0
11	0xbc03460e	-0.008012308
12	0x00000000	0.0
13	0xba0cdab4	-0.00053731655
14	0xbbed9274	-0.0072501246
15	0x3b232bed	0.0024898008
16	0x00000000	0.0
17	0xbb3e0cb2	-0.0028999266
18	0xbb4135da	-0.002948156
19	0xbbff9229	-0.007799406
20	0xae58a57f	-4.9259704e-11
21	0x3b17e236	0.0023175604
22	0x18ab1289	4.422118e-24
23	0x85ae57f2	-1.6395187e-35
24	0x3b4b6512	0.0031035584
25	0x3b32d609	0.002728822
26	0xbaa2d43b	-0.0012422869
27	0x3bac86f0	0.0052651092
28	0x3aa5388b	0.0012605352
29	0xba9074df	-0.0011021158
30	0xbbe6d3f5	-0.00704431
31	0xbbf0d8a8	-0.007350046
32	0x3bc4abe4	0.0060019363
33	0x0bc4a40b	7.574328e-32
34	0xbb0c57bb	-0.0021414596
35	0xbb81f90d	-0.0039664567
36	0x209d5afa	2.6657038e-19
37	0xb9aedb68	-0.00033351337
38	0x00000000	0.0
39	0x39384bde	0.0001757587
40	0x3b8cb1e7	0.0042936685
41	0x3b81ef15	0.0039652684
42	0x3b437888	0.002982648
43	0x3b2c2e3a	0.002627267
44	0xbba95bf0	-0.0051684305
45	0xbb89c1b1	-0.004203998
46	0x3bb6731b	0.005567921
47	0xbb04683b	-0.0020203728
48	0xbbbc8dbc	-0.0057542007
49	0xbb995ec9	-0.0046804887
50	0x3b88ea80	0.004178345
51	0xbbb83be3	-0.0056223734
52	0x3ae4e66b	0.001746369
53	0x00000000	0.0
54	0xbb679605	-0.0035337221
55	0x3b1d461a	0.0023998083
56	0x00000000	0.0
57	0x00000000	0.0
58	0xbc1c35d9	-0.009534323
59	0x3a92b27e	0.0011192111
60	0x3b75a4bb	0.003748222
61	0xbb633ea7	-0.0034674795
62	0xba02c4a5	-0.0004988409
63	0xba1fb59d	-0.0006092431
64	0xb92ee80d	-0.00016680379
65	0xbbd882c6	-0.0066073863
66	0x2f477695	1.8141073e-10
67	0xbb6283ec	-0.0034563495
68	0x3b9967c0	0.0046815574
69	0xbbe629d1	-0.007024028
70	0x3aa6a1e9	0.0012713048
71	0xbad1b60e	-0.0015999691
72	0x3b791e4f	0.003801245
73	0xbc2cb8b6	-0.010542085
74	0xbb4288be	-0.0029683555
75	0xbac0cc46	-0.0014709316
76	0xbac478a8	-0.0014989572
77	0xbb628ecb	-0.0034569975
78	0x2d410f3a	1.0974161e-11
79	0x0b703945	4.6265403e-32
80	0xbb1ba80e	-0.0023751291
81	0xbc056dd6	-0.008143863
82	0xba2ba48d	-0.00065476523
83	0xba40e9fd	-0.0007359086
84	0x3a7a1b6e	0.00095408305
85	0x96a2fb11	-2.6330957e-25
86	0xbc0446aa	-0.008073488
87	0xbb9a3ea1	-0.004707173
88	0x3a258dd6	0.00063153857
89	0x9eb814cc	-1.9490359e-20
90	0xbbe932c4	-0.0071166474
91	0x06d693a2	8.071478e-35
92	0xbb1aecb2	-0.0023639617
93	0x2299b3ab	4.1660964e-18
94	0x28c08a7b	2.1376338e-14
95	0x3a22bc64	0.0006207882
96	0x3bd17703	0.006392361
97	0x3a233754	0.0006226201
98	0xbb7d0026	-0.0038604825
99	0xbaec983d	-0.0018050742
100	0xb3d0d27f	-9.724044e-08
101	0xbb066abc	-0.0020510396
102	0xb04a1e88	-7.353056e-10
103	0x3bb676ad	0.0055683465
104	0x3a6025cf	0.0008550556
105	0xbb829ece	-0.003986216
106	0x12b4e19a	1.1415212e-27
107	0x1035191d	3.5715303e-29
108	0x1b614c7e	1.863628e-22
109	0x3beceb11	0.0072301705
110	0x9a0e3aab	-2.9412303e-23
111	0xbb44d435	-0.0030033712
112	0x3b0fd7f2	0.0021948782
113	0x2ae0bea8	3.9922688e-13
114	0xbbcdf39e	-0.006285145
115	0x332d827b	4.0398373e-08
116	0x3b908585	0.004410448
117	0xbbc6dda5	-0.0060689026
118	0xbb843e9a	-0.004035783
119	0xb29a81c8	-1.7986977e-08
120	0x00000000	0.0
121	0xbb9e6b16	-0.004834543
122	0xbb588c76	-0.0033042706
123	0xb6acce1d	-5.149994e-06
124	0xbbb576b0	-0.0055378303
125	0x3b482fcc	0.0030546067
126	0x1bc3eea6	3.2414267e-22
127	0xbb9aed79	-0.004728016

network_body._body_endoder.seq_layers.2.weight f4 [128, 128]
0	0xbc7926f3	-0.01520704
1	0xbd9b1316	-0.07572
2	0xbe44e2d8	-0.19227159
3	0x3dac0ecb	0.08401259
4	0x3be81e92	0.0070837224
5	0x3e2c6eed	0.1683919
6	0xbd1f79a1	-0.038934354
7	0xbcad97a1	-0.021190466
8	0x3b8598d7	0.004077058
9	0xbd63ccb1	-0.05561513
10	0x3de73e6f	0.11291205
11	0x3d835c74	0.064141184
12	0xbd59321f	-0.053026315
13	0x3e099a19	0.1343769
14	0x3e11ebd8	0.14250124
15	0xbd0bdc65	-0.03414573
16	0xbda84a5c	-0.08217308
17	0x3dd10988	0.10206896
18	0x3d13eb1c	0.03611289
19	0x3d1dd081	0.038528923
20	0xbd6b54a3	-0.057453763
21	0xbc9e1a53	-0.019299662
22	0x3d582880	0.052773
23	0xbdf82ef9	-0.12118334
24	0xbc8723b3	-0.016496515
25	0xbe041ba5	-0.1290117
26	0xbc28979a	-0.010290051
27	0x3d5c9249	0.053850446
28	0xbd7b1ac2	-0.061304815
29	0x3d9a8c0c	0.07546243
30	0xbda75086	-0.081696555
31	0x3e345b6e	0.17613003
32	0xbd085ba8	-0.033290535
33	0xbd9ca9e4	-0.076495916
34	0x3d7e0698	0.062018007
35	0xbc21707b	-0.009853478
36	0xbd69605e	-0.05697667
37	0xbccde83d	-0.025135154
38	0xbc95c237	-0.018281085
39	0x3e08f08f	0.13373016
40	0xbdfb3b69	-0.12267191
41	0xbd4037ba	-0.046928145
42	0x3d325428	0.04353729
43	0x3e043e58	0.12914407
44	0x3ce0f543	0.0274607
45	0x3d4fedc1	0.05076385
46	0xbe36db8e	-0.17857191
47	0x3da58019	0.08081073
48	0x3d511c7b	0.05105255
49	0xbd844098	-0.06457633
50	0x3dd35715	0.10319344
51	0xbe09bcc9	-0.13450922
52	0xbdd63b1b	-0.10460492
53	0x3d90919f	0.07059025
54	0xbd95f15c	-0.07321426
55	0xbdca0a35	-0.09865228
56	0xbd9f23f0	-0.077705264
57	0xbe18c556	-0.14919028
58	0x3dbe6227	0.09296065
59	0xbdb20606	-0.08692555
60	0x3d4483ec	0.047977373
61	0x3d83342c	0.06406435
62	0xbdb701c3	-0.08935883
63	0xbd3fce7e	-0.046827786
64	0xbd2d0da1	-0.042249326
65	0xbda06acb	-0.07832869
66	0xbd465429	-0.048420105
67	0x3d757869	0.059929285
68	0xbd8666aa	-0.0656255
69	0xbd993dd2	-0.074824944
70	0xbdd85ae0	-0.10564208
71	0xbd5de220	-0.054170728
72	0x3ddf0d2d	0.10891185
73	0xbd4c2764	-0.049842253
74	0x3bd92aee	0.006627432
75	0xbdfe0721	-0.124037035
76	0x3d9a1ed6	0.07525413
77	0x3cf93ede	0.030425485
78	0x3da01c77	0.07817929
79	0xbdfd0338	-0.123541296
80	0xbe20db90	-0.15708756
81	0x3d26e1f1	0.04074282
82	0xbd941733	-0.072309874
83	0x3dfa1690	0.12211335
84	0x3dbc743c	0.092018574
85	0x3bb8aaae	0.005635581
86	0x3c8d06ec	0.017215215
87	0x3d1e4762	0.038642295
88	0xbce78895	-0.02826337
89	0x3d277a7c	0.040888295
90	0xbe57c8e9	-0.21072735
91	0xbd745992	-0.059655733
92	0x3cb2a3cf	0.021806626
93	0xbc08c464	-0.008347604
94	0xbd878740	-0.06617594
95	0xbd8334f7	-0.064065866
96	0xbca4127e	-0.020028349
97	0xbe54df27	-0.20788251
98	0x3dda957d	0.10673044
99	0xbe4d85ec	-0.20070618
100	0x3d719530	0.058980167
101	0x3e4acb1c	0.19804043
102	0xbd292008	-0.041290313
103	0x3e2c101a	0.16803017
104	0xbe29aecd	-0.16570587
105	0xbe0100db	-0.12597983
106	0x3dbbb24d	0.091648676
107	0x3cfee693	0.031115806
108	0x3d25473f	0.04035115
109	0xbd61a609	-0.055089984
110	0x3ce7027a	0.028199423
111	0x3d93ff6b	0.072264515
112	0xbd0b1b02	-0.033961304
113	0x3dc64a39	0.096821256
114	0xbd79b7f0	-0.060966432
115	0x3cfc232a	0.030778486
116	0xbd4e69ec	-0.050393984
117	0x3d29ab2d	0.04142301
118	0xbd657606	-0.05602076
119	0x3d16f11f	0.036851045
120	0xbdeda8a3	-0.116044305
121	0xbd6b9abc	-0.057520613
122	0xbe13881b	-0.14407389
123	0x3bef582b	0.0073042116
124	0x3e264fbe	0.16241357
125	0x3d59f1b6	0.05320903
126	0x3e30b6ae	0.17257187
127	0xbdaed8bf	-0.08537435
128	0x3d2f55e9	0.04280654
129	0xbd4f8b2f	-0.050669845
130	0x3c83bdb5	0.01608167
131	0xbd1448d2	-0.03620226
132	0xbe23df45	-0.1600314
133	0x3db372ad	0.08762107
134	0xbcf7a89a	-0.030231763
135	0x3c99f5bb	0.018793931
136	0xbacae160	-0.0015478544
137	0x3cd75c49	0.026289122
138	0x3e14b1c1	0.14520933
139	0xbdb9843c	-0.09058425
140	0x3decd339	0.11563725
141	0xbdb22e65	-0.08700255
142	0x3d3ccc43	0.046093237
143	0x3d7061fb	0.05868719
144	0xbd70d1b8	-0.058793753
145	0x3ce88384	0.028383024
146	0xbd54b49e	-0.051930062
147	0x3c041804	0.008062366
148	0x3ddaa57a	0.106760934
149	0x3bcc2017	0.0062294113
150	0x3c01565b	0.007894124
151	0x3cc03dcb	0.023466965
152	0xbd592f11	-0.0530234
153	0xbe355017	-0.17706333
154	0xbda60bdf	-0.08107733
155	0x3da839e9	0.082141705
156	0x3d7e40aa	0.062073387
157	0x3da697d7	0.0813443
158	0x3c85a097	0.016311927
159	0x3d3aaebb	0.045576792
160	0x3dc30c99	0.09523887
161	0xbcbdfd03	-0.023191934
162	0xbca89f9c	-0.02058392
163	0x3c8d2eb6	0.017234188
164	0x3d9d9f6a	0.076964214
165	0xbd133286	-0.035936855
166	0x3d874cce	0.06606446
167	0xbdc79ff4	-0.097473055
168	0xbdbdf54f	-0.092753045
169	0xbe37d94f	-0.1795399
170	0xbe013b58	-0.12620294
171	0xbd8f4b56	-0.06996791
172	0x3d1b6134	0.037934497
173	0xbbc7ca02	-0.0060970793
174	0xbdac46bd	-0.0841193
175	0xbe348232	-0.1762779
176	0x3dcecd1f	0.100977175
177	0x3d10b96b	0.03533308
178	0x3c6522ff	0.0139853945
179	0xbddacede	-0.10683988
180	0x3ddffcde	0.109369025
181	0x3e2bb541	0.16768362
182	0xbca79eb9	-0.020461427
183	0x3d6a2f9d	0.057174314
184	0xbde6480d	-0.11244211
185	0xbe2e99bd	-0.17050834
186	0x3d594ff4	0.053054765
187	0xbbfd9a9f	-0.0077393795
188	0x3dbe8edb	0.09304591
189	0xbddc6e5c	-0.10763237
190	0x3a9b9b2c	0.0011871806
191	0xbcbf7d88	-0.023375288
192	0xbe0e53a7	-0.13899098
193	0x3d767ed9	0.060179565
194	0xbd40fe99	-0.047117803
195	0x3d5574b0	0.052113235
196	0x3dd95d21	0.10613466
197	0xbd85239d	-0.06500933
198	0xbd898cd3	-0.06716313
199	0x3da06938	0.07832569
200	0x3ae073d8	0.0017124368
201	0xbda4aeb7	-0.08041137
202	0x3e483655	0.19551976
203	0x3df3506c	0.11880574
204	0xbe5a2081	-0.21301462
205	0xbd948d5c	-0.07253525
206	0x3c6b44f5	0.014359702
207	0xbd6f5dc7	-0.058439042
208	0x3dbc3ebe	0.091916546
209	0x3e034868	0.1282059
210	0x3c63da12	0.0139069725
211	0x3d8963ed	0.067085125
212	0x3e295af8	0.16538608
213	0x3d9f4c9b	0.07778283
214	0x3daa938d	0.08328924
215	0xbcb1ba99	-0.021695422
216	0x3c576a8c	0.013147961
217	0xbe1a74a4	-0.15083557
218	0xbc4b0a74	-0.012392629
219	0xbd2ac24a	-0.041689195
220	0xbb14d37f	-0.002270907
221	0x3d0a3db5	0.033750255
222	0xbdb3719b	-0.08761903
223	0x3df7b3ed	0.12094865
224	0xbd2ed0d6	-0.04267963
225	0xbbe8c418	-0.0071034543
226	0xbb8a3727	-0.0042180005
227	0xbd807adb	-0.06273433
228	0x3db13b0a	0.08653839
229	0x3d6f0e43	0.05836321
230	0xbd7516a8	-0.05983606
231	0x3e4f5055	0.20245488
232	0x3d5192ee	0.051165514
233	0x3da7b236	0.08188288
234	0xbd7f7758	-0.062369674
235	0xbc96eb2a	-0.018422682
236	0x3e14f311	0.14545847
237	0x3d76c700	0.060248375
238	0x3d41cf5d	0.047316898
239	0x3ddfdcc5	0.1093078
240	0xbde44b9a	-0.11147232
241	0xbd365882	-0.044518
242	0xbd8c7373	-0.06857958
243	0xbcabb143	-0.020958548
244	0xbdcdc75e	-0.10047792
245	0xbdb4d0d1	-0.08828891
246	0xbd11b1f9	-0.03557012
247	0xbdf79433	-0.12088814
248	0xbcb3f45e	-0.02196711
249	0xbce9b97b	-0.028530827
250	0x3cec68f9	0.028858649
251	0xbe8b2baf	-0.27181765
252	0x3d453e28	0.04815498
253	0xbcc3b6f8	-0.023890957
254	0xbd476d79	-0.048688386
255	0x3c79be6b	0.015243153

network_body._body_endoder.seq_layers.2.bias f4 [128]
0	0xbbd0dc2c	-0.006373903
1	0xbb7efd53	-0.0038908317
2	0x3b5ca946	0.003367023
3	0xb8aff953	-8.3910905e-05
4	0xb93c6ac8	-0.00017968856
5	0xbb728132	-0.0037003276
6	0xba119a3f	-0.00055542955
7	0x3b1fedbe	0.002440318
8	0x3b565749	0.0032705835
9	0x3b448d70	0.002999153
10	0x144ed3fa	1.0442147e-26
11	0xbb6497b1	-0.0034880454
12	0xb2e5fc7d	-2.6773927e-08
13	0xbc5ec584	-0.013596896
14	0xba1456d0	-0.0005658688
15	0x3112195a	2.1260207e-09
16	0xbba3c41e	-0.004997744
17	0xbb2898b9	-0.0025725795
18	0x3b417355	0.0029518206
19	0xbac679f2	-0.0015142544
20	0xbb116e20	-0.0022190884
21	0x3b843516	0.0040346486
22	0xbac086e3	-0.0014688637
23	0xbb0d0cc5	-0.0021522504
24	0xbaf2d1fa	-0.0018525713
25	0x3b16c220	0.002300389
26	0xaef55f04	-1.1158188e-10
27	0xbb1ec7ba	-0.0024227933
28	0x00000000	0.0
29	0x9ceac9b7	-1.5536963e-21
30	0xba211817	-0.0006145252
31	0xbb532a41	-0.003222123
32	0xbaee9924	-0.0018203598
33	0x3b7964ea	0.0038054534
34	0x3b37f7fe	0.00280714
35	0x3b25c053	0.0025291636
36	0xba6afc3b	-0.0008963977
37	0x2d224de3	9.225928e-12
38	0x3ba4569a	0.0050152065
39	0xbaf31d3b	-0.001854814
40	0xbb6bc145	-0.0035973352
41	0xbadb1508	-0.0016714642
42	0xbb1b3ec1	-0.0023688527
43	0xbc1181d6	-0.008881053
44	0xbaa58528	-0.0012628185
45	0xbb07ab41	-0.002070144
46	0x3b7272d0	0.0036994703
47	0xbb3c46ac	-0.0028728647
48	0x390de7b9	0.00013533131
49	0x972bd72d	-5.552467e-25
50	0xba4670f4	-0.0007569932
51	0xbb5878d1	-0.0033030997
52	0xa4bd9b08	-8.222832e-17
53	0x3a345400	0.0006878972
54	0xb9f2d613	-0.00046317335
55	0xbb03f40b	-0.0020134475
56	0xbba573de	-0.005049213
57	0x361e75b4	2.3612347e-06
58	0x3b9b1814	0.004733095
59	0xbbaa75e7	-0.0052020433
60	0x9d8a662d	-3.6633943e-21
61	0xbbbe3921	-0.00580515
62	0x0909857b	1.6553537e-33
63	0xabd7cc21	-1.5333326e-12
64	0x33424a1b	4.5236543e-08
65	0x2bcd9989	1.4608741e-12
66	0x3b841590	0.0040308908
67	0xbb9906ac	-0.004669985
68	0x3b12a6cf	0.0022377258
69	0xbab1e2ba	-0.0013571598
70	0xb8fc83ab	-0.000120408215
71	0x00000000	0.0
72	0xbb1080ff	-0.0022049544
73	0x3a53ffb0	0.00080871116
74	0xbbc4d63d	-0.0060069845
75	0xbbd6fb5d	-0.0065607266
76	0xbbe67d1d	-0.0070339576
77	0xaa3eb562	-1.693832e-13
78	0x3a2ae58c	0.00065191905
79	0xad81b28a	-1.474489e-11
80	0xaac12649	-3.4310253e-13
81	0x2f173556	1.3752319e-10
82	0x00000000	0.0
83	0x1b6e9a5f	1.9736779e-22
84	0xaa88b299	-2.428238e-13
85	0xbbdccd7b	-0.0067383624
86	0x3baa2b86	0.0051931767
87	0x2cc73fea	5.663016e-12
88	0x1f5afd55	4.6372847e-20
89	0xba7fcf8b	-0.00097584043
90	0xbbc3c606	-0.005974534
91	0xb98f088e	-0.0002728146
92	0xbac54aa8	-0.0015052157
93	0x3ae8345b	0.0017715798
94	0x3b89ec70	0.0042090937
95	0xbb932663	-0.00449066
96	0xbc15a467	-0.009133435
97	0xbbbbf92d	-0.005736491
98	0xbae5b657	-0.0017525655
99	0x3a7db775	0.00096785213
100	0x2c278e01	2.3810955e-12
101	0xbc0a6d4a	-0.008448908
102	0x3829b584	4.046179e-05
103	0xbac201d0	-0.0014801566
104	0xbb44f94c	-0.003005582
105	0xbaf1b1cb	-0.0018439827
106	0xbab5e7e7	-0.0013878316
107	0x39fe2259	0.00048472246
108	0xbae21eb7	-0.0017251585
109	0x1b9a892e	2.5565813e-22
110	0xbac8046e	-0.0015260109
111	0x3b1cb0c7	0.0023909078
112	0x8bcdd32a	-7.928085e-32
113	0xb31eb7de	-3.6954468e-08
114	0xbae8b747	-0.0017754816
115	0xb062731e	-8.238191e-10
116	0xbbcd5267	-0.0062659266
117	0xbc111c5f	-0.008856862
118	0x2d893a84	1.5601083e-11
119	0x3aa20b38	0.0012362963
120	0xbb457a04	-0.0030132541
121	0xb36777ff	-5.3893014e-08
122	0xbb83ac10	-0.004018314
123	0x3a083b53	0.0005196828
124	0x3b5744a4	0.003284731
125	0xbbc69f99	-0.006061506
126	0x3b9058ea	0.0044051306
127	0x3ba036c1	0.0048893397

action_model._continuous_distribution.log_sigma f4 [1, 2]
0	0x3cff0131	0.031128498
1	0x3d04cd7d	0.03242253

action_model._continuous_distribution.mu.weight f4 [2, 128]
0	0x3b27a17f	0.0025578437
1	0x3b8afeb4	0.0042417888
2	0x3be4e753	0.006985584
3	0x3b13f353	0.0022575452
4	0x3c3d8ee2	0.01156971
5	0xbbdbac24	-0.0067038704
6	0xbb99722b	-0.0046827993
7	0x3caf27e6	0.02138133
8	0x3922756c	0.00015493267
9	0x3bbad914	0.0057021473
10	0xbbc300be	-0.005951016
11	0x3b1516bc	0.0022749146
12	0x3c12b380	0.008953929
13	0xb9d96224	-0.00041462586
14	0xbc82d8b9	-0.015972482
15	0xbc14ed49	-0.009089776
16	0x39f241b3	0.00046206787
17	0xbc353ef8	-0.011062376
18	0x3bee8630	0.00727918
19	0xbc2368bb	-0.0099737
20	0x3bd16b28	0.006390948
21	0x3c1429d7	0.0090431785
22	0xba3d7541	-0.000722725
23	0xbc2cd4ca	-0.01054878
24	0x3c827a85	0.015927562
25	0x3d37e151	0.044892613
26	0xbbc6934c	-0.0060600396
27	0xbb620ed0	-0.0034493692
28	0xbbe5d91b	-0.0070144064
29	0x3bd3bf3b	0.0064620054
30	0xbb6bb748	-0.0035967398
31	0x3b954edc	0.00455652
32	0x3c532ed5	0.012889584
33	0x3c04f613	0.008115309
34	0x3bc27f68	0.005935598
35	0x3c93fa14	0.018063582
36	0xbc015497	-0.007893703
37	0x3ae27e8d	0.0017280147
38	0x3d01cdb9	0.031690333
39	0x3c3cbe95	0.011520048
40	0x3bbeed69	0.0058266413
41	0xbcaf439d	-0.021394545
42	0x3c008383	0.007843855
43	0xbaae5dcc	-0.00133031
44	0x3ca57c2f	0.020200817
45	0x3c4ee2aa	0.012627283
46	0x3bac4178	0.005256828
47	0x3c351abb	0.011053736
48	0x3d00d276	0.03145071
49	0x3aa48732	0.0012552498
50	0x3c13f300	0.009030104
51	0xbb49a1ec	-0.003076668
52	0x3bc51ac3	0.006015153
53	0x3c93a9c9	0.018025296
54	0xbbc9419b	-0.006141854
55	0x3bb68101	0.0055695777
56	0xbc94639d	-0.018113906
57	0xbc8eddef	-0.01743981
58	0x3ce5cdb8	0.028052196
59	0xbca118dc	-0.019665174
60	0x3d2a09b3	0.041513156
61	0xbc2367a0	-0.009973437
62	0x3c201fa9	0.009773173
63	0x3b80dda9	0.003932674
64	0xbc615357	-0.01375278
65	0x3bb46a9f	0.0055058743
66	0x3cad9e30	0.021193594
67	0xbca605d5	-0.020266453
68	0xba9e5759	-0.0012080475
69	0x3bc78be1	0.006089673
70	0x3b09ae9e	0.002100862
71	0xbc0f24a2	-0.008736761
72	0x3af4a464	0.0018664715
73	0x3b23cc23	0.00249935
74	0xbcebfdd9	-0.028807567
75	0xbc280c39	-0.01025682
76	0xbc505631	-0.012715862
77	0xbc9bf0e6	-0.019035768
78	0x3cc084d8	0.023500845
79	0x3d1b082a	0.037849583
80	0x3c7c155f	0.015385955
81	0xbc1e3c92	-0.009657996
82	0x3a6d4d6b	0.00090523687
83	0xbd0ee63f	-0.03488755
84	0x3ccc7472	0.02495787
85	0xbbfa60d1	-0.007640936
86	0x3c9957f3	0.018718695
87	0xbc0dbc9c	-0.008650925
88	0xbcecc7bf	-0.02890384
89	0xbb8708f5	-0.004120941
90	0xbc5c2af5	-0.013437976
91	0xbc3f9937	-0.011694244
92	0x3ca1ba74	0.019742228
93	0x3c40cf57	0.011768184
94	0x3d1f7134	0.03892632
95	0xbc0265d2	-0.007958846
96	0xbc4a9de3	-0.012366745
97	0x3abe4bfa	0.0014518492
98	0x3bb65286	0.005564037
99	0x3ca99517	0.020700974
100	0xbc275bd7	-0.010214767
101	0xbc104901	-0.008806468
102	0xbb98c0ff	-0.004661679
103	0xbcd735a2	-0.026270691
104	0x3bd82e84	0.006597342
105	0x3b3ab7da	0.0028490932
106	0xbba9ec98	-0.005185675
107	0x3cff43a6	0.031160187
108	0x3c5b5d7b	0.013388987
109	0xbc4c30ab	-0.012462775
110	0xbc13ef2f	-0.009029194
111	0xbc8718b6	-0.016491275
112	0xbb4cfacf	-0.0031277423
113	0x3c43f28e	0.011959685
114	0xbc958a07	-0.018254293
115	0x3a7d785e	0.000966912
116	0xbcee3ede	-0.029082712
117	0x3ad637a2	0.0016343484
118	0xbc1f3706	-0.009717708
119	0xbbb3ff0c	-0.0054930504
120	0xbc728489	-0.014802107
121	0x3ca15a21	0.019696297
122	0x3ab30e4b	0.0013660876
123	0x3c685e2a	0.014182607
124	0x3c14bc3c	0.009078082
125	0xbcb9ec2f	-0.022695629
126	0x3cdafc88	0.026731744
127	0x3cef984a	0.029247422
128	0x3b5ab83c	0.0033373972
129	0xbb84585f	-0.004038855
130	0x3c00a54d	0.007851911
131	0xbc74db5a	-0.014944876
132	0x3cd3c6c3	0.025851613
133	0xbd040a41	-0.03223634
134	0x3c3fef58	0.011714779
135	0x3b841cc1	0.004031748
136	0x3c88eb5c	0.01671379
137	0x3cc0afc2	0.023521308
138	0xbc9e76f6	-0.019343834
139	0xbc6f1f42	-0.014594855
140	0xbb111f34	-0.0022143843
141	0x39f515a5	0.00046746168
142	0x3c82414b	0.015900275
143	0xbc711d7f	-0.014716505
144	0xbc877c6c	-0.016538821
145	0xbc95b923	-0.018276757
146	0x3bc2408a	0.005928104
147	0x3c132d0a	0.008982906
148	0x3a29aa27	0.0006472193
149	0x3c88a4fd	0.016680235
150	0x3affe5b9	0.0019523419
151	0xbc14d31c	-0.0090835355
152	0xbc8c53e8	-0.017129853
153	0x3a91b3cc	0.0011116206
154	0xbc5705d6	-0.01312395
155	0x3c3d3874	0.011549104
156	0x3c58f400	0.013241768
157	0xbc5ce9d5	-0.013483484
158	0x3c29644b	0.010338853
159	0xbc6778f4	-0.014127959
160	0xbc2bc08b	-0.010482918
161	0x3c835852	0.016033325
162	0x3cd000ac	0.025390945
163	0x3bf5a8c0	0.007496923
164	0x3c768489	0.015046247
165	0x3ce21dbb	0.027602067
166	0x3d3de6e6	0.04636278
167	0xbc383940	-0.011244118
168	0xbbe133ec	-0.0068726446
169	0x3c3db6c9	0.011579224
170	0xbbe35838	-0.0069380067
171	0xbb215bce	-0.002462137
172	0xbc86cdec	-0.016455613
173	0xbbf3daab	-0.0074418387
174	0x3c5507d5	0.013002356
175	0xbc0f8427	-0.008759535
176	0x3c8f0c9f	0.017462073
177	0x3ca83981	0.020535232
178	0xbbc84037	-0.0061111706
179	0xbc2f948e	-0.010716571
180	0xbc06511c	-0.008198049
181	0x39542db3	0.0002023492
182	0x3c65f654	0.01403578
183	0x3ab582e4	0.0013848213
184	0xba9d6152	-0.0012007153
185	0x3b290886	0.0025792434
186	0x3cc8d533	0.024515724
187	0xbc093a47	-0.008375711
188	0x3c5242cb	0.0128333075
189	0xbcd9d187	-0.026589168
190	0x3af8ae0b	0.0018972767
191	0x3d07a714	0.033118322
192	0x3c910ed7	0.017707272
193	0xbbb07aca	-0.0053857313
194	0x3cad3b6b	0.021146497
195	0xbb4c014a	-0.0031128698
196	0x3d013ceb	0.031552237
197	0x3cbf8959	0.023380922
198	0xbbe19f85	-0.0068854713
199	0x3b8dffb8	0.0043334626
200	0x3c13721c	0.008999374
201	0x3c17eb83	0.009272459
202	0x3cfea58a	0.031084795
203	0xbb1e9629	-0.002419839
204	0xbcc5ea29	-0.024159508
205	0x3d1a2fb7	0.03764316
206	0xbb4e86fb	-0.003151356
207	0x3c52cd88	0.012866385
208	0x3c8c3e25	0.017119477
209	0xbc814e33	-0.015784359
210	0xbcc51fef	-0.024063079
211	0x3c469af8	0.012121908
212	0xbb58318f	-0.0032988524
213	0x3ccd2a18	0.025044486
214	0x3c75ba4f	0.014998033
215	0x3b3674c7	0.00278406
216	0x3c763ddf	0.0150294
217	0xbc94f293	-0.018182075
218	0x3bec3520	0.0072084814
219	0x3bbcc577	0.0057608443
220	0xbcb047df	-0.021518646
221	0xbc0efb0e	-0.008726848
222	0x3c6bf859	0.014402472
223	0x3b58b2a0	0.0033065453
224	0xbc8a040a	-0.01684763
225	0xbbad44cd	-0.0052877427
226	0xbcc6fbdf	-0.024290023
227	0xb9322b27	-0.00016991478
228	0xbca41f46	-0.020034444
229	0xbbb12127	-0.0054055634
230	0x3b1f2ae8	0.0024287049
231	0x3c4f482a	0.012651483
232	0xbbd7eb3d	-0.006589322
233	0xbbd31ecf	-0.0064428817
234	0x3a975ce7	0.0011548073
235	0xbc0369f6	-0.0080208685
236	0xbbe05193	-0.006845662
237	0xbbca2525	-0.0061689788
238	0x3d0a8cd5	0.033825714
239	0xbc496a36	-0.012293389
240	0x3bab1ffa	0.0052223178
241	0x3c23203a	0.009956414
242	0xba1c74a5	-0.0005968309
243	0x3baa2358	0.0051922016
244	0xbbb79075	-0.0056019374
245	0x3adc0f7b	0.0016789282
246	0x3a4b319d	0.00077512284
247	0x3cb2780a	0.021785755
248	0xbcae543d	-0.021280402
249	0x3c2d6edc	0.010585513
250	0xba8a7792	-0.0010564199
251	0xbc39eabd	-0.01134747
252	0x3cd41290	0.025887758
253	0xbca4bcb8	-0.02010952
254	0x3c6b77b2	0.014371799
255	0x3cda5fbe	0.026656982

action_model._continuous_distribution.mu.bias f4 [2]
0	0x3b462810	0.0030236281
1	0x3b54601f	0.0032405925

action_model._discrete_distribution.branches.0.weight f4 [1, 128]
0	0xbcaf97e6	-0.021434736
1	0x3b91a378	0.004444536
2	0x3c605a20	0.0136933625
3	0x3c30dba3	0.010794553
4	0x3bc38bba	0.0059675844
5	0x3c34e397	0.01104059
6	0xbc3769f5	-0.011194696
7	0xbc85022d	-0.016236389
8	0xbb531925	-0.0032211032
9	0x3c4b87db	0.012422527
10	0xbbe5324b	-0.006994521
11	0x3b5545f5	0.0032542918
12	0x3b93c384	0.0045093913
13	0xbbfd8c00	-0.0077376366
14	0x3c87d540	0.016581178
15	0xbb9a7a5e	-0.0047142943
16	0x3c76efa0	0.0150717795
17	0x3b8feba2	0.0043921033
18	0x3b89fee8	0.0042112954
19	0x3c3dfcc7	0.011595911
20	0x3c86a400	0.016435623
21	0xbbeb5eaf	-0.007182918
22	0xbb3da62a	-0.0028938153
23	0x3c14463f	0.009049951
24	0x3a0f70fe	0.0005471854
25	0x3bb7a459	0.0056043086
26	0xba74ae52	-0.0009333837
27	0xbc554f7f	-0.013019442
28	0xbb247de9	-0.0025099462
29	0xbb4a431f	-0.0030862761
30	0x3bf8d818	0.0075941198
31	0x3ba13931	0.004920148
32	0xbc60750b	-0.01369978
33	0x3ca2ab37	0.019857032
34	0xbb4f7a78	-0.003165869
35	0x3cd9ffa8	0.026611164
36	0x3b6b12ab	0.0035869281
37	0xba97aa47	-0.0011571132
38	0x3c289874	0.010290254
39	0xbba7f322	-0.0051254192
40	0xbb978ab6	-0.00462469
41	0xbb405cda	-0.002935222
42	0xbc600a5f	-0.013674348
43	0x39475f36	0.00019013588
44	0xbbb80400	-0.005615711
45	0x3c6c30ab	0.0144159
46	0xbb9cec60	-0.0047889203
47	0x3c49c104	0.012314085
48	0x3b442860	0.0029931292
49	0xbb59eb4d	-0.0033251822
50	0x3930d29d	0.00016863128
51	0xbc5efb0a	-0.013609657
52	0xbbb8389f	-0.005621984
53	0x3c1c723c	0.00954872
54	0x3a185ec1	0.0005812459
55	0x3b4e5f0f	0.0031489765
56	0xbc91c357	-0.01779334
57	0xbc0e8291	-0.008698122
58	0xbba03802	-0.004889489
59	0x3b5c5822	0.0033621867
60	0x3c784b70	0.015154704
61	0xbb711c17	-0.0036790424
62	0x3b41a086	0.0029545142
63	0xbc4ee42f	-0.012627645
64	0x3ba8fc00	0.005156994
65	0x3c016bac	0.007899206
66	0x3bae2f74	0.0053157154
67	0xbb787b95	-0.0037915458
68	0xbb385997	-0.0028129572
69	0x3af200a7	0.0018463329
70	0x3bc28acf	0.0059369574
71	0xbbf70930	-0.007538937
72	0xbb534a9d	-0.0032240518
73	0xbb7a1ae8	-0.003816301
74	0xbc6bdbaf	-0.014395638
75	0xbb8c8692	-0.004288503
76	0x3bf7807f	0.0075531597
77	0xba8e7490	-0.0010868479
78	0xbb638927	-0.00347192
79	0x3bf2d725	0.007410901
80	0x3ad9958d	0.0016600356
81	0xbb132152	-0.002245028
82	0xbb93a955	-0.00450627
83	0x3bc62f77	0.0060481387
84	0x3bdca8ba	0.006733981
85	0x3b188beb	0.0023276757
86	0x3b7aad58	0.0038250294
87	0xbbae6b77	-0.0053228694
88	0x3bdc66d2	0.0067261243
89	0x3b5e93c3	0.0033962585
90	0x3ac8f96b	0.0015333121
91	0xbbec08cd	-0.0072031976
92	0x3c08e5c9	0.008355566
93	0xbc64c3ba	-0.0139626805
94	0x3c03c198	0.008041762
95	0x3b6e135b	0.0036327455
96	0x3a8faaf2	0.001096098
97	0xbb91fa4f	-0.004454888
98	0x36c26ce3	5.7943266e-06
99	0x3b7ab1f3	0.0038253039
100	0x3af79887	0.0018890061
101	0xbc291056	-0.010318836
102	0x3c8dcafb	0.017308703
103	0x3b8a7a2b	0.0042259893
104	0x3ba9b34b	0.005178844
105	0x3c89d995	0.016827384
106	0x39c7ad67	0.00038085433
107	0x3be39c08	0.0069460906
108	0xbbbb6dfe	-0.005719899
109	0x3bb398c6	0.0054808585
110	0xbc0c8423	-0.008576426
111	0x3b6c78f2	0.0036082831
112	0xbbce6545	-0.0062986934
113	0xbc3059d5	-0.010763605
114	0xbb488c03	-0.0030601032
115	0x3c090f08	0.0083654
116	0xba504763	-0.0007945208
117	0x3b9c4a29	0.0047695828
118	0xbc194c4e	-0.009356571
119	0x3c00649b	0.007836486
120	0x3c64208a	0.013923774
121	0x3985d56d	0.0002552675
122	0x3c1387ff	0.009004592
123	0x3b3d6cc3	0.0028903938
124	0xbb1ce807	-0.002394201
125	0xbc3b0d51	-0.011416749
126	0xbc3e0494	-0.011597771
127	0x3c9d1a93	0.01917771
