FinalProject/results/Zombie/Zombie/Zombie-160539.onnx (onnx, 76122 bytes, 7 tensors)

network_body._body_endoder.seq_layers.0.weight f4 [128, 8]
0	0x3f17a6f4	0.59239125
1	0xbf1d6f0e	-0.6149758
2	0xbe46adad	-0.1940219
3	0x3f38b5b3	0.7215225
4	0xbd8ab896	-0.06773488
5	0x3e863a12	0.2621618
6	0x3ea7b0cc	0.32752073
7	0xbf352ade	-0.70768535
8	0x3e910d27	0.28330347
9	0x3d2e05cb	0.042485993
10	0xbeded4ec	-0.43521821
11	0xbf0ff629	-0.56234986
12	0x3e84eba6	0.25961035
13	0x3ee9509c	0.45569313
14	0x3e33153a	0.17488566
15	0x3ea04296	0.313008
16	0xbebbe785	-0.36700073
17	0xbf3e9f62	-0.7446195
18	0xbebf9a9a	-0.3742264
19	0x3efb573d	0.49089995
20	0xbe082b60	-0.13297796
21	0x3d94e5dc	0.07270405
22	0xbe9a29a5	-0.30109897
23	0x3e119335	0.14216311
24	0x3f2ab386	0.6668018
25	0xbe89cae1	-0.26912597
26	0x3ee3ea83	0.44514856
27	0x3e570274	0.2099703
28	0xbeef687b	-0.467594
29	0x3df455d5	0.11930434
30	0xbe58f35d	-0.21186586
31	0x3e59188d	0.21200772
32	0xbf1372db	-0.5759713
33	0x3e593268	0.21210635
34	0x3d7acf18	0.061232656
35	0xbf374d62	-0.7160245
36	0xbdef15b9	-0.11674065
37	0x3e32e6ed	0.17470904
38	0x3eb84902	0.359932
39	0xbf32728f	-0.6970605
40	0xbe076517	-0.13222156
41	0xbe2a5609	-0.16634382
42	0xbf244770	-0.64171505
43	0xbeb90462	-0.36136156
44	0xbd8e49a2	-0.06947638
45	0x3e3d96f6	0.18514618
46	0xbef2f710	-0.4745412
47	0xbe071db1	-0.1319492
48	0xbf4564f2	-0.77107155
49	0x3edd72b2	0.43251568
50	0xbf2fd656	-0.68686426
51	0x3efffeb6	0.49999017
52	0xbe291698	-0.16512525
53	0x3e29b7cb	0.16574018
54	0x3e10f00c	0.1415407
55	0xbe04e3c4	-0.1297751
56	0xbe2e7e3b	-0.1704034
57	0x3d8420e7	0.06451588
58	0x3ea572eb	0.32314238
59	0x3e572eb4	0.2101391
60	0xbe09e703	-0.1346703
61	0x3d6dff3b	0.058104735
62	0x3f0dc007	0.55371135
63	0x3d124fb0	0.035720527
64	0x3eaaddf1	0.33372453
65	0x3dcc00d5	0.09961096
66	0x3e95119d	0.29115
67	0x3ebc3f13	0.36766872
68	0x3db170ba	0.08664079
69	0x3ecc3c5b	0.39889798
70	0xbd988377	-0.0744695
71	0xbed07004	-0.4071046
72	0x3ec80791	0.39068273
73	0x3e64b61c	0.22335094
74	0x3f113ec9	0.5673643
75	0x3e17f8f1	0.14841057
76	0xbe80b6d1	-0.25139478
77	0x3f0e880e	0.5567635
78	0xbe85b008	-0.26110864
79	0x3ec4b87e	0.38422006
80	0xbf46219c	-0.77395034
81	0x3d2745b7	0.04083797
82	0xbe0a00fb	-0.13476937
83	0x3f2b8e8a	0.6701437
84	0x3ea07758	0.31341052
85	0x3e858558	0.26078296
86	0x3e377f22	0.17919591
87	0xbf0e1a95	-0.5550931
88	0xbe58ab82	-0.21159175
89	0x3f5fd0e9	0.87428147
90	0xbed55fc0	-0.41674614
91	0xbeb78ce1	-0.3584967
92	0xbdedd008	-0.116119444
93	0xbe5bde0d	-0.21471424
94	0xbe74a285	-0.23890121
95	0x3f14105d	0.5783747
96	0x3e8f2a12	0.27961785
97	0x3eacc60b	0.33744845
98	0xbf107c35	-0.56439525
99	0xbec253de	-0.3795461
100	0xbe9dfa25	-0.30854908
101	0x3eeefa45	0.46675315
102	0xbd894dcf	-0.06704294
103	0x3cc85ef0	0.024459332
104	0x3f9b824c	1.2149138
105	0xbe95b23c	-0.29237545
106	0xbee40339	-0.4453371
107	0xbd233883	-0.039848816
108	0xbe3a1d63	-0.18175273
109	0xbf118146	-0.5683788
110	0x3d6f2954	0.058389023
111	0xbd8ba658	-0.06818837
112	0xbee9e834	-0.4568497
113	0xbf275201	-0.65359503
114	0x3ccf6a42	0.025319222
115	0x3d8ec29f	0.06970715
116	0x3e45c574	0.19313604
117	0xbf13745b	-0.5759942
118	0xbef8ca04	-0.48591626
119	0xbf0b2659	-0.5435539
120	0xbe6094cd	-0.21931763
121	0xbf1032a3	-0.56327266
122	0xbc18f0be	-0.009334741
123	0xbed01bad	-0.40646115
124	0xbf2cc908	-0.6749425
125	0x3eda4ce2	0.42636782
126	0xbf467c1e	-0.7753314
127	0xbde273e3	-0.1105726
128	0xbe0dc482	-0.13844493
129	0x3e04f5bd	0.12984367
130	0xbf13dd7f	-0.5775985
131	0x3e45082a	0.19241396
132	0x3e8e5bff	0.27804562
133	0x3d8ff963	0.070299886
134	0x3d5fb4a4	0.05461563
135	0xbe5367db	-0.20645086
136	0xbf01e8a9	-0.50745636
137	0x3e90ab66	0.28255767
138	0xbf80dd3c	-1.0067515
139	0xbe175b36	-0.14780888
140	0xbeb77f58	-0.35839343
141	0x3ce2079e	0.027591523
142	0xbceabc74	-0.028654315
143	0xbeb0166c	-0.34392107
144	0xbd9719de	-0.07377981
145	0xbeb68d62	-0.35654742
146	0xbf326e2a	-0.69699347
147	0xbf0ae75e	-0.5425929
148	0x3ee70cd4	0.45126975
149	0xbe895955	-0.26825967
150	0xbe430e0a	-0.19048324
151	0x3dc311a0	0.09524846
152	0x3f03d480	0.51496124
153	0xbea4e1e1	-0.32203582
154	0xbde10faf	-0.109893195
155	0x3df93312	0.12167944
156	0x3da57cf9	0.08080477
157	0xbe8c20ff	-0.27368924
158	0xbf7a2035	-0.97705394
159	0xbdfeeeb5	-0.124478735
160	0x3ce8f130	0.02843532
161	0xbc3bf0fd	-0.01147103
162	0x3f273860	0.65320396
163	0x3c8ce43d	0.017198676
164	0xbdcc2174	-0.09967318
165	0x3d3a8f6e	0.04554694
166	0x3e31ae7f	0.17351721
167	0xbeb7e5fe	-0.35917658
168	0xbeb93f4e	-0.3618111
169	0x3e6b5831	0.22982861
170	0xbd9e0c6e	-0.077172145
171	0x3ea0c4a1	0.31400016
172	0xbc852c6d	-0.016256535
173	0xbed6409e	-0.41846174
174	0xbd0b12b7	-0.033953395
175	0xbf42e2ac	-0.76127124
176	0x3cd9a70b	0.02656891
177	0xbeb42262	-0.35182482
178	0xbe64b6be	-0.22335336
179	0xbe625f72	-0.22106722
180	0x3e8c8aa7	0.27449533
181	0xbe4f4d65	-0.20244367
182	0x3e2c28fd	0.16812511
183	0xbd7abb55	-0.06121381
184	0xbf0e7d06	-0.5565952
185	0x3eb3570d	0.35027352
186	0x3f89bdbe	1.076103
187	0xbd0c44e3	-0.034245383
188	0xbe4158b6	-0.18881497
189	0x3f33e630	0.70273113
190	0x3d9e42d9	0.07727594
191	0x3de346a4	0.11097458
192	0x3eb9c6b5	0.36284414
193	0xbede25f7	-0.4338834
194	0xbe5c5c79	-0.2151965
195	0xbe3d28e1	-0.18472625
196	0xbed0ad88	-0.40757394
197	0x3f17cd41	0.5929757
198	0xbf2db6f5	-0.67857295
199	0x3e5c21b9	0.21497239
200	0x3f4d3aac	0.8016765
201	0xbd2aeadd	-0.04172789
202	0x3eb4b047	0.3529074
203	0xbe5237f8	-0.20529163
204	0xbe82c597	-0.25541374
205	0xbf02d5be	-0.51107395
206	0xbb755e93	-0.0037440404
207	0xbeb87a24	-0.36030686
208	0xbe2c1154	-0.16803485
209	0xbe02a96b	-0.1275994
210	0xbef2a329	-0.47390106
211	0x3ec07e7f	0.3759651
212	0xbebd104a	-0.3692649
213	0xbe1bbdda	-0.15209141
214	0xbf811406	-1.0084236
215	0x3ed7da36	0.4215867
216	0xbdd2b749	-0.10288865
217	0x3c47ff7e	0.01220691
218	0xbef74b51	-0.4829965
219	0x3d6cd476	0.057819806
220	0x3e9476f3	0.28997
221	0xbed0676b	-0.40703902
222	0xbf06bc7a	-0.5263134
223	0x3e20b946	0.15695676
224	0xbd1f9079	-0.03895614
225	0x3e3107c8	0.17288125
226	0x3f5a5e5b	0.85300225
227	0x3f27a9e7	0.65493625
228	0xbca12cda	-0.019674707
229	0x3edaa04d	0.42700425
230	0xbda99b6a	-0.08281596
231	0x3d2ebdcd	0.042661477
232	0xbe7af52f	-0.24507593
233	0xbee0b3a1	-0.43887046
234	0x3ec8061d	0.39067164
235	0xbf03522d	-0.51297265
236	0xbeae3b4a	-0.3402961
237	0xbdc64478	-0.09681028
238	0x3f950fca	1.1645443
239	0x3d94d8fb	0.07267948
240	0x3ea4c8c5	0.32184425
241	0x3f072ffc	0.52807593
242	0xbf17fee5	-0.59373313
243	0xbf137838	-0.57605314
244	0x3ee1c5aa	0.44096118
245	0x3d90f6a8	0.07078296
246	0xbe909115	-0.2823569
247	0xbe36e82b	-0.17862003
248	0x3b844fba	0.0040378245
249	0x3e8a65e0	0.2703085
250	0xbef25a0b	-0.47334322
251	0xbf2e0d3b	-0.6798894
252	0x3e498bfa	0.19682303
253	0x3ec15c98	0.37765956
254	0xbe0b53ab	-0.13606136
255	0x3e704fad	0.23467894

network_body._body_endoder.seq_layers.0.bias f4 [128]
0	0x3cb6e85c	0.022327594
1	0x3c021e76	0.007941833
2	0xbceae0e4	-0.02867169
3	0x3ae13692	0.0017182401
4	0xbdcc1cac	-0.09966406
5	0x3d8c500a	0.06851204
6	0x3c9bde16	0.019026797
7	0x3da58cb9	0.08083481
8	0xbd09dcf5	-0.033657987
9	0x3d0b4c16	0.034008108
10	0x3d3b8988	0.045785457
11	0x3c05bfab	0.008163373
12	0x3d80e8ec	0.06294426
13	0x3deb5bd9	0.11492128
14	0xbcb9cab5	-0.022679666
15	0xbe12b847	-0.14328109
16	0x3d7b6479	0.061375115
17	0x3ce32bed	0.027730906
18	0x3d0e2d31	0.034711067
19	0xbd78acbc	-0.060711607
20	0x3d5ede3d	0.05441116
21	0xbc481a22	-0.012213262
22	0xbcff92a8	-0.03119786
23	0x3dab24f0	0.08356655
24	0xbdaa279f	-0.083083384
25	0x3cc954d9	0.024576591
26	0xbb916fec	-0.004438391
27	0xbcbb7120	-0.02288109
28	0x3dcdf290	0.10056031
29	0xbd3723ab	-0.04471175
30	0x3db8e1ac	0.090274185
31	0x3c27a621	0.010232479
32	0x3d6f8167	0.058473017
33	0x3d86c683	0.06580832
34	0xbda49cd3	-0.08037724
35	0x3ce3d780	0.02781272
36	0xbb9e51c0	-0.0048315227
37	0xbc5d3512	-0.0135014225
38	0x3d595103	0.053055774
39	0xbcf6a821	-0.030109467
40	0x3d359b2f	0.044337448
41	0xbb7b3373	-0.0038330227
42	0x3a65e6dc	0.00087700575
43	0x3dd26203	0.102726005
44	0x3dc9f4ac	0.098611206
45	0xbd97ac67	-0.0740593
46	0x3d88d558	0.06681317
47	0x3c711d45	0.014716451
48	0x3ccc7a0b	0.024960538
49	0xbdc66c7d	-0.09688661
50	0xbda8f01f	-0.082489245
51	0x3d4b3942	0.049615152
52	0x3d34f0bf	0.044174906
53	0x3d546b04	0.05185987
54	0x3d5e4007	0.05426028
55	0x3d529816	0.05141457
56	0x3d465f7a	0.048430897
57	0x3d935ebd	0.07195804
58	0x3ce46a64	0.027882762
59	0x3cad51c2	0.02115715
60	0x3d3a04a9	0.0454146
61	0x3d52d5a3	0.05147327
62	0xbd1b4755	-0.037909824
63	0xbd9923cc	-0.07477531
64	0xbd955508	-0.07291609
65	0xb98a53d0	-0.00026383856
66	0x3bc9696b	0.0061466
67	0x3daa8e38	0.08327907
68	0xbdad5b5d	-0.08464692
69	0x3d6e5c1c	0.05819331
70	0x3c4453c8	0.011982866
71	0x3d73f97a	0.05956409
72	0xbbeeb247	-0.007284436
73	0xbd20a9dd	-0.039224494
74	0x3d581914	0.05275829
75	0xbd0d3924	-0.03447832
76	0xbe06ad89	-0.13152136
77	0xbd68004a	-0.0566409
78	0x3d4b7ca9	0.049679432
79	0x3c6a1fd1	0.014289812
80	0xbdcdc0c3	-0.10046532
81	0x3dc60893	0.09669604
82	0xbcc3a901	-0.023884298
83	0xbc755ab4	-0.014975239
84	0x3d51c6ad	0.051214863
85	0x3d6908e0	0.05689323
86	0xbbaaf52e	-0.005217216
87	0x3cf81a03	0.03028584
88	0x3d5e3840	0.054252863
89	0x3d42493f	0.047433134
90	0x3b8e3e43	0.0043409183
91	0x3b288d98	0.0025719162
92	0xbc08cb35	-0.00834923
93	0xbdd8f35b	-0.10593291
94	0xbdd27f77	-0.10278218
95	0x3d120bc2	0.035655744
96	0x3d02bc18	0.03191766
97	0xbde91cba	-0.11382432
98	0x3d860e81	0.06545735
99	0xbd98f3d3	-0.07468381
100	0x3d9e0a9a	0.07716866
101	0x3db091f9	0.08621592
102	0x3d4b0e24	0.049574032
103	0xbd770e38	-0.060316294
104	0x3dd83afd	0.10558126
105	0x3cc2bf16	0.023772758
106	0xbdd46779	-0.10371298
107	0x3bc8c9fc	0.006127594
108	0xbd95d0c8	-0.073152125
109	0xbd281f00	-0.04104519
110	0x3d3e5234	0.046465114
111	0x3d07442e	0.033024006
112	0xbd415888	-0.04720357
113	0xbdd9fdf4	-0.10644141
114	0xbc93fc9f	-0.018064795
115	0x3d7c826d	0.06164782
116	0xbd5ddca8	-0.054165512
117	0xba36ea83	-0.0006977694
118	0x3d44f8c9	0.048088823
119	0x3d8591c6	0.06521945
120	0x3dc6c39e	0.0970528
121	0xbd4a3fc4	-0.049377218
122	0x3d8381d2	0.06421246
123	0x3cbd1db2	0.023085449
124	0x3a5b05ce	0.0008355052
125	0x3da093fc	0.07840726
126	0xbd166062	-0.03671301
127	0xbe0b85fc	-0.1362533

network_body._body_endoder.seq_layers.2.weight f4 [128, 128]
0	0x3c1c8009	0.00955201
1	0x3e5444a5	0.20729311
2	0x3d41bf9f	0.047301885
3	0x3df0e582	0.11762525
4	0x3d582614	0.05277069
5	0xbc0b57c5	-0.008504813
6	0x3e0e1b7f	0.13877676
7	0xbcb96122	-0.022629324
8	0x3c60dc77	0.013724438
9	0x3e18df32	0.14928892
10	0x3ce23ecd	0.027617836
11	0x3e02a086	0.12756547
12	0x3e0933e8	0.13398707
13	0x3e300676	0.17189965
14	0xbe0322b9	-0.12806214
15	0xbdab9bda	-0.08379336
16	0x3de26fa4	0.1105645
17	0x3d1fb639	0.03899214
18	0x3e0c8655	0.13723119
19	0xbd2cf916	-0.042229734
20	0xbd03c773	-0.03217263
21	0xbba90f07	-0.005159262
22	0x3da6c972	0.081438914
23	0xbe7b4717	-0.24538837
24	0xbd7f72cc	-0.06236534
25	0x3b310b16	0.0027014664
26	0x3d2768a4	0.040871277
27	0xbc59ae29	-0.013286152
28	0x3d6389bd	0.05555128
29	0x3de52f3f	0.11190652
30	0x3e0264dc	0.12733787
31	0x3e2151f1	0.15753914
32	0xbe3d6777	-0.184965
33	0xbd4c04b5	-0.049809176
34	0x3dcbf7b6	0.099593565
35	0x3e6a9974	0.229101
36	0x3e079b30	0.13242793
37	0x3e07f7fa	0.1327819
38	0xbc3c1fa7	-0.011482156
39	0xbbee69e1	-0.0072758053
40	0x3d4eb6c6	0.050467275
41	0x3e1a5d35	0.15074618
42	0xbcd41b69	-0.025891976
43	0x3dd3711a	0.10324307
44	0x3ca46ed2	0.020072374
45	0xbde55c9d	-0.11199305
46	0xbe161ffa	-0.14660636
47	0xbd87cd69	-0.06630976
48	0xbd7bf571	-0.061513368
49	0xbe561407	-0.20906077
50	0xbe53fee2	-0.20702699
51	0xbe04382e	-0.12912056
52	0x3d6bfa31	0.057611648
53	0x3d147854	0.036247566
54	0x3d61275c	0.054969177
55	0x3dd519a0	0.10405278
56	0xbdac46f0	-0.08411968
57	0x3d39c88c	0.045357272
58	0x3d8b030e	0.06787692
59	0x3d98aace	0.074544534
60	0x3de53340	0.11191416
61	0x3d2106b5	0.039313037
62	0x3e36c693	0.17849188
63	0xbcc572eb	-0.024102649
64	0xbda9d5fc	-0.082927674
65	0x3e14c9a0	0.14530039
66	0xbd2e553c	-0.042561755
67	0x3e1d669c	0.15371174
68	0xbc779ef6	-0.015113583
69	0x3d4e757f	0.05040502
70	0x3d8a987a	0.06767364
71	0x3e582ff3	0.21112041
72	0x3d51d142	0.051224954
73	0xbe3db6fa	-0.18526831
74	0x3d831ad5	0.06401602
75	0x3dac1802	0.084030166
76	0xbd72b33f	-0.059252974
77	0xbb7768fc	-0.0037751785
78	0xbcae5bbe	-0.02128398
79	0xbe3939a2	-0.18088391
80	0xbdd0b561	-0.10190845
81	0xbe5d1042	-0.21588233
82	0xbda06162	-0.07831074
83	0x3c26d6cd	0.010183048
84	0x3e6ac43a	0.22926417
85	0xbc8ce273	-0.017197823
86	0x3d40b350	0.047046006
87	0x3d50b270	0.05095142
88	0xbd9e73a6	-0.07736902
89	0xbdd04644	-0.10169652
90	0xbe4dcfdb	-0.20098822
91	0xbc810835	-0.015750984
92	0xbd88abd8	-0.066734016
93	0x3e15b2e8	0.14619029
94	0x3dae1eea	0.0850199
95	0xbdb9458d	-0.09046469
96	0xbca137e5	-0.019679973
97	0x3d88503d	0.06655929
98	0x3dc9754d	0.098368265
99	0xbd2b26dd	-0.04178511
100	0xbe395593	-0.1809905
101	0x3e7fa614	0.24965698
102	0x3e0fa94d	0.14029427
103	0xbe19f34f	-0.15034221
104	0x3d75de02	0.060026176
105	0xbe414b76	-0.18876442
106	0x3dbd4529	0.09241707
107	0x3dd932c8	0.10605389
108	0x3ded88b1	0.115983374
109	0x3cbfb3b2	0.023401115
110	0x3e5f9bd8	0.21836793
111	0xbe4d057e	-0.20021626
112	0x3b61ecb6	0.0034473366
113	0xbd8c7317	-0.06857889
114	0x3d804753	0.06263604
115	0xbd9abecf	-0.07555925
116	0x3d00d25b	0.03145061
117	0x3dfd26a8	0.12360889
118	0x3e337a98	0.17527235
119	0x3cac2a03	0.021016126
120	0x3dfdadf2	0.12386693
121	0xbe2acbef	-0.16679357
122	0x3cf1081e	0.029422816
123	0x3c7232ff	0.014782666
124	0x3cf615dd	0.030039722
125	0xbbdb82bc	-0.0066989344
126	0x3e32fde6	0.17479667
127	0xbe87e080	-0.26538467
128	0xbda84b7c	-0.082175225
129	0x3c88daed	0.016705954
130	0xbde340c4	-0.110963374
131	0xbdad69f0	-0.084674716
132	0x3d78e2ab	0.060763042
133	0xbe032925	-0.12808664
134	0xbe04148e	-0.12898466
135	0xbde4e69c	-0.11176798
136	0xbd959bc3	-0.073051
137	0x3db2e831	0.08735693
138	0xbd4d129a	-0.050066568
139	0x3d9fb15d	0.07797501
140	0x3c943133	0.018089866
141	0xbc13d803	-0.009023669
142	0xbdeeb685	-0.116559066
143	0x3e014dd6	0.12627348
144	0x3c0a0b6a	0.008425573
145	0xbe3e39d4	-0.18576747
146	0xbdf32fbd	-0.1187434
147	0xbdd4e3c6	-0.10395007
148	0xbd4364f5	-0.047703702
149	0x3d1dbde2	0.038511164
150	0xbdfe58de	-0.12419294
151	0xbc89f12a	-0.016838629
152	0x3daa7dc9	0.08324773
153	0x3bffb701	0.007803798
154	0xbd206854	-0.039161995
155	0x3e143407	0.14472972
156	0x3d8b4b36	0.06801455
157	0xbe347282	-0.17621806
158	0xbe091e2f	-0.1339042
159	0x3cd8574e	0.026408818
160	0xbdd878f0	-0.10569942
161	0x3ba32b26	0.004979509
162	0xbd2816f5	-0.04103752
163	0x3d397896	0.045281015
164	0x3e08a2c8	0.13343346
165	0xbcf390f0	-0.029732198
166	0xbdcd0957	-0.10011547
167	0xbe35b8e4	-0.17746311
168	0xbd9aa88b	-0.07551678
169	0x3d5cc2fc	0.05389689
170	0x3c046c05	0.0080823945
171	0x3e26c745	0.16286953
172	0xbde00c4f	-0.10939848
173	0xbd1254a5	-0.035725255
174	0x3d02744c	0.03184919
175	0xbd3e9c62	-0.046535857
176	0xbc25b5e7	-0.01011417
177	0xbc10e181	-0.008842827
178	0x3d86ab67	0.06575661
179	0xbc7e720f	-0.015530123
180	0xbdc4bd8b	-0.09606465
181	0xbd268042	-0.04064966
182	0xbd7a0e17	-0.061048593
183	0x3e3218dc	0.17392296
184	0xbdaf90ea	-0.08572562
185	0x3d827264	0.063694745
186	0x3c34c173	0.01103245
187	0xbca37eeb	-0.01995798
188	0x3caeac0c	0.021322273
189	0xbcda96ae	-0.026683178
190	0x3e01871c	0.12649196
191	0x3e2b8fab	0.16754024
192	0xbe1d2ea4	-0.15349823
193	0xbe4440f1	-0.19165398
194	0xbe1aceb0	-0.15117908
195	0x3d1420ef	0.03616422
196	0x3cc9fcd6	0.024656694
197	0xbdab2259	-0.08356161
198	0xbd988035	-0.074463286
199	0xbdbc3a36	-0.0919079
200	0x3e1dea5c	0.15421432
201	0xbc8cad12	-0.01717237
202	0xbcbbac99	-0.02290945
203	0x3d0d2dd3	0.03446753
204	0x3c1ef83c	0.009702738
205	0x3ca1ed71	0.019766541
206	0xbcf5cfed	-0.030006373
207	0x3d859c8e	0.06524001
208	0x3eac951a	0.33707505
209	0xbdfc2c22	-0.12313105
210	0x3d351740	0.044211626
211	0x3d68e972	0.056863256
212	0x3bf16924	0.00736727
213	0x3d6fb94d	0.058526326
214	0xbd7a6379	-0.06113002
215	0x39ebd0dd	0.00044978308
216	0x3ce9b2cc	0.02852764
217	0xbcb74ce0	-0.022375524
218	0x3db39ac4	0.087697536
219	0xbd474ebb	-0.048659068
220	0x3e035a6b	0.1282746
221	0xbc3fff0f	-0.011718526
222	0x3df1bce4	0.11803606
223	0x3e3da09b	0.18518297
224	0xbdc34cbf	-0.095361225
225	0xbd75b920	-0.059991002
226	0xbe27b03d	-0.16375823
227	0x3e1f10f3	0.1553381
228	0xbdf5dccb	-0.120050035
229	0x3e162e73	0.14666156
230	0x3d96748e	0.0734645
231	0x3d2a20ef	0.041535314
232	0x3c939cb0	0.01801905
233	0x3d43e601	0.04782677
234	0x3dc70366	0.09717445
235	0xbe3c1cc2	-0.18370345
236	0xbd53a438	-0.051670283
237	0x3cb15f07	0.021651758
238	0x3dd7c8c9	0.105363436
239	0xbdfb9513	-0.12284293
240	0xbdc8e13f	-0.09808587
241	0xbbc2cee1	-0.005945072
242	0xbcc0df76	-0.023544054
243	0xbc28ee30	-0.010310695
244	0xbd4dd10d	-0.050248194
245	0x3d07b4f8	0.03313157
246	0xbd65d15a	-0.056107856
247	0x3db4ba7c	0.088246316
248	0x3c45c4c2	0.0120708365
249	0x3c8ad3cb	0.016946694
250	0xbd613fe2	-0.054992564
251	0xbd4c7c3c	-0.049923167
252	0xbde6b820	-0.11265588
253	0x3dfb1c78	0.12261289
254	0xbd89cac6	-0.06728129
255	0x3deb4e02	0.11489488

network_body._body_endoder.seq_layers.2.bias f4 [128]
0	0x3d34e2e3	0.04416169
1	0xbd4cae0d	-0.049970675
2	0x3d686281	0.056734566
3	0x3e1145ba	0.14186755
4	0xbb3766ce	-0.002798486
5	0x3c3e8e32	0.011630582
6	0x3d7fa94b	0.06241731
7	0x3df2ee1d	0.11861823
8	0x3c931660	0.017955005
9	0x3de67b5f	0.11254
10	0x3db4c791	0.08827127
11	0x3d7fcaf8	0.062449425
12	0x3d44b1b2	0.048021026
13	0xbd9deb76	-0.07710926
14	0x3d7170cc	0.058945462
15	0x3da68bc0	0.08132124
16	0xbc5245cb	-0.012834023
17	0x3d4688d1	0.048470322
18	0x3d7f6fa0	0.062362313
19	0x3d2b3287	0.041796234
20	0x3b8c44ff	0.004280686
21	0x3c3f110a	0.011661777
22	0x3d654790	0.05597645
23	0x3cdde386	0.02708603
24	0x3c967b72	0.01836941
25	0x3d26b73d	0.040702093
26	0x3dbcc09e	0.09216426
27	0x3c1d274d	0.00959189
28	0xbacb1c06	-0.0015496023
29	0xbcbedcf0	-0.02329871
30	0x3d192f8a	0.037398852
31	0xbcf1a52c	-0.029497705
32	0xbd0000c2	-0.031250723
33	0xbd84328e	-0.06454955
34	0x3dbce3b9	0.09223122
35	0x3d7b34f3	0.061329793
36	0x3ca20608	0.019778267
37	0x3d70eca8	0.058819443
38	0x3d40e8ce	0.04709702
39	0xbcb744af	-0.022371618
40	0x3d3aca84	0.04560329
41	0x3d97ae85	0.07406334
42	0x3d086205	0.033296604
43	0x3da303e9	0.0795973
44	0x3d90e664	0.070751935
45	0xbd491fb2	-0.049102493
46	0x3da311b1	0.07962359
47	0x3d8d5dae	0.069026336
48	0x3d1e3db3	0.03863306
49	0x3cbf9725	0.023387501
50	0x3d598755	0.05310758
51	0xbc289693	-0.010289806
52	0x3d1d2643	0.038366567
53	0x3dd4b023	0.10385158
54	0x3b13e213	0.002256517
55	0x3c11426b	0.008865933
56	0x3d3e301a	0.046432592
57	0x3d8cb20a	0.06869896
58	0x3dc0af0d	0.09408388
59	0x3de1ffcb	0.11035117
60	0x3d8960c9	0.067079134
61	0x3dad40d5	0.08459631
62	0x3d095fcc	0.033538625
63	0xbca1dc0d	-0.019758249
64	0x3cacd220	0.02109629
65	0x3cc1defb	0.023665896
66	0xbcf9e286	-0.030503523
67	0x3cfbfbe0	0.030759752
68	0x3d7b7730	0.061392963
69	0x3d22a820	0.039711118
70	0x3d208779	0.039191697
71	0x3c63763b	0.013883169
72	0x3b4dd745	0.0031408828
73	0x3a9c0263	0.0011902567
74	0xbb9bcafe	-0.004754423
75	0x3cc68a1e	0.024235781
76	0x3d2d118d	0.042253066
77	0x3d707fe0	0.0587157
78	0x3d9c0447	0.07618003
79	0x3d19ae93	0.037520003
80	0x3d8549ea	0.065082386
81	0x3d8bdbbf	0.068290226
82	0xbdbf3239	-0.09335751
83	0x3cdb0fbe	0.026740905
84	0x3dadf061	0.08493114
85	0x3d6c9a25	0.05776419
86	0xbc1e0578	-0.009644859
87	0x3d651c2d	0.055935074
88	0x3d90c803	0.07069399
89	0xbb6d8b43	-0.0036246337
90	0x3db28711	0.08717168
91	0x3ceb9952	0.028759632
92	0x3d1b559d	0.037923444
93	0xbb20eae2	-0.0024554064
94	0x3d0ecabb	0.034861308
95	0x3d29ba65	0.041437525
96	0x3dca2b9e	0.098716006
97	0x3d141c5a	0.03615985
98	0x3d1ccac6	0.038279317
99	0x3d1aaa57	0.037760105
100	0x3d512b6b	0.051066797
101	0xbc6b01e5	-0.014343713
102	0x3ca0a13c	0.019608133
103	0x3d452480	0.048130512
104	0x3dcfd49b	0.10147973
105	0x3dc52e88	0.09628016
106	0x3da15555	0.07877604
107	0x3dd42adf	0.103597395
108	0xbcbc8a46	-0.023015153
109	0xbb7a65be	-0.0038207616
110	0x3d5c99b7	0.05385753
111	0xbc4f9d46	-0.012671774
112	0x3cdd5bf2	0.027021382
113	0x3dc18173	0.094485186
114	0x3d478140	0.048707247
115	0x3d81c734	0.06336823
116	0x3d621d1b	0.05520354
117	0xbc045700	-0.008077383
118	0x3dcd29bd	0.100177266
119	0xbcd1dde8	-0.025618508
120	0x3a46a4ae	0.000757764
121	0x3d2c8de8	0.04212752
122	0x3d2f36d9	0.042776916
123	0x3e1188f8	0.14212406
124	0x3de3780b	0.11106881
125	0x3da73b6f	0.08165633
126	0x3d856b16	0.06514566
127	0x3dbef4f5	0.093240656

action_model._continuous_distribution.log_sigma f4 [1, 2]
0	0xbe82b38f	-0.25527617
1	0xbeab8ab6	-0.33504266

action_model._continuous_distribution.mu.weight f4 [2, 128]
0	0x3ba423eb	0.0050091646
1	0xbc907610	-0.017634422
2	0x3d99054f	0.07471716
3	0x3deda257	0.116032295
4	0xbd4f669b	-0.05063496
5	0xbd4b717f	-0.049668785
6	0x3d705385	0.0586734
7	0x3d4cca87	0.049997833
8	0x3d734c59	0.059398983
9	0x3d85b42c	0.06528506
10	0x3d02fd88	0.031980067
11	0xbaee76c0	-0.0018193349
12	0xbd90bcfa	-0.070672944
13	0xbcc7a6ca	-0.024371523
14	0xbd7dab9e	-0.061931245
15	0xbd5592bf	-0.0521419
16	0x3caf5337	0.021401985
17	0x3d51cc3c	0.051220164
18	0xbd59c180	-0.05316305
19	0x3d86369b	0.06553384
20	0xbd2e8b12	-0.042613097
21	0xbd282086	-0.04104664
22	0x3db83d2d	0.08996043
23	0x3cde93ff	0.02717018
24	0xbd33a946	-0.043862604
25	0x3d29c9e7	0.041452315
26	0x3db53801	0.088485725
27	0xbd57dc74	-0.052700475
28	0xbd230d75	-0.039807756
29	0xbc65d5a4	-0.014027987
30	0xbde66197	-0.112490825
31	0xbca6a12e	-0.020340528
32	0xbc7b763d	-0.015348014
33	0xb9a1743a	-0.00030794909
34	0x3d9e8114	0.077394634
35	0xbc666c23	-0.014063868
36	0xbd41fdd9	-0.04736123
37	0xbcb8b9d6	-0.022549551
38	0x3c8e6e6a	0.017386634
39	0x3c3026ab	0.010751407
40	0xbd706ab5	-0.058695514
41	0x3db7fd94	0.08983913
42	0xbda05d4a	-0.078302935
43	0x3c4081d6	0.011749705
44	0x3db802e1	0.08984924
45	0xbd09309f	-0.033493634
46	0x3ce3c6f6	0.027804833
47	0xbc62d4a5	-0.013844644
48	0xbd0430c0	-0.032273054
49	0xbcdecbae	-0.027196731
50	0xbbb8b71d	-0.005637063
51	0x3c2153f8	0.00984668
52	0x3d847b63	0.06468847
53	0xbae41468	-0.0017401101
54	0x3b31215b	0.0027027938
55	0x3c924902	0.017857078
56	0x3d2b9755	0.04189237
57	0xbc47965c	-0.012181845
58	0x3dfcc035	0.12341348
59	0xbdc970ae	-0.09835945
60	0xbd98cb8c	-0.074606985
61	0x3d7fdabf	0.062464472
62	0x3d42b851	0.04753906
63	0x3c84a8f1	0.016193839
64	0x3da4eec7	0.08053356
65	0x3d1c1f73	0.03811593
66	0xbcb518be	-0.022106525
67	0xbd8894c2	-0.06668998
68	0x3d835490	0.064126134
69	0x3b089cc9	0.0020845404
70	0xbc435d67	-0.011924124
71	0xbcc80257	-0.024415178
72	0xbd17ac70	-0.037029684
73	0x3ce1eefe	0.02757978
74	0xbd2429ea	-0.040079035
75	0x3d371004	0.044693008
76	0x3c552651	0.013009624
77	0xbdc222c8	-0.0947929
78	0x3c436cef	0.011927827
79	0x3b72b69c	0.0037035113
80	0x3d570c24	0.052501813
81	0x3d5fe1dd	0.05465876
82	0x3afcddaa	0.0019292135
83	0xbd210f6b	-0.039321344
84	0x3d60bed7	0.0548695
85	0x3d37351b	0.04472838
86	0xbbcef60b	-0.0063159517
87	0xbd2d2b5b	-0.042277675
88	0xbd966a36	-0.07344477
89	0x3cb3b1f0	0.021935433
90	0x3d48765b	0.048940998
91	0x3d1c9f77	0.038238015
92	0xbd8f85ae	-0.07007919
93	0x3b02bb40	0.0019948035
94	0xbd9ef5a7	-0.07761698
95	0xbb96aa6d	-0.004597953
96	0x3db09604	0.08622363
97	0xbc634775	-0.013872017
98	0xbc4cffcb	-0.012512158
99	0xbc579366	-0.013157701
100	0xbdcb7366	-0.0993412
101	0xbca105df	-0.01965612
102	0x3d523add	0.051325668
103	0x3d92bbb9	0.071647115
104	0xbdec3e25	-0.11535291
105	0x3db2f6c7	0.08738475
106	0x3d71043c	0.05884193
107	0xbd04502a	-0.032303013
108	0x3ba62a0e	0.0050709313
109	0xbcc83b4f	-0.024442343
110	0x3c7765aa	0.015099922
111	0xbd241f58	-0.040068954
112	0xbceb8d8c	-0.028754018
113	0x3d3478a3	0.04406036
114	0xbd47f8c3	-0.048821222
115	0xba021cbb	-0.00049633876
116	0x3d9d5816	0.07682817
117	0x3ae63524	0.0017563445
118	0x3d13f955	0.036126453
119	0xbd0c929f	-0.034319516
120	0xbc309cf4	-0.010779608
121	0xbd3e1f80	-0.04641676
122	0xbdb8d035	-0.09024087
123	0xbd7a1c1f	-0.061061975
124	0x3bc6699e	0.006055071
125	0xbd4728f8	-0.048623055
126	0xbbbccc9e	-0.005761697
127	0x3cd309c5	0.025761494
128	0xbda57be8	-0.08080274
129	0xba3eb6b6	-0.0007275151
130	0x3cbb4b7c	0.022863142
131	0x3c77e9a4	0.015131388
132	0xbd070ea3	-0.032972943
133	0xbd636854	-0.055519417
134	0x3c43a306	0.011940723
135	0xbda95e49	-0.082699366
136	0xbd1f8eba	-0.038954474
137	0xbdb9f42e	-0.09079777
138	0xbd8f2145	-0.069887675
139	0x3d9c5ad7	0.07634514
140	0xbd488440	-0.04895425
141	0xbba64499	-0.0050740954
142	0x3dcc68e4	0.09980944
143	0x3ddda495	0.10822407
144	0xbc64ae82	-0.0139576215
145	0x3d611aad	0.05495708
146	0xbd26bb28	-0.04070583
147	0x3d21de51	0.039518658
148	0xbd0ae047	-0.033905294
149	0xbd65fa03	-0.056146633
150	0x3cd69362	0.026193324
151	0xbcad3588	-0.02114369
152	0xbd1d9132	-0.038468547
153	0x3d971d64	0.07378653
154	0x3cbf81d9	0.023377346
155	0x3d790211	0.060792986
156	0x3c815b06	0.015790474
157	0xbcb828ce	-0.022480395
158	0x3d8983a0	0.067145586
159	0xbcc7b5c4	-0.024378665
160	0xbbdcbca4	-0.006736355
161	0xbc80e3fb	-0.01573371
162	0x3ccfb56a	0.02535506
163	0xbdb7b166	-0.08969383
164	0x3d298b7f	0.0413928
165	0xbd8e095f	-0.06935381
166	0xbd60dc16	-0.05489739
167	0x3ce2ca59	0.027684378
168	0x3c99345c	0.018701725
169	0xbcd836e9	-0.02639337
170	0x3d69d7f8	0.05709073
171	0xbd73b8db	-0.059502464
172	0x3ca3dffa	0.020004261
173	0x3db2eabc	0.08736178
174	0x3d86db0a	0.06584747
175	0xbd9bd0c6	-0.0760818
176	0xbc1a1948	-0.009405442
177	0xbc0020a6	-0.007820284
178	0x3cf2a41b	0.029619267
179	0x3ca5cd6c	0.020239554
180	0x3d11aa0e	0.035562567
181	0x3dbf5c69	0.09343798
182	0xbd4b52a5	-0.049639363
183	0xbd7762bc	-0.060396895
184	0x3d8e7493	0.069558285
185	0xbda59f3e	-0.08087014
186	0xbd98404e	-0.0743414
187	0x3e135bb9	0.14390458
188	0x3dc3d6a6	0.09562425
189	0x38996c82	7.31582e-05
190	0x3d842150	0.06451666
191	0x3cfb0241	0.030640723
192	0xbc6240ca	-0.013809392
193	0x3d315c8a	0.043301143
194	0xbcc1acb8	-0.023641929
195	0xbd15f788	-0.036613017
196	0x3cc9dd4f	0.024641661
197	0xbd87f1bc	-0.06637904
198	0xbdbd559d	-0.09244845
199	0xbd1b4021	-0.037902955
200	0xbd4e7df2	-0.05041308
201	0x3d7f7d29	0.06237522
202	0xbd87e8b8	-0.066361845
203	0x3d7b5a33	0.061365318
204	0xbd446c65	-0.047954936
205	0x3ca2d41e	0.019876536
206	0xbdc9b35b	-0.098486625
207	0xbd893340	-0.06699228
208	0xbd53b2c8	-0.05168417
209	0xbd2a235f	-0.04153764
210	0xbd1056b0	-0.03523892
211	0x3d8d272d	0.06892238
212	0xbdab8bd9	-0.08376283
213	0xbb53a8aa	-0.0032296577
214	0x3d87156f	0.06595885
215	0x3d6fd4da	0.0585526
216	0x3d991335	0.074743666
217	0xbb92bdca	-0.004478191
218	0xbdb74776	-0.08949177
219	0x3d19b0a1	0.037521962
220	0xbd8da486	-0.06916146
221	0xbd9b7f53	-0.075926445
222	0x3aaeadf6	0.0013326991
223	0x3daa03c0	0.083014965
224	0x3d0eadcb	0.03483371
225	0x3dc150b4	0.09439221
226	0x3d5c4b40	0.0537827
227	0xbd927afa	-0.07152362
228	0x3cddf5b9	0.027094709
229	0xbc3eff02	-0.011657478
230	0xbc03bfcc	-0.008041333
231	0x3c8cbc1a	0.017179538
232	0x3df6ba05	0.12047199
233	0x3d4f9d54	0.05068715
234	0xbd0ebc96	-0.03484782
235	0x3e066e22	0.1312795
236	0x3d1637d3	0.036674332
237	0xbcbb264e	-0.022845414
238	0xbd69cfdb	-0.057082992
239	0x3c8e97a3	0.01740629
240	0xbca195c4	-0.019724734
241	0xbd95a3a5	-0.07306603
242	0xbde59ba1	-0.112113245
243	0x3dad58b7	0.08464187
244	0x3cac8d19	0.021063374
245	0x3c869e88	0.016433015
246	0xbd77648c	-0.060398623
247	0xbc4a5dc6	-0.012351459
248	0xbcb499b9	-0.022045957
249	0xbdb44d8a	-0.08803852
250	0x3d9bb991	0.07603753
251	0x3e27be7e	0.16381261
252	0xbdf593b7	-0.11991065
253	0x3dfb95ca	0.12284429
254	0xbd800488	-0.06250864
255	0xbdaa1e52	-0.083065644

action_model._continuous_distribution.mu.bias f4 [2]
0	0x3c6571e9	0.014004209
1	0xbc6944f7	-0.014237634
